Models/5udn5jrt_best_model.pth (torch, 91896 bytes, 33 tensors)

gnn1.gnn.convs.0.lin_l.weight f4 [32, 8]
00000000: a9e3 533e d381 ac3d 5bb1 cf3d 9492 bbbe
00000010: 0c3b cf3d 40d6 2c3e fec1 bdbe 2409 823e
00000020: 49f4 e6bc b1bf 413f 192c 3cbe a8d5 8a3c
00000030: e926 bdbe 1bee a13d 8dc5 923d 3650 d43d
00000040: 0dae 6d3e 67f4 603e 3126 233f 8d02 afbd
00000050: a146 273e 02c1 4e3e a8d3 02bf d944 b03e
00000060: b2aa 923e 034e 893e 7ce4 163f 2639 473c
00000070: 424c b83e 8bd2 2b3e bcc3 0abf 017d 053f
00000080: 4657 5bbe 329b 36bd 858b ff3c 9a16 e9bd
00000090: 1bbe 86bd 2592 95be 551d 83be 2fa9 febe
000000a0: dddb 12be 1805 4c3e 634d 50be 766e 9cbe
000000b0: e919 3dbe 0a79 543d 3a9b 93be cf8e e43d
000000c0: 2cc5 47be 1025 38bf f96e ee3d 7822 833c
000000d0: b46f a8bd 814f 2a3e 2af4 c63e 9cf7 c23e
000000e0: d108 f03c f40f a0bc 96bd 043e d620 a03d
000000f0: 1be7 c7bd e448 fabc 0dfe 633d d90e 983e
00000100: 5a27 babe 9552 96be 1b2d cabe aa81 94be
00000110: e32f 173e 6806 f4bc 50a1 87be 9c25 5c3e
00000120: bdae 903e 99f9 61bd 654b 053e 9b8a 84be
00000130: 3bb5 d4bd a7b6 6e3e 8761 e1bc a9c4 42be
00000140: e64a 073e b9f8 1fbd 75c3 903b 3b54 b73e
00000150: cf57 803a 9305 3ebf b389 343e f567 bf3c
00000160: 7d11 5abe 106a c3be 8455 37bd e384 22bf
00000170: 57d9 3c3e 63fe 05bf 7a8c cabe 2d68 96be
00000180: 2037 babe 7cef 29bd 5ba6 09bd daa4 91bb
00000190: 453c 39be 2698 9b3e 604b 59be 1cc1 8bbe
000001a0: 835d 9dbe 6f63 253c 5da9 8a3e 3f40 f23d
000001b0: 86b3 77bd d77b 1abe 3b67 083e e14e b23d
000001c0: e293 cb3e 9781 d33e e941 10bf 6516 a0be
000001d0: 6b98 473f cb24 073e 6cd1 263e 4e05 f33e
000001e0: 09ec abbe 3c56 08bd ba93 093e 2fc0 5f3e
000001f0: 4e0b 1cbd 2b89 3bbe ce66 5dbc f15d 893d
00000200: a8ce ffbe 4ea3 3d3e 0ea4 52be fd74 2abd
00000210: 380a d23e 15de 563f 89bd 513e 2314 0b3f
00000220: 4dd9 323e 6022 babd 0a9d 93be 721c d4be
00000230: 2767 bbbe f174 97be 84fa 33be 489c 81be
00000240: 3663 883e 8b2a e1be 4140 57bc f39f 793b
00000250: 4cc1 a0be 1eb9 0bbe 4284 e33d 5f95 103d
00000260: 8f32 69bd bb05 c7bd e165 b8be 46e8 07bd
00000270: 57b8 c8be 1137 2ebe ca9c b1be 69f9 7a3d
00000280: 2ca1 043e 3fd5 b3be b3b8 c53e 226c 243e
00000290: 588e 17bf a7ab 97be 3f6a 603d 431c be3e
000002a0: 735f 2a3d 252e 82be b1d8 af3e 5a3d debd
000002b0: f950 b03c a0d4 a1be c89d 2e3e 73b9 05be
000002c0: c4bb eebd e20b 0bbf 65fe cf3e 703c 103f
000002d0: 35fb 97be ec7e afbe a1fa 063e 195d ae3e
000002e0: 2e8f ce3e 05c4 6abd b20d e53d 3fce ec3e
000002f0: 52ff cabe f886 d0bd f1e9 4c3e 9d6b b73e
00000300: 129b 82be 6397 dbbe 8043 27be 103a f2be
00000310: 39af 02bf 1350 d5be ec21 513e d8b0 07be
00000320: 5051 9f3c 6319 803e e7e9 aabd 7909 af3d
00000330: b17e bdbe aeb0 583e 8442 9bbe bb8d 143e
00000340: 4994 ee3e 5e69 473f 3881 c83d 00ac 483f
00000350: 2f76 2d3d c512 a93e 0754 37be 113b 223f
00000360: c21e f53e ed92 c73c 566d bcbe d005 473e
00000370: 4bc8 57be 1ed4 16bf a416 c9bc b41e cb3e
00000380: 40dd 303e 2561 8ebe a23b 8bbe 88b6 bd3d
00000390: 39b2 293e 21be 7ebe c3d6 65be 4972 8bbd
000003a0: 4c4f 2abe fad8 91be 6670 9bbf 377d 29bf
000003b0: 0017 073f c39a f2bd b0c7 103e c750 043e
000003c0: 491c b0be ef09 80be 2369 b6bd d166 843c
000003d0: dfc6 3fbd dc26 a4bd 3dd0 91be 0a9e debe
000003e0: 8d76 83be eaec a63d fff4 c3bd 824c a7be
000003f0: ad5e 1c3e 60c6 8e3c 93ae 26be f0d2 843e
0.20692314 0.084231995 0.1014125 -0.36635268 0.10118684 0.16878605 -0.37062067 0.253976
-0.028192656 0.7568312 -0.18376197 0.016947582 -0.3694375 0.07906743 0.07166586 0.103668615
0.23210926 0.21968232 0.6373015 -0.085454084 0.16335537 0.20190814 -0.5110421 0.34427527
0.28645855 0.2681733 0.5894239 0.012159621 0.3599568 0.16779535 -0.54204917 0.52143866
-0.21420011 -0.0445816 0.031194458 -0.11381264 -0.065792285 -0.29213062 -0.25608316 -0.49738452
-0.14341684 0.19923818 -0.2034202 -0.30553025 -0.18466915 0.051873244 -0.28829366 0.11160051
-0.19508809 -0.7193155 0.1164226 0.016007647 -0.08224431 0.16631891 0.38858157 0.38079536
0.029301079 -0.019538857 0.12962946 0.07818763 -0.09760877 -0.030552335 0.055662204 0.29698828
-0.36358148 -0.2935988 -0.39487538 -0.29005176 0.14764361 -0.029788211 -0.2649026 0.21498722
0.28258315 -0.055169675 0.13017042 -0.25886998 -0.103861295 0.23311864 -0.027512325 -0.19020332
0.13212165 -0.03905556 0.0044178315 0.3580645 0.0009791794 -0.74227256 0.17630653 0.023365
-0.21295734 -0.38166857 -0.04475929 -0.6348402 0.18442284 -0.5234129 -0.395603 -0.29376355
-0.36370182 -0.041488156 -0.033605915 -0.0044447007 -0.18089397 0.30389518 -0.2122016 -0.27295768
-0.30735406 0.010094508 0.2708234 0.1182866 -0.06047394 -0.15086304 0.1332063 0.08706451
0.39761263 0.41309807 -0.5635057 -0.31267086 0.77966946 0.13197629 0.16290826 0.47464985
-0.33578518 -0.033285365 0.1343526 0.21850656 -0.03809672 -0.18314044 -0.01351328 0.06707371
-0.49962354 0.18519327 -0.20570394 -0.041615475 0.4102342 0.8393262 0.20482458 0.543276
0.17465706 -0.09088588 -0.2883075 -0.41427952 -0.36602136 -0.29581407 -0.17576033 -0.25314546
0.26638192 -0.4397777 -0.013137878 0.0038089722 -0.31397474 -0.13644835 0.111092106 0.0352987
-0.056932982 -0.0971789 -0.36015227 -0.033180498 -0.3920314 -0.17013194 -0.34689933 0.061273012
0.12952107 -0.3512363 0.38617477 0.16056874 -0.59201574 -0.29623148 0.054788824 0.37130937
0.041594934 -0.2542583 0.3434501 -0.10851546 0.021522986 -0.31607533 0.17052376 -0.13059025
-0.11656907 -0.54315007 0.40623775 0.5634222 -0.29683843 -0.3427652 0.13181545 0.34055403
0.40343612 -0.057315845 0.11184253 0.46251103 -0.3964792 -0.10181993 0.20011117 0.3582429
-0.25508934 -0.42888936 -0.16334343 -0.47309923 -0.5104862 -0.41662654 0.20423096 -0.13251054
0.019447953 0.2501937 -0.083453946 0.08546729 -0.3701072 0.21161148 -0.30324185 0.14507191
0.46597508 0.7789515 0.097902715 0.7838745 0.042349037 0.33022133 -0.17903148 0.6337138
0.4787503 0.024362052 -0.36802167 0.19435811 -0.210725 -0.58917415 -0.024546929 0.39671862
0.172719 -0.2780849 -0.27193934 0.09263331 0.16571893 -0.24877216 -0.22445206 -0.068089075
-0.16631812 -0.28485852 -1.2143676 -0.6620669 0.5276947 -0.11845925 0.14138675 0.12921439
-0.3439658 -0.2500758 -0.08906772 0.016162308 -0.046820518 -0.08015224 -0.28479186 -0.4347995
-0.25676385 0.081506565 -0.09568214 -0.32675558 0.15270491 0.017428577 -0.16277532 0.25942183

gnn1.gnn.convs.0.lin_l.bias f4 [32]
00000000: 5f8c bb3d c547 693f 9b7a a33e a290 753e
00000010: 09f3 23bf 265d 6a3e 53f2 aa3e eaea 1cbe
00000020: 9d4e 933c 765e fd3d 21a2 0cbf 0367 3fbc
00000030: 0d76 bf3e 0d10 16bc edb2 23be d7f2 b03e
00000040: a67a 0d3f 220f 63bd 29c7 c3be 01e3 da3e
00000050: a04c 2dbe 62c7 c0be 3860 1abf 0b91 14bf
00000060: eb1b ffbe 5da6 9b3d d772 643e f4a3 20bf
00000070: 8b4e 3d3c 98f8 433d 3d18 dd3e 5395 a5be
0.09157633 0.91125137 0.31929478 0.23980954 -0.6404272 0.22887096 0.33388004 -0.15323988
0.017981822 0.123715326 -0.5493489 -0.011682275 0.37394753 -0.0091591 -0.15986224 0.34560272
0.5526527 -0.055434354 -0.38237885 0.42751315 -0.16923761 -0.37652117 -0.6030307 -0.5803382
-0.49825987 0.07600091 0.22309433 -0.6275017 0.011554371 0.0478445 0.43182555 -0.32340488

gnn1.gnn.convs.0.lin_r.weight f4 [32, 8]
00000000: c08d 9f3c 554b dabb 0f0b 56be 9993 613e
00000010: 75a6 813e 8302 acbe 2705 97be d45d 70be
00000020: 3d22 8cbd e138 083f 82ef 1a3f a74a a93e
00000030: 2485 0b3c 0769 54be de8d 363d e882 cb3e
00000040: 1dc0 3b3f d293 6c3f 56d3 4ebf aeb0 04bf
00000050: da09 bc3d 4232 f43e 1d07 d1be b2c1 323e
00000060: fb1e 1f3f 08bd 4a3f 6be6 4fbf 0268 93be
00000070: 3e01 53bd 9c4f 7f3e 2b57 c9be 183a d93d
00000080: 7dc3 7d3f daf3 f13e 8f91 763d 951a 44be
00000090: c616 40bd 91ff 6b3f a238 483e a1a3 c1be
000000a0: ae41 383a 136a 55bc bce6 6cbe 74a4 acbe
000000b0: c62b a53e bf28 b33e dab3 06be b9d0 1fbe
000000c0: 045e 573f 0cc3 2dbe faae 1e3f cc31 27bd
000000d0: 343c b4bd 17a7 93bf c747 8abe 4d49 6a3d
000000e0: a198 563d 5b0a bbbd 8a9e 5a3e e564 42bd
000000f0: 1cde 76bd 2aac 1f3e ab30 88be 03aa 09be
00000100: c2c4 07be 09aa 8c3b 023c 393d e389 9ebd
00000110: aa1b d0be dd41 6e3e cb99 3d3e 91d7 213e
00000120: 5c27 4bbe 4cb5 373e 3ada 163e fb09 17be
00000130: 0dd0 77be 9313 23be 9432 5dbe bb1a 82be
00000140: 06d8 43bd a24a 673e 1926 e7be 109d e2bd
00000150: d8de 993e dad9 b9bd 91af 54be 25c4 e93c
00000160: d8a0 3b3f 5f2d a33e e37b 82be ef1e acbd
00000170: 0f97 913e 6ead 053f 9247 ccbe dc9c 11bd
00000180: ef95 df3d 0c3d 323e f10f ca3d 4e22 d3bd
00000190: a094 c9bd af65 c53d b442 333e d4c8 32be
000001a0: 5e92 90bd 4bc0 9f3e 4ec8 8bbe 21f8 263e
000001b0: 8587 f43d 1ee8 ea3d ace1 73be 5d7a 373d
000001c0: 6c08 31bf 2fd8 b4be 100d c8be 84d7 63bd
000001d0: dcdd 91bd 8872 763e 3ece d0bd 8bc6 2c3f
000001e0: c59f 173f 5a2f 34be 9c79 9e3d 0c3e d03e
000001f0: 35fc 2dbe 99ec a0bf 04f6 403e dc41 ac3d
00000200: 0d6a f8be bc6a 8e3e ba9e 4d3e 6296 a43e
00000210: 3b01 edbe 7838 05bd 1c4f ba3e ea4a 143f
00000220: 981c 0fbe 3811 533d d5a1 903e 6187 b9be
00000230: 5f71 8e3e d3ef 06be 75b8 a8be 23c0 b53b
00000240: 6dfb 513f 8f8a 933e 960e 1ebe ff6a 35bd
00000250: 720b b6bd 8da6 ae3e cd8a bdbd b09a e0bd
00000260: f7be dbbe 1845 bebe 067c 503d 6900 2f3c
00000270: d04b 12be 98ce debd d7b9 c03e dcee 603e
00000280: c995 863e c0be b73e f733 0f3f 4427 093f
00000290: f199 8f3e 839e ddbd 13a4 0ebd b0dd 183e
000002a0: 16ac 673e 5968 09bf de20 f7bd c36a 78bf
000002b0: 51e3 7dbd 7159 0bbf e98f 05bd 53e1 d5be
000002c0: c458 f43e 7e17 47be 61bd 1c3c 3623 a2bd
000002d0: 0733 373e d067 52bf 5132 60bd 4a3f 1c3f
000002e0: d21c ddbd 8427 1fbf 492f 983d f6bd 0a3e
000002f0: 0b77 9e3e 5f85 8ebd f7ed 163c 771a 213f
00000300: 6862 f83e bf92 663e d0b1 b6be 0fef 013e
00000310: 7e43 7e3e 5d9c b9be 8ce5 573e a71e 81bd
00000320: 7849 973d dd1a cb3c 789b 423e 40a4 89bd
00000330: e7ec 20be 82f2 0e3d 2365 5a3e 4551 96be
00000340: a268 76be 0968 3aba b188 35be 97bf 4abf
00000350: e37a eb3e 32dd 273d d773 99be 0f9b da3e
00000360: 39c0 2f3e b153 a93e 90e2 6a3c d11d b3bc
00000370: eeb2 e03e df99 b13e e42f d4bb fa72 4a3e
00000380: 05fe 46be 86e1 00be f34a 86be 9b84 bfbe
00000390: 34b3 423e f06e b8be daaa b2be 2681 d1be
000003a0: da84 12be 86c3 52bf 86f3 01bf 6895 1bbf
000003b0: a0b0 3c3e 78e9 94bf 1764 7c3d cd9c eb3b
000003c0: b99c 0d3e 52e3 2b3b c580 11be 418b d33d
000003d0: 568c dfbe 08d9 153e 4fdf cb3e 9e0d f6bc
000003e0: b089 0f3e 5c34 043b 5024 693e dadc b7be
000003f0: 1152 153e 1346 24be 66a6 c7be ee1a bfbe
0.019476771 -0.0066618123 -0.20902656 0.2202896 0.2532231 -0.33595666 -0.29496118 -0.23473293
-0.06842468 0.5321179 0.6052171 0.33064768 0.00851563 -0.2074319 0.04456889 0.3974831
0.73340017 0.92413056 -0.80791223 -0.5183209 0.091815665 0.47694594 -0.4082574 0.17456701
0.6215665 0.7919469 -0.81210965 -0.2879029 -0.051514857 0.24932712 -0.39324316 0.10606784
0.99126416 0.47256356 0.06019741 -0.19150765 -0.04689672 0.9218684 0.19552854 -0.3782015
0.000702883 -0.013025778 -0.23134893 -0.33719218 0.3225996 0.34992024 -0.13154545 -0.15606965
0.8412783 -0.16968936 0.61985743 -0.040818974 -0.08800545 -1.1535367 -0.27007887 0.05719881
0.052391652 -0.091328345 0.2134954 -0.0474595 -0.060270414 0.15593019 -0.2659963 -0.1344376
-0.13258651 0.0042927307 0.045223244 -0.077411436 -0.40646106 0.23267312 0.18515699 0.15804888
-0.19839233 0.17940253 0.14731684 -0.14749901 -0.24200459 -0.15925436 -0.21601325 -0.2541102
-0.047813438 0.22587064 -0.45146254 -0.110651135 0.3005283 -0.09074755 -0.20770098 0.028535912
0.73292303 0.31870553 -0.25485143 -0.084043376 0.2843556 0.5221776 -0.39898354 -0.035549983
0.109172694 0.174061 0.09866322 -0.103092775 -0.09842801 0.09638535 0.17505914 -0.17459422
-0.07059167 0.31201395 -0.27301258 0.16305591 0.11939911 0.11470054 -0.23816556 0.04479443
-0.69153476 -0.35321185 -0.39072466 -0.055625454 -0.071223944 0.24067128 -0.101955876 0.6749045
0.59228164 -0.17596188 0.07738039 0.40672338 -0.1699074 -1.2572204 0.18843848 0.08410999
-0.4851841 0.27815807 0.2008008 0.32145983 -0.4629 -0.032524556 0.3638848 0.5792681
-0.13975751 0.051530093 0.28248468 -0.36236098 0.2782087 -0.13177423 -0.3295323 0.005546586
0.8202427 0.2881665 -0.15435252 -0.044291493 -0.08888902 0.34111443 -0.0925499 -0.10967004
-0.42919132 -0.3716209 0.050899528 0.01068125 -0.14286733 -0.108792484 0.37641785 0.21966118
0.26286152 0.35887718 0.5593867 0.5357554 0.28047135 -0.10821249 -0.034824442 0.14928317
0.2262424 -0.53674847 -0.12066816 -0.97037905 -0.061984364 -0.5443335 -0.032607947 -0.4177347
0.47723973 -0.19442555 0.009566636 -0.07916872 0.17890559 -0.82189655 -0.054735485 0.6103407
-0.10796513 -0.6216967 0.07430894 0.13549027 0.30950198 -0.06959032 0.009212009 0.6293101
0.48512578 0.22516917 -0.35682535 0.1268885 0.24830434 -0.36252108 0.21083659 -0.063046746
0.0738706 0.024793083 0.19004619 -0.06720781 -0.15715371 0.034899242 0.21327643 -0.2935888
-0.24063352 -0.00071108394 -0.17727925 -0.7919859 0.45992193 0.040982433 -0.2997119 0.42696425
0.17163171 0.33071664 0.014336243 -0.021864804 0.43886513 0.34687707 -0.0064754356 0.19770423
-0.19432838 -0.1258603 -0.26229057 -0.37405857 0.19013673 -0.3602214 -0.34895974 -0.40918845
-0.14308491 -0.82329595 -0.5076221 -0.6077485 0.18426752 -1.1633749 0.06161889 0.007190323
0.13829316 0.0026228023 -0.14209278 0.10329295 -0.43661755 0.14633572 0.39818808 -0.03003579
0.14017367 0.002017281 0.22767758 -0.35910684 0.14582087 -0.16042356 -0.3899414 -0.37325233

gnn1.gnn.convs.1.lin_l.weight f4 [32, 32]
00000000: 33ef f0bc 1c4c 66bd 396e 3b3c 1f10 543d
00000010: 1225 0dbe 618e 02be b847 bbbd 7237 f13d
00000020: eaa8 35be 8b1e 30bc 03b5 41bd 8683 37bd
00000030: 253f 113d 1cf2 e7bd f2c3 28bd 5537 88be
00000040: 1109 b3be 44a3 e73c 4f79 b2be 472d 67bd
00000050: 48c2 44be 792b edbd 64f4 f6bd 8a62 dfbd
00000060: ecda 86be 37b3 ec3c 08a8 4f3d e297 73be
00000070: 1b9e a3bd acba 9abe 7971 08bf ea05 d6bc
00000080: e982 aebb d82a 2cbe 73ae f13e 78e9 b53e
00000090: 8d39 23be 930d 273e 94c5 bc3d 3b29 0a3e
000000a0: 30fd bebd 23af f9bd d2c3 c13c d575 303e
000000b0: 9cab 7bbd a01f 0dbe 9963 83be d262 67bd
000000c0: 6603 0fbe 0348 a63d a692 a1bd 51dc ff3c
000000d0: 4dd8 a7bd d7e8 3cbd a7c6 8a3d b2bb 91be
000000e0: dae3 efbd 3792 5e3c f692 a1bd 6301 4ebe
000000f0: d6f3 6a3d 1e1a 53be 8a85 8c3c ae63 04bd
00000100: 2c71 c03d 262b b5be 0161 bebd f325 e03d
00000110: c01c 3cbe 94dc 773c 729d f8bc dc11 73bd
00000120: 1163 cdbc 86f0 903d bae8 25bd d884 25be
00000130: 6257 86bd 5edc 9b3d f3bc b2be f67b 99bc
00000140: 32ee 823d bce3 3c3d 640e 27be 0375 00be
00000150: a7d1 53bc 7077 bcbd 6c23 33be 4a4f e8bd
00000160: 96e7 66be aec8 733d aef6 95bd 3416 1fbd
00000170: 8fab 41be 08e9 91be 91a5 9dbe c150 febc
00000180: ecca 52bd 176a 62be 33ba 0c3e 22ed 3abe
00000190: 081f 61b9 4295 9f3d 1a44 4ebe dcbd e53d
000001a0: 84e7 42bc 8222 f13d 6c97 b53d 5d4e babd
000001b0: 39c7 8ebd 9fd0 ae3d 8219 66bd 0319 0cbd
000001c0: 449f 64be 00fc 0e3e b330 903d 0779 a43d
000001d0: b447 74be fdcf 8e3d 3dec 4abd 2d5c 24bb
000001e0: f1a7 6ebe 425f 0bbd 92ff d13d 7153 203b
000001f0: f958 ebbd 44a7 923d 4d4c b73d bcb3 1c3e
00000200: e6a9 483d 45b8 9bbd 15e0 87bd d3e2 59be
00000210: 7fef 96bd 4980 15be c507 99bd fafc 663d
00000220: b193 813d 7c1b 18be d167 8fbb 04f0 95bd
00000230: 75d7 00be d7f6 eb3d 14cb 2bbe 3fb4 19be
00000240: c661 48be 57f1 d03d 439a 6fbe 9c2f 243e
00000250: ec92 9d3d b389 99bd 0218 fcbd 8be1 5a3c
00000260: 96d5 fe3c 8910 21bd e3b8 0ebe 888a e73d
00000270: d78a da3d d2bc 6cbe a48d 903d d43c e03d
00000280: 1ec0 01be 4d29 33be 9e62 c3bd e138 d83d
00000290: 480c ad3d 6794 093e f31d 283c 45ed 65bd
000002a0: a155 aa3d 797d bcbd 7c38 cdbd 8fd3 13bd
000002b0: 5b29 30be e053 25bd 11ed 5fbe e371 ccbd
000002c0: 98a3 02be 397c 22be 2388 10be dc44 303d
000002d0: c755 88bd 64fe 8abe c676 2e3d 2d6d b1be
000002e0: 214f efbe de06 49be 7a52 223e 4c51 d6bd
000002f0: a94c 1a3e 5482 b2be 8032 b6bd 1e18 c43d
00000300: 25ff 1fbe b822 8ebd f35a d3bd 1e93 ef3d
00000310: 0352 9ebd 1185 2cbe 4fa4 0d3e f149 4dbd
00000320: 7d91 39bd f0a6 ed3b eb29 dcbd 8f05 2cbe
00000330: 9cf9 21be a2a8 21be 04d5 143e 93ce d9bd
00000340: 0717 24be 9e43 f6bd d20b 06be 447a 843d
00000350: 8912 003c 0517 bd3d 0570 2d3e 0bb3 8fbc
00000360: d876 b9bd f025 52bd 2adf f83d 3c46 2ebd
00000370: 594e 083e 0954 e33d 96fe cd3d 05ec 29be
00000380: aede 0ebd f1fd 3cbe b507 633e ee1f 723e
00000390: b4f2 9bbe ce7d 62bd 088a 97be 1639 a2bb
000003a0: 078c dbbc 8ec9 9a3a ab76 76be 5259 ba3e
000003b0: 4146 80be b29e 253e f850 31be 2a26 24be
000003c0: d210 1ebe dc55 eb3d e3fc 76be d7fb 9cbd
000003d0: da96 e5be fad7 2bbe 4bb9 8dbe 872c 9bbe
000003e0: 1213 8fbe 0202 4a3d 6868 48be 963f 18be
000003f0: f5e8 323e a211 29be 6cd6 b3be 9875 cbbd
-0.029410934 -0.056224927 0.011439853 0.051773187 -0.13783672 -0.12749626 -0.09144539 0.117781535
-0.17740217 -0.0107494695 -0.047291767 -0.044803165 0.03546061 -0.113254756 -0.041202493 -0.26604715
-0.34967855 0.028276093 -0.34858176 -0.056439664 -0.19214737 -0.115805574 -0.120583326 -0.10907467
-0.263389 0.02889405 0.050697356 -0.23788407 -0.079891406 -0.30220544 -0.53298146 -0.026125867
-0.0053256643 -0.16813219 0.47203407 0.35529685 -0.15939923 0.16313772 0.092173725 0.1349229
-0.093256354 -0.12191608 0.023652945 0.1723245 -0.061442956 -0.13781595 -0.25661924 -0.056490727
-0.1396614 0.08119204 -0.07889299 0.031232985 -0.08195553 -0.04612049 0.06776171 -0.28463513
-0.11713381 0.013584665 -0.07889359 -0.20117716 0.057361446 -0.20615432 0.01715352 -0.032321624
0.09396586 -0.35384482 -0.09295846 0.10944738 -0.18370342 0.0151282735 -0.030348513 -0.059343204
-0.025071653 0.07077126 -0.04050515 -0.16163957 -0.06559636 0.07610391 -0.34909782 -0.018735867
0.063930884 0.046115622 -0.16314083 -0.12544636 -0.012928403 -0.092024684 -0.17493981 -0.11343248
-0.2254928 0.059517555 -0.07322441 -0.038839534 -0.189131 -0.284981 -0.3079038 -0.031044366
-0.051463053 -0.22110783 0.13742904 -0.18254521 -0.00021469232 0.077921405 -0.20143166 0.112178534
-0.011896018 0.1177416 0.08866772 -0.09096978 -0.069715925 0.08535885 -0.05617667 -0.03420354
-0.2232638 0.13963318 0.07040539 0.08030897 -0.23855478 0.06973264 -0.0495417 -0.0025079355
-0.23306252 -0.03402639 0.10253824 0.0024463797 -0.114915796 0.0716081 0.089501 0.15302938
0.048990153 -0.07603506 -0.06634537 -0.21277933 -0.07369899 -0.14599718 -0.07472185 0.0563936
0.06326998 -0.14854234 -0.0043763896 -0.0732117 -0.1258219 0.1152169 -0.16776687 -0.15010165
-0.19568548 0.10202282 -0.2339869 0.16033787 0.07694039 -0.07496967 -0.123092666 0.013359438
0.031107705 -0.03932241 -0.13937716 0.113057196 0.10671013 -0.23118904 0.07058266 0.10949102
-0.12670943 -0.17496224 -0.09540294 0.10557724 0.08449608 0.13435517 0.010261047 -0.05613448
0.08317114 -0.092036195 -0.10020539 -0.03609043 -0.17203276 -0.040363193 -0.21867777 -0.0998266
-0.12757719 -0.158677 -0.14114432 0.04303442 -0.06656986 -0.2714721 0.04259374 -0.34653607
-0.46740058 -0.19631526 0.15851775 -0.10464725 0.15068306 -0.34865057 -0.08896351 0.095749125
-0.15624674 -0.06940216 -0.103200816 0.11697982 -0.07730486 -0.16847636 0.1383221 -0.050119344
-0.045304764 0.0072525665 -0.10750183 -0.16798995 -0.15817875 -0.15786985 0.14534384 -0.10635104
-0.16024409 -0.12024616 -0.13090447 0.06468633 0.007816919 0.09232906 0.16937263 -0.017541429
-0.09055871 -0.05130571 0.1215194 -0.04254745 0.13311137 0.11100013 0.10058324 -0.1659394
-0.034880333 -0.18456246 0.22170909 0.23644993 -0.30458605 -0.055295758 -0.29597497 -0.004950653
-0.026800169 0.0011809336 -0.24068706 0.3639627 -0.250536 0.16173819 -0.17316043 -0.16030183
-0.15436104 0.11490986 -0.24119906 -0.07665222 -0.44841653 -0.16781607 -0.2768043 -0.3030741
-0.27944237 0.04931832 -0.19571078 -0.14868006 0.17471679 -0.16510633 -0.35124528 -0.099345386

gnn1.gnn.convs.1.lin_l.bias f4 [32]
00000000: 703a 2bbe 80b6 3a3c 955c afbe 46cb 4cbc
00000010: 2a39 993d 6048 963c bd72 16be 4dd5 cbbe
00000020: 04c3 54bd 31da 87be 8351 4fbe 9ed6 0a3e
00000030: 3580 c7be 451d c03d 8daf 1a3e 3889 273f
00000040: 6c40 f7bd 9893 babd ef68 c0bd 66cb 043b
00000050: 4656 2dbe 1319 3fbd ecc0 eabe 4ed5 63be
00000060: 1b0d a23d 9f49 df3d f7aa 14be 0f76 9d3d
00000070: 4d8a d43c 75dc 3b3f 8b64 6bbe 1798 6ebe
-0.16721511 0.01139605 -0.34250322 -0.012499636 0.07481606 0.018345058 -0.14692207 -0.39811173
-0.051943794 -0.26533654 -0.20245938 0.13558432 -0.38965002 0.09380583 0.1510603 0.65443754
-0.12072834 -0.091101825 -0.093950145 0.0020262836 -0.16927442 -0.046654772 -0.45850313 -0.22249338
0.07912656 0.10902714 -0.14518343 0.076885335 0.025944853 0.73383266 -0.22987573 -0.23300205

gnn1.gnn.convs.1.lin_r.weight f4 [32, 32]
00000000: 6727 20be 9466 9cbd 300d 2bbe eb0b 2ebe
00000010: 0ef4 373e 5163 37bd 67e6 73be 9745 5ebb
00000020: b4c7 64bb 00cb 0dbe 7483 80bd 9534 293e
00000030: 5e7d 56bc f366 253e d5eb 66be d77a 63be
00000040: d3d2 88bd 4481 0ebe b9dd 1cbd 82f1 b63d
00000050: d85a fbbd 051d 60bd 4940 7b3d d261 8bbd
00000060: e82b c3be b2ea f63d 9ea8 dabd d227 a6bd
00000070: 82c5 7dbc a28d fabd edd3 a6be 8fff 733d
00000080: 088b e43d 2925 07be a406 733f c77f 263f
00000090: 7110 28be be77 7dbc d721 3abd 35dd b4bd
000000a0: 414c 39be c01f 793d 2b5d 96be 9942 043f
000000b0: 45be 89be 1127 1ebe 5108 7fbe 9109 c83c
000000c0: 4d99 72bd bcde 353e 604d bfbd 5f60 f7bd
000000d0: 0412 7fbe 07a8 71be b397 67be 571e 0bbc
000000e0: a36e f93c f47b 4fbe adc8 dcbe 857d 05be
000000f0: 463b 453e c0d6 36bd 6844 213e 7d49 903b
00000100: d91d f63c 36a9 aebd e08f 58be 0a68 b73d
00000110: 576d f33d 3377 e8bd 8341 803d a985 94bb
00000120: 3ef7 f5bd 2a90 523b ae73 bdbe eb0e 2dbd
00000130: 569a 04bd 0121 993d 36a1 39be 7108 04be
00000140: d307 89be 187b 81bd 0fef 67be b424 e0bd
00000150: ff24 83be 14a2 46be 73ce 41be 80da 7dbd
00000160: ee59 20be bf4f 3abe b10d aebe 9de3 81bd
00000170: ef9e a03d c740 95bd c610 613e 65ab f9bc
00000180: 5762 343c ab58 82be 7f58 43bc 957f 61bd
00000190: 75a2 8c3d 853b 0dbc cd40 f8bd ef3f 73bd
000001a0: 8206 27be 8529 8f3c cc4b 3c3d fe94 273e
000001b0: 7154 3bbe 1fd1 9bbd c5ec 18be 3cd0 e93c
000001c0: f59c f1ba 63ef 473d bf13 5a3d 8be7 97bd
000001d0: 1daf 5d3d 8ce9 30bd e8b1 f0bd deda 7abe
000001e0: 5eb6 733d d684 0cbd 1fe6 d9bd 73ba c4bd
000001f0: ef20 133d e97b 14be da00 8dbd aef2 943d
00000200: a25e d73d 628e c13d 2df4 11bd b9df 48be
00000210: 8c2e 1abe 52be 1f3e ac8c 81be 47c2 33be
00000220: b91d 06be f964 22be 9d83 19bd b4d6 6e3b
00000230: 62de 09be d213 89bd 884d b53d 082e 3d3d
00000240: 5a8c c93d c073 70be 11a7 3abd 9920 053f
00000250: 4dcb 203d 41cd 033c 1b9d e5bd 3f77 3dbe
00000260: 17ac 8a3b 840d c03b 9a60 493d c95f 69be
00000270: 5b0d d23d e90f 9b3d cadc 5a3e 1c29 2cbe
00000280: 75dc 45be ffad 443d c8f0 e7bd d735 cbbd
00000290: d425 3ebe fc76 efbd a9ae 643d d3ea f03c
000002a0: dc80 ed3d 5259 0f3e 327d a0bc 6b30 2a3e
000002b0: 575f fdbd 1b67 74bd a7bb 6ebe 7e5a aabe
000002c0: e3f0 00be 8d49 e73d 0122 8cbe dd48 853c
000002d0: 6e55 393e b01d 4fbe 64fe afbd 89a9 9abe
000002e0: d85d 68be 88dc 02be 3a03 053e e0e2 f8ba
000002f0: ae20 d13d 9d92 a6be fa53 b2be fe4e 36bc
00000300: 855e 9a3c 71a2 243d 2dcb 883d cbf3 e8bb
00000310: 4f8e 85be ad59 283e 7440 75bd 6e5a 183e
00000320: 18eb 1c3d 4a70 aa3d cf25 663d f673 dc3c
00000330: b7b5 dabd 8479 823d 7184 45be ce1a 2fbc
00000340: 5588 113d 7c8d 83bd b115 1fbe ce4c f1bd
00000350: ed15 6cbe b5d6 53be eb39 dbbd c315 153d
00000360: aaf1 c8bd 189c 15be cb51 093e d37a 9dbd
00000370: 1ab8 d93b c516 1cbe bd28 1dbc 6b83 2bbd
00000380: ed23 ffbd 8afd eebd 4747 863e 79a2 813e
00000390: da8c 8f3e 13b7 12be 729a 89be 4916 133e
000003a0: 2d31 85bd 93e2 373c eb71 a0be 9bd8 033e
000003b0: bc64 ec3c ee88 cb3d 8243 d2be f4bc 04be
000003c0: 9225 a4be 0737 a3bd e528 0fbd 1bb3 14be
000003d0: 3abc e4bd 54be 883e c0fb 0f3e bfc3 aabe
000003e0: 8045 84be c834 f2bd 9fac 983e ee8c a3be
000003f0: 1171 283e 3874 c4be f99d f2bd 6557 203d
-0.15640031 -0.07636753 -0.1670425 -0.16996734 0.17964193 -0.04477245 -0.2381836 -0.003391599
-0.0034909071 -0.1384697 -0.06275073 0.16523965 -0.013091413 0.16152553 -0.225509 -0.22214828
-0.066808365 -0.13916498 -0.03829739 0.08932783 -0.122731864 -0.054715175 0.061340604 -0.06805767
-0.38119435 0.12056483 -0.106766924 -0.08113064 -0.015488984 -0.122340456 -0.32583562 0.05956989
0.111593306 -0.13197769 0.9493201 0.6503872 -0.16412522 -0.015470443 -0.04544243 -0.088312544
-0.18095495 0.060821295 -0.29367957 0.5166412 -0.26902977 -0.1544459 -0.24905516 0.024418624
-0.05922823 0.17760748 -0.0934093 -0.12078928 -0.24909216 -0.23599254 -0.22616462 -0.00849112
0.030448264 -0.20262128 -0.43121853 -0.13036163 0.19260892 -0.044638395 0.15748751 0.0044032917
0.03004353 -0.08528368 -0.21148634 0.08955391 0.11886089 -0.113508604 0.06262495 -0.004532535
-0.12010048 0.0032129386 -0.3700232 -0.042250555 -0.03237375 0.07476998 -0.18127903 -0.12893845
-0.26763782 -0.063223064 -0.22649787 -0.109445006 -0.25614163 -0.19397765 -0.1892641 -0.061975956
-0.15659305 -0.18194483 -0.3399482 -0.06342242 0.07842814 -0.07287746 0.21979055 -0.030477235
0.011009774 -0.25458273 -0.011922955 -0.055053312 0.06866924 -0.008620148 -0.12121735 -0.059387144
-0.16311076 0.017475853 0.045970723 0.1636543 -0.1829393 -0.07608246 -0.1493407 0.028541677
-0.0018433618 0.04881228 0.053241488 -0.0741721 0.05412208 -0.043191478 -0.11752683 -0.24497554
0.05950009 -0.03430637 -0.10639595 -0.09605875 0.03592008 -0.14500393 -0.06884928 0.0727285
0.10516097 0.094509855 -0.035633255 -0.19616593 -0.15056819 0.15599945 -0.25302637 -0.1755458
-0.13097276 -0.1585883 -0.03747903 0.003644389 -0.13463739 -0.066932335 0.088526785 0.046186477
0.09841223 -0.23481655 -0.045569483 0.52002865 0.039256383 0.008044542 -0.11211606 -0.1850252
0.0042319405 0.005860986 0.049164392 -0.22790445 0.102564536 0.07571394 0.21373287 -0.16812557
-0.19322379 0.048017498 -0.11325222 -0.099223785 -0.18569118 -0.11692616 0.05583063 0.029408848
0.115968436 0.13998917 -0.019590948 0.16620032 -0.123717 -0.05966864 -0.23313771 -0.33272165
-0.12591891 0.112933256 -0.27369693 0.016270095 0.18098995 -0.20226169 -0.08593443 -0.3020747
-0.22692049 -0.12779438 0.12989512 -0.0018988512 0.10211311 -0.32533732 -0.34829694 -0.011127232
0.018843899 0.04019398 0.06679378 -0.0071091405 -0.26085135 0.16440459 -0.05987592 0.14878246
0.03831014 0.08322199 0.0561884 0.026910763 -0.106791906 0.063708335 -0.19288804 -0.010687543
0.035530407 -0.064234704 -0.15535618 -0.117822275 -0.23055239 -0.20687373 -0.10704406 0.036397707
-0.09811719 -0.14610326 0.13410108 -0.076894425 0.006644261 -0.15243061 -0.009592232 -0.041873377
-0.12458024 -0.116694525 0.26226255 0.2531927 0.2803715 -0.1432765 -0.26875645 0.1436397
-0.0650352 0.011223453 -0.31336913 0.12875597 0.028856628 0.09938227 -0.4106713 -0.12962705
-0.32059914 -0.0796948 -0.03495111 -0.14521448 -0.11168714 0.2670771 0.14060879 -0.33352467
-0.25834274 -0.118264735 0.298192 -0.31943458 0.16449381 -0.38369918 -0.11846537 0.039145846

gnn1.gnn.convs.2.lin_l.weight f4 [32, 32]
00000000: 64bc 9b3d a142 263d ae7f d4bd 1760 0dbd
00000010: b98c f53d 85ba 0b3e 02db 013e 45f7 453d
00000020: e948 c7bc 6d7f 043d 2ce2 813d 0606 a6bd
00000030: 4819 c3bd c047 c63d 713a ccbd 4f52 0abe
00000040: 6b68 0b3e dc74 8fbd 778e 133e cdc8 2bbe
00000050: 5304 febd c602 df3d 2428 a6be 3647 e2bd
00000060: b3c7 e4bc ad8c b63d 6975 123d 823c b0bd
00000070: 9bfb 213e 3797 1cbe 1ebd e9bd 54b9 713e
00000080: de82 bc3d eff3 b3bd fa5b f63d 7946 8cbd
00000090: 14b2 f03d 2704 333d bce9 46bc 9f87 223d
000000a0: b4a8 f6bd aef3 713d 00f5 8fbd d1ef 983d
000000b0: 4dea 5cbe b097 563d a215 11be 9d99 3dbe
000000c0: cf17 f23d 6a4b f53d 9acd 0d3e e025 e9bc
000000d0: c258 fe3d ae9f 16bc a57c 153d c01d 14be
000000e0: cca5 073e 0669 42bc 1262 29bd a688 253c
000000f0: d60f 5abd da57 983d 496d a9bd 762b 13be
00000100: d5fd 1f3e f65c 5dbf 3ad3 dbbd e280 32bd
00000110: 399c cfbd 9236 4c3e e01f ca3d 1c17 b0be
00000120: 8de3 81bf b913 a23e 3aae cebd 10ca 26be
00000130: d93f 023e 5dff 053b 7268 8dbf 6445 e83c
00000140: 8b6f 893d d033 a63d 05c9 8dbd 20b9 bebd
00000150: 3474 92bd d890 2abb b2dc a8bd 2954 a1bb
00000160: d913 1f3d f86e 26be 2a96 7d3d c31d 6c3e
00000170: 6d3c 9a3e cf2b 293e 6d3f 223e 5069 d4bd
00000180: 4441 dfbc d58b 2bbd 8468 a8bd 4ddc f93b
00000190: 82fa 593d 26f2 cfbd 6729 32be 10e4 2bbe
000001a0: ada7 b4bd c14b 123d 29db 3dbe 823b 4abd
000001b0: 0882 48be 4d16 bb3d 4d45 efbd 8706 20be
000001c0: 2bac e23d 4902 aabd 088d 4abd 101a e43d
000001d0: 5f14 bd3c 9c7e a9bc 97ca 40be f13f efbd
000001e0: 4121 fbbd c2bc d1bc 1745 1bbe 1d59 a13d
000001f0: 7544 90bc e8bd f03c d279 5cbe e6a5 2bbd
00000200: 7d7c 28be 07cb 1ebe 689a 15be bcf7 d83d
00000210: d16a 0bbe 2ae2 66be eb11 193e 5afb fb3d
00000220: 6478 45be c789 063e c9ff 60bd 5025 3b3c
00000230: a8d8 5cbe a6c4 7bbe 290b 093d bc31 0a3c
00000240: 13a7 663d d6d7 27be 224a 12be fae9 0c3e
00000250: d04d c2bd 4c47 dd3d fc70 06bf 7e2f 0dbe
00000260: d253 f43d 4ed7 8a3d c457 27be 5176 d73d
00000270: 2fe5 b6bc b0c6 91bd 9031 61bd 07b5 05be
00000280: 53b3 8fbc f4b8 0a3d dd7d cabc 5ec8 afbd
00000290: 6f12 7a3a 3e5b 98bc 1ca4 9dbb 1133 c0be
000002a0: 0424 acbe fe22 893d f683 0e3d 7a9a 903d
000002b0: 8c8b 963e 5ef1 47be ac39 933d 2cc9 13bf
000002c0: 1e49 db3d 9ab8 d8bb fe8d 96bd 5dbc 1e3e
000002d0: b340 063e 6424 9d3e 2646 b53d eff8 3d3d
000002e0: 109c 4abd 4adc 0cbc 0a21 51bd 402f 02be
000002f0: c6d6 213e ca14 b53d 698f b7bb 373c 5fbb
00000300: 61b5 ba3c 990e dfbe d640 783e 35f1 0f3e
00000310: 07f6 87be a8a5 d13e de45 cf3d f70e 043e
00000320: 425e a9be a50e 873e 81a8 073e cf4e 9cbd
00000330: 8bc3 c63d 4c6b 0fbd d673 d6be 99b7 36bf
00000340: ef18 62b8 166c b9bd 775c dcbd a97f 043d
00000350: 5c13 e13d 02a5 b03e 9f74 68bf c98b c2bc
00000360: fb37 333e 79c8 6cbd 1674 34be 0b3e ce3d
00000370: a1e5 ea3e 8db8 e7bd 008d 0f3d a32d 2bbe
00000380: 63de 303b ade7 1cbb 3f66 403d d2c5 11be
00000390: 8db6 95be aac1 a5bc 5113 073e 538b c83d
000003a0: 75ab 78bf b9a7 ba3c 20e9 093e c31b 87bd
000003b0: dda0 23be 0093 fdbd f1c2 2bbf 03f1 1fbf
000003c0: cd61 6dbd 7496 d0bc d315 53be 249e f23d
000003d0: 5305 07be 7b7f e9be 172a 29bf 2a76 f8bc
000003e0: b749 53bd ca5c c73d 6e55 89bd 1d4c bc3d
000003f0: 1174 053f 4a16 013e 2d52 4dbc c1dc fdbb
0.07604292 0.040590886 -0.103759155 -0.034515467 0.11989731 0.1364537 0.12681201 0.048331518
-0.024326758 0.032348085 0.06341967 -0.08106618 -0.095263064 0.09681654 -0.09972084 -0.1350796
0.13614051 -0.07004711 0.14409815 -0.16775818 -0.124031685 0.10889201 -0.324525 -0.11048739
-0.027927255 0.089135505 0.035756502 -0.08605291 0.15818636 -0.15292059 -0.11413024 0.23605853
0.092046484 -0.08786761 0.12029262 -0.06849379 0.11752716 0.04370513 -0.012140688 0.03968012
-0.12043896 0.05907028 -0.07029152 0.07467616 -0.21573754 0.052390754 -0.14168409 -0.1851563
0.118209474 0.11977275 0.13847962 -0.028460443 0.12419273 -0.009193344 0.036495823 -0.14464474
0.1324684 -0.01186586 -0.041353293 0.01010338 -0.05323776 0.07438631 -0.082727976 -0.14372048
0.15624173 -0.8646997 -0.10733648 -0.043579943 -0.10137219 0.19942692 0.09869361 -0.3439263
-1.0147568 0.31655672 -0.10091825 -0.16288018 0.12719668 0.0020446398 -1.1047499 0.0283534
0.06710728 0.08115351 -0.06923107 -0.093126535 -0.0715107 -0.0026026275 -0.08245219 -0.0049233628
0.038837288 -0.16253269 0.061910786 0.23058228 0.30124226 0.16520618 0.15844508 -0.10371649
-0.0272528 -0.0418814 -0.0822306 0.007625139 0.05321742 -0.10153608 -0.17398606 -0.16786218
-0.08821044 0.035716776 -0.18540634 -0.049373157 -0.19580853 0.09135113 -0.1168314 -0.1562749
0.11067995 -0.08301217 -0.049450904 0.111377835 0.023081003 -0.020690255 -0.18827282 -0.11682118
-0.12262202 -0.025602702 -0.15163074 0.07878325 -0.017610768 0.02938743 -0.21530846 -0.04190626
-0.16453739 -0.15507136 -0.14609683 0.105941266 -0.13614966 -0.22547212 0.14948241 0.12303801
-0.19284207 0.13138495 -0.054931436 0.01142247 -0.21567023 -0.24586734 0.03345791 0.008434709
0.05631168 -0.16390929 -0.14286092 0.1376113 -0.09487498 0.108046144 -0.5251615 -0.13787648
0.1193005 0.06779347 -0.16342074 0.10520614 -0.02232608 -0.07117975 -0.054978907 -0.13057338
-0.017541563 0.03386779 -0.02471822 -0.08583139 0.000953949 -0.018598195 -0.004810823 -0.3753896
-0.33621228 0.06696127 0.034793817 0.07060714 0.2940334 -0.19525668 0.071887344 -0.5772884
0.10707305 -0.006613803 -0.073513016 0.15501542 0.13110618 0.30691826 0.088512704 0.04637998
-0.04946524 -0.008597443 -0.0510569 -0.12713337 0.15804586 0.08841856 -0.0056018126 -0.003406299
0.022791566 -0.43565825 0.24243483 0.14056857 -0.2655489 0.40946698 0.10120748 0.12896334
-0.33079726 0.2637836 0.13247873 -0.07632219 0.097052656 -0.035014436 -0.4188525 -0.713739
-5.390582e-05 -0.09053819 -0.10759824 0.03234831 0.10990021 0.3450089 -0.9080295 -0.023748295
0.17501824 -0.057808373 -0.17622408 0.100704275 0.45878318 -0.11314497 0.035046577 -0.16716628
0.0026988022 -0.00239418 0.04697251 -0.14235619 -0.29240838 -0.020233948 0.13190962 0.09792199
-0.9713662 0.022785055 0.13467836 -0.06597092 -0.15979333 -0.12381554 -0.6709433 -0.6247713
-0.0579546 -0.025462367 -0.20613794 0.11846569 -0.13185625 -0.45605072 -0.6607985 -0.030329783
-0.05158397 0.09734495 -0.067057475 0.09194205 0.5213023 0.12606159 -0.012531799 -0.007747263

gnn1.gnn.convs.2.lin_l.bias f4 [32]
00000000: e8d8 a2bb ea12 97bc fa06 613e 46dc 84be
00000010: c97c 47be 93bd 8b3e 3eec cd3c df82 3f3e
00000020: 7eee 92be 35b8 8fbe fb50 97bc 9b34 ca3c
00000030: 5b5b 90bd db41 44bf cab9 9bbe 88f8 003e
00000040: a168 033f cf2b bb3e 0d0f 553f 1216 adbe
00000050: 398d 8a3e a5b0 95bd 850f a63d 8a5e 8c3e
00000060: bbe8 b73e ba3f be3c 7fe1 c93b f515 25be
00000070: 2f42 66be 624b 29bd 80e4 4cbe f1c1 063d
-0.004969705 -0.018441636 0.21975318 -0.25949305 -0.19481196 0.2729307 0.025137063 0.18702267
-0.2869758 -0.28070226 -0.018471232 0.024683287 -0.07048675 -0.7666299 -0.30415183 0.12594807
0.51331526 0.3655686 0.8322609 -0.338059 0.2706087 -0.07309083 0.08108429 0.27415878
0.35919747 0.023223747 0.0061609144 -0.16121657 -0.22486185 -0.041331656 -0.20009041 0.0328998

gnn1.gnn.convs.2.lin_r.weight f4 [32, 32]
00000000: 6fec 423e 921a 00bd cd97 be3c 053c b83d
00000010: b9cb d8bd b31a c3bd da1e 2d3d 7bb4 27be
00000020: f75d cdbd 2852 263e 2e65 cdbd e4b6 193e
00000030: 1585 e8bd 5080 f9bd a916 ae3b e230 64be
00000040: 2bbc 713e b5cb c9bd 93c9 f5bd fc51 0bbe
00000050: ef81 ddbc 5b05 ea3d 001d 38be 7d4c 3ebe
00000060: a476 a1bd 0899 d5bc a9d6 ad3d 046f 083e
00000070: b99b 09be 04fa 05be b58b 343d 3525 ddbd
00000080: 9126 0dbd bfbd f03d 892a 213e 589f c53c
00000090: 47bc 15bd 794c e03d 475a d1bd cab9 cfbc
000000a0: ee17 7dbe 010d a83d 37f8 0f3e cf2c 21be
000000b0: 099f 333c a4d0 86bd 696f 83bd 393c 3fbe
000000c0: d512 4e3d 3de8 1c3e 2a58 1c3e 0c87 8b3c
000000d0: 5d3e 853d 0c39 c5bd 32f0 ccbd 9e12 e8bd
000000e0: f6ce 0dbe ad79 023c 8f0f 923d 3cc0 b23d
000000f0: 028b d9bd 669a 04be bce9 04bd d50c 173e
00000100: 3462 f63d 8eb7 033e dbcc 653d bc1d bb3d
00000110: 8395 503b 8ded 92be 0291 b83d cef2 98be
00000120: c96d 963e 5923 f4be 83a6 cc3c b32b 793c
00000130: 05a8 03bf e4f6 09be eee3 213f baba c83e
00000140: 1aa0 09be 3fc1 1bbe fc88 4cbd f9d6 233e
00000150: cb58 a23e 24ed 40be 3d4f 5b3d 3870 53be
00000160: 33a5 92bd 6e07 18be f72e 913e f6ee 32be
00000170: 3772 bcbe af8b 6d3d a467 fb3d a163 083e
00000180: 99be 933d 06c1 2ebc 5367 0abb a926 5bbd
00000190: 8143 be3d 1b59 8bbd e647 383e ad3b 643d
000001a0: 4a05 3ebe f215 0f3e 6d9e b83d b717 0bbe
000001b0: eb3a a3bd 0437 853d 16c0 25bd 1f13 603d
000001c0: 0024 35be 68a3 0fbe 6a31 21be 3926 db3d
000001d0: 7aa6 c43d cfa5 4dbc 34a4 45bd 6439 2dbe
000001e0: 5ee9 4dbe 7a3f 99bd c066 a9bd 3533 e3bb
000001f0: 41b6 08be 4940 44b9 e11e af3d 19ca 22be
00000200: cfeb 63be 869e 633e 7e87 2a3c 1736 72be
00000210: 08ce 4bbd 2531 b5bd d112 49bd d2cd 9a3d
00000220: a9d2 333c d89d d6bb 8241 0fbe 5484 503d
00000230: 42d5 76be d8a3 34be 0b31 60be 418f 07be
00000240: 975c 84bd a007 933d c02e 1abe 25a1 f13d
00000250: 1b50 f63d d2a1 6fbd 1ae7 143b 2899 ddbd
00000260: 7a6b 1ebc f2d8 5f3d 12af 363e 3e12 70bd
00000270: becb 8d3d d638 4dbb 3e5b 133d 701b a23b
00000280: 4004 583c 6cc9 cc3d 5df0 673d 2c12 e23b
00000290: b5e9 c93d e5f4 08be 6924 253e f712 abbd
000002a0: f190 49be 55ce e53e 649e f03d 0300 c6bd
000002b0: 6457 bfbe 5a91 9b3d fc17 80bf cff8 063f
000002c0: a002 b9bd 0fdf 353e 9426 86bd 6529 113e
000002d0: a171 1c3e d878 3e3e e3ac dbbd dcbb aebd
000002e0: 351e 523e 8087 5abe 09aa 263d 16f7 f23d
000002f0: c351 043e b804 68bd bf47 4c3b b4e1 613e
00000300: 36b9 d2bd b7f5 8e3f 73f6 c2bc ac1d 6b3e
00000310: e39a 5a3e 62a5 fb3d d751 39bd c173 9cbe
00000320: 3a87 123d 0a26 87be 779d 3d3c 235f 04be
00000330: c8b9 babe 3f1e c4bd e641 b53e d05e 553d
00000340: ba74 ce3d 5e82 5bbc 8054 5ebd 0ee5 02be
00000350: e9e8 6c3e 741f 16be f313 4c3e 044f 69be
00000360: d83e d43b 2bbc 90bd bdad 803e 65b3 c1bd
00000370: 46e0 9d3e 35c9 0d3e e66e a53b 35f6 aabd
00000380: 42ed da3d 5012 343e 79c5 41bc 8f16 5abe
00000390: 6517 f3bb c289 59be a28d 813b ca0a bbbe
000003a0: 0223 023f 42f4 863d dfc3 bcbd 8561 233e
000003b0: f7dc c6be 3d96 77bd 11c9 423f 5298 7d3e
000003c0: 1f39 d6bd a648 e83d 3afa 92bd ed82 cabd
000003d0: cf2b f2bd 3230 be3c 6095 d3be 3285 063d
000003e0: 318e 563d 5cf4 79be d9fd 1d3e 9ff4 a1bc
000003f0: 1bc2 23bd 276b aa3c 84bc d83d cb69 3cbe
0.19035505 -0.03127534 0.023265744 0.08995823 -0.10585732 -0.09526577 0.04226575 -0.16377442
-0.10027688 0.16242278 -0.10029064 0.15011173 -0.113535084 -0.12182677 0.00531276 -0.22284272
0.23606937 -0.09853307 -0.12001338 -0.13605493 -0.027039496 0.11426803 -0.17979813 -0.18583865
-0.07883957 -0.026073948 0.08488209 0.13323599 -0.1343831 -0.13083655 0.044078548 -0.10798112
-0.034460608 0.11754941 0.15738882 0.024123833 -0.03655651 0.10952086 -0.10222297 -0.025357146
-0.2471616 0.08205605 0.1405953 -0.1573975 0.01096321 -0.06582764 -0.06417734 -0.18675317
0.05031093 0.15322967 0.15268007 0.017032169 0.065060355 -0.096300215 -0.10006751 -0.11331676
-0.1384848 0.00796358 0.07131874 0.08728072 -0.10622217 -0.12949523 -0.03244947 0.14750989
0.120304495 0.1286299 0.05610357 0.09136531 0.0031827397 -0.28696862 0.09012033 -0.29872745
0.29380634 -0.47683218 0.024981743 0.015208173 -0.5142825 -0.13473088 0.6323842 0.3920496
-0.1343998 -0.15210436 -0.049935326 0.15999974 0.3170837 -0.18840462 0.053542364 -0.20648277
-0.071604155 -0.14846584 0.28356144 -0.17473969 -0.3680589 0.05799454 0.12275627 0.13319255
0.07214088 -0.010666138 -0.0021118715 -0.053503666 0.09290219 -0.06804105 0.17996177 0.055720974
-0.18556705 0.13973215 0.09014592 -0.13583265 -0.07970222 0.06504634 -0.04046639 0.054705735
-0.17689514 -0.14027178 -0.15741506 0.1070065 0.096020654 -0.012551739 -0.0482523 -0.16916424
-0.20108554 -0.0748281 -0.08271551 -0.0069335946 -0.13350774 -0.00018715965 0.085508116 -0.15897407
-0.22257923 0.2222844 0.01040828 -0.23653446 -0.049757034 -0.08847264 -0.04909021 0.07558788
0.010975518 -0.006549578 -0.13989833 0.050907448 -0.24104789 -0.17640626 -0.21893708 -0.13238241
-0.064629726 0.07179189 -0.15056896 0.11798314 0.12026998 -0.058503933 0.0022720755 -0.10820228
-0.009669179 0.054650255 0.17840222 -0.058611147 0.06923626 -0.0031314394 0.035975687 0.0049471185
0.013184607 0.09999356 0.056625713 0.006899139 0.09859029 -0.1337467 0.1612717 -0.08353227
-0.19684197 0.4488398 0.117489606 -0.09667971 -0.3737136 0.07596083 -1.000732 0.527234
-0.09033704 0.17760871 -0.06550327 0.14175947 0.15277721 0.18600786 -0.10726335 -0.08531925
0.20519336 -0.21340752 0.040689502 0.11863534 0.12921815 -0.056645125 0.0031170694 0.22058755
-0.102892324 1.1168736 -0.023799157 0.22960538 0.21348147 0.12287404 -0.045244064 -0.30557063
0.035773493 -0.2639621 0.011573187 -0.12926917 -0.36469865 -0.095760815 0.3540184 0.052092373
0.100808576 -0.013397781 -0.054279804 -0.1278269 0.23135723 -0.14660436 0.19929485 -0.22784048
0.006477218 -0.0706714 0.25132552 -0.09458045 0.3083517 0.13846286 0.0050486205 -0.083477415
0.106897846 0.1758511 -0.011826866 -0.21297668 -0.0074185603 -0.21243957 0.0039536515 -0.3653167
0.5083467 0.06589557 -0.09217047 0.1595517 -0.38840458 -0.060446013 0.76088053 0.24765137
-0.10460114 0.113419816 -0.07176633 -0.09888253 -0.11824762 0.02321634 -0.41324902 0.03284187
0.052381698 -0.24409622 0.15428866 -0.019769965 -0.039980035 0.020803047 0.105828315 -0.18399732

gnn1.gnn.convs.3.lin_l.weight f4 [32, 32]
00000000: 4b89 05be 0a5d 49be fbfa b33d 4756 69be
00000010: 5446 313e e4e4 24be 7cdb e23e 6109 cd3d
00000020: 1683 003d a384 673e 4afd 613d 82ee b1be
00000030: 4a12 47bd 4028 313d 0b35 c43c c168 aa3e
00000040: dc9d b6bd ee93 bd3e c334 22be 8c91 2bbe
00000050: 548b e4be a890 a23d d3ae 08bf 66eb 3abf
00000060: 8b6d f8bd f679 65bd 05b2 8f3b 3511 593d
00000070: 7ecc 41bd e0f5 3bbe b5ca 833e b16e 1b3d
00000080: e495 9ebd ba18 4bbd 6794 ddbe 92ac 173e
00000090: f911 053e 558a 02be 642c a1be ed2a ea3d
000000a0: 00ab c13d 7f29 3e3e d197 d53c 316a b6be
000000b0: feb1 cbbd 80d4 c83d ebb6 e1bd b20f 7bbe
000000c0: 3ee4 cb3d 9144 e13d 223d 273d ae6e 2b3e
000000d0: 3678 06be 3b74 df3d aaa0 91be 92f2 11bf
000000e0: c863 1b3e edcd edbe 3390 a83e 9186 fe3d
000000f0: 04b2 143e 505e 37bc 29f2 8ebc eb34 04be
00000100: 2863 b2bd 9a2d 1abe ed57 bcbe 05c3 363e
00000110: ade6 4dbd 37ea bdbf d563 c73e 66ae 903e
00000120: 202c aabd 02dd 703e c13a 34be c0c3 353e
00000130: 1b6b dfbe 954b 5f3e 856c 95be d503 05bf
00000140: 0989 bbbe d954 a9bd b344 f33e b9ee d83e
00000150: b31b 2dbe 16c9 ce3c d396 f5be 8b6d 20bf
00000160: a493 903e 61ad ebbc 3e2b 543f ccde 25bd
00000170: 7789 0f3e 8edf 043e 2702 483e 3a22 fc3d
00000180: 61ad 14bd 8ec6 67be 240f 233e 34d9 19be
00000190: be94 5f3e d6c9 93be 489b 90be 99c5 4dbd
000001a0: 1489 ac3d a3d8 dd3d adca b73d 473b 6c3e
000001b0: c556 a03d 82ab ed3e dbd6 423d d2b3 cf3e
000001c0: a97c 00bd 0dde 7b3e 0857 8cbf 228a 063e
000001d0: 263b c3bd 49c5 3c3e 8727 083e 48ff 0f3e
000001e0: bc01 97be 19ee 3f3e 84f8 843e ac65 8f3d
000001f0: 4242 3e3d 41f6 a03d c157 08be 5d6a 71bd
00000200: 3b24 eabd 0c42 d63d 6d9b 09bf 98e6 cfbd
00000210: bec3 a53d fbe3 b93e 06b6 8f3d bbd4 a0bd
00000220: a08d 4a3e d14c 70bd a6c5 953d a2a3 83be
00000230: 4bce 8f3e 3333 29bf 94ad 823d 5f9f 99be
00000240: 4166 593d c9c4 823d c156 373f 9334 72be
00000250: 2f76 b83e 3692 e53d 0f97 3cbe d476 3fbf
00000260: c914 98be 852c dcbe 3eaa 23bf 691f c53e
00000270: 8312 ae3d 03a3 063e 8e00 fdbe cbce c5bd
00000280: aa16 3a3d 3509 6ebd a9ed 2f3f e164 d0bc
00000290: 5c79 a0bd a118 26bf 723e 25bd b4d0 bb3e
000002a0: 9d7e 4a3e cfc5 ab3e 30ae 053e 16e1 273f
000002b0: 7220 78be b482 99be 7365 ee3e 7307 2abf
000002c0: ae2e b5be 52d1 2cbf 2d81 2d3f 82a1 943e
000002d0: 6365 6bbd 08bf ac3d 7cb4 b23e 238b 4cbd
000002e0: 0323 853e 1e72 2ebe 188a 44bf 28f7 f3be
000002f0: 0bf8 e8bd 099c 8dbd 8184 c03d 2cf1 843e
00000300: ade7 10be e468 e73d 0adf 0abe 1501 63be
00000310: 307c 483d b510 02be e75f a8be dc6d 19be
00000320: 01fe 57bd a64a 813d b7e2 ec3c b456 bc3d
00000330: 26dc a0be 257e 10bd 1efa e1bd a37a 4abe
00000340: 730d bfbd 16f4 a03d ecf5 c9bd 0159 62be
00000350: 1ad9 bcbe a1e2 84bd ca35 08bd 9914 0abe
00000360: d58d a13c 647b 31be 110b b53d a0f4 e43d
00000370: 6364 0dbe d1f8 2ebe 51a3 b6bc 1b84 9ebc
00000380: 6dab 56be bb26 953d 228f 143e e484 82be
00000390: 62ba 69be 199a b2bd 8cd7 debe 57cd ae3e
000003a0: 7cfa 4fbe 8812 a0bd 1b63 913d d342 6f3e
000003b0: c919 24be 9957 b4bd 4d71 773d 164e b4be
000003c0: a839 4a3d aa96 63bf 2e1d d33e 5733 fd3c
000003d0: 56a2 43bf 80d6 3dbd d3a1 913e 2967 023f
000003e0: 468e 503e d052 80be a96a a2bc 365c d63d
000003f0: bd3e 24bd 4468 1dbe 7912 543e 4380 8b3d
-0.13040654 -0.19664398 0.08788105 -0.22786818 0.17311984 -0.1610294 0.44308078 0.100115545
0.031375013 0.2260919 0.055173196 -0.3475228 -0.048601426 0.043251276 0.023951074 0.33283046
-0.08916828 0.37026924 -0.1584044 -0.1675474 -0.4463755 0.07937747 -0.5339176 -0.7301544
-0.12130269 -0.056024514 0.0043852353 0.052994926 -0.04731416 -0.18355513 0.2574059 0.03794736
-0.07743433 -0.049584128 -0.43277285 0.14811924 0.12995137 -0.12748082 -0.3147918 0.11433969
0.09456444 0.18570517 0.026073368 -0.35627893 -0.09946059 0.09806156 -0.11021217 -0.24517706
0.09955643 0.10999406 0.040829785 0.1674144 -0.13131794 0.10910841 -0.2844289 -0.5701076
0.15174782 -0.4644617 0.32922515 0.1242801 0.14521033 -0.011191919 -0.017449455 -0.12910812
-0.08710319 -0.15056458 -0.36785832 0.17847832 -0.050268818 -1.4837102 0.38943353 0.28258055
-0.083091974 0.23521808 -0.17600538 0.17750454 -0.43636402 0.21806176 -0.29184356 -0.5195897
-0.36627987 -0.082681365 0.4751335 0.4236963 -0.16905098 0.02524237 -0.47966632 -0.6266715
0.2823764 -0.028769197 0.8287848 -0.04049568 0.14017282 0.12975904 0.19532071 0.12311216
-0.03629816 -0.22634336 0.15923744 -0.15024263 0.21834084 -0.28864926 -0.2824347 -0.050237272
0.08424583 0.10832336 0.08974204 0.23069488 0.0782905 0.46419913 0.047568183 0.4056688
-0.031368885 0.24596424 -1.096406 0.13138631 -0.09532766 0.18434633 0.13296328 0.14062226
-0.2949351 0.18743171 0.25970852 0.07001814 0.046449907 0.07859469 -0.13314725 -0.058939327
-0.11432692 0.10461816 -0.53752786 -0.10151404 0.080939755 0.36306748 0.0701714 -0.07853075
0.19780588 -0.058667008 0.07313089 -0.2571078 0.28087077 -0.6609375 0.06380764 -0.30004403
0.053076033 0.0638519 0.7161675 -0.23652868 0.36027667 0.11209528 -0.18417 -0.7479069
-0.29703358 -0.43002716 -0.63931644 0.38500527 0.084996246 0.13148122 -0.49414486 -0.09658583
0.04543177 -0.05811425 0.68722016 -0.025438728 -0.078356475 -0.6488133 -0.040342756 0.36682665
0.19774862 0.33549353 0.13054729 0.6557783 -0.24231127 -0.2998253 0.46561775 -0.66417617
-0.35387176 -0.675069 0.6777523 0.2902947 -0.057469737 0.08434874 0.34903324 -0.04993738
0.26003274 -0.1703572 -0.76773214 -0.47649503 -0.113754354 -0.06914527 0.09400273 0.2596525
-0.14150877 0.11299303 -0.13561645 -0.22168382 0.04894656 -0.12701686 -0.32885668 -0.14983314
-0.05273247 0.06313066 0.0289167 0.09196225 -0.3141796 -0.03527655 -0.11034034 -0.19773345
-0.09328737 0.07859056 -0.09861359 -0.22104265 -0.36884385 -0.064885385 -0.033254422 -0.1348442
0.019720951 -0.17332226 0.088400014 0.11179471 -0.13807826 -0.17087103 -0.022294672 -0.019350102
-0.20963831 0.07282778 0.14507726 -0.25492013 -0.22825006 -0.08720798 -0.43523824 0.34141037
-0.20310396 -0.078160346 0.07098981 0.23365335 -0.16025461 -0.088057704 0.060410786 -0.35215825
0.04937139 -0.8890177 0.412332 0.03090827 -0.7641958 -0.04634714 0.28443775 0.5093866
0.20366773 -0.2506318 -0.01982625 0.104668066 -0.040098894 -0.15371805 0.20710172 0.06811573

gnn1.gnn.convs.3.lin_l.bias f4 [32]
00000000: b994 51be beda bebe 8d34 1dbe 8953 88bc
00000010: cb13 753e 2b94 243e aac0 38be c728 873d
00000020: 2020 2bbe 53ac e4bd f607 a3be d6b9 713f
00000030: 7081 84be af67 743f 8881 98be 09ee 81bd
00000040: 7c79 f53d 3bcb e73e 6404 b8be d72a 65be
00000050: ba08 e8bc edcb f23e 60dd 703e 9e55 ab3d
00000060: 9ec9 c83d 1eff d33e 50cf e1bc 77cd c6be
00000070: 5e36 5f3f 3b14 53bd 1d62 4abd a7e2 093d
-0.2046689 -0.37276262 -0.15352078 -0.016641395 0.23933332 0.16072147 -0.18042246 0.065995745
-0.16711473 -0.11165681 -0.3184201 0.9442419 -0.25880003 0.9547071 -0.29786325 -0.0634423
0.11986062 0.4527224 -0.3594085 -0.22379623 -0.028324474 0.47421208 0.23521948 0.083659396
0.098040804 0.41405576 -0.027564675 -0.38828632 0.8719233 -0.051532965 -0.049409974 0.03366342
