Models/7bpznk2w_best_model.pth (torch, 451348 bytes, 28 tensors)

att_src f4 [1, 2, 64]
00000000: 1ae7 6d3e e8a6 74be bb99 4d3e 22ab dd3b
00000010: e976 28bd f485 e03d de44 a73d 2209 07be
00000020: db54 363e 5a1e a5bd 4f80 5cbe 9a27 d6bd
00000030: f169 8d3d 2723 3abd 0ac0 49bd 5c64 703e
00000040: 4490 983e 0f21 fdbd fdce 04be f229 c23e
00000050: 307a a4be 6a2a 36bd 7beb 163b c080 5c3e
00000060: a027 1fbd fed2 a6be f8ca 043e 6fa9 fa3d
00000070: 03a9 453e fc3d 563e f850 3ebe cd84 88be
00000080: 3ec6 26be d396 1fbd 4889 12be 9650 5b3e
00000090: 0a55 42be 04c0 de3d 4159 bc3d 1a01 893d
000000a0: 1357 343e 3148 a83e 082a 8bbe 13ce 903d
000000b0: 1dbb 95bd d5b6 073e 5dd0 d6bd 27b0 18bb
000000c0: 580b 4d3e c238 c23e 04d2 87be eff9 00bc
000000d0: 2ead 61be 451e ffbd 9119 64be d396 f9bc
000000e0: d5c8 61be 0b11 1fbe d358 b2be c74c f43d
000000f0: 0f21 a5be 3517 5b3e 511b 763e d0c0 15be
00000100: c21f 763e b4c3 50be c143 283e c1a3 aa3e
00000110: ef89 833d 9397 bdbe a1e7 bebb ecb3 e43d
00000120: 2811 b33d 0555 48be ebe2 16be 17bc a2be
00000130: 89c9 593e 7b1e 423c 8fd6 113d 6ba2 debd
00000140: acfc 893e 87d1 253e 3207 32be 5309 80be
00000150: 63c5 4dbb 4f8d 85be 34ab ebbd c20a 71bd
00000160: 2bfe 9d3d 28c2 5cbd 0198 923e f7d0 3abd
00000170: 2627 03be 9e6f 653e 71ca f4bd 41ef b8be
00000180: ed19 aabd f0f8 713e 624c 4dbb 3b07 4d3c
00000190: 2e6a 753c ce95 093e 8f0d b7be a4a9 4b3e
000001a0: a92b 9cbe 614f ac3c 883b c13d cce5 b8bb
000001b0: a700 043e d0c1 e2ba ceb2 82bc ac43 48be
000001c0: c8c4 723d c94a 8abc 1ec6 cc3c e116 2abe
000001d0: 7514 1ebe 5ce2 143e ad65 923e 6226 c7bb
000001e0: bf1e f63e 4dac f9bd b205 f0bd d953 9139
000001f0: 037e 9c3c 8e26 803e a8f1 76be 3b6f c3be
0.2323269 -0.23891795 0.20078175 0.0067647854 -0.041129027 0.109630495 0.08167432 -0.13187078
0.17805807 -0.0806243 -0.21533321 -0.10456772 0.06904972 -0.04544368 -0.04925541 0.23475784
0.29797566 -0.12359821 -0.12969585 0.37922627 -0.32124472 -0.044474043 0.002302854 0.21533489
-0.03885615 -0.3258285 0.12968051 0.12239348 0.19302754 0.20922083 -0.18585575 -0.2666382
-0.16286561 -0.038962197 -0.14310181 0.2141746 -0.18977752 0.10876468 0.09196711 0.06689663
0.17611341 0.32867578 -0.27180505 0.070705555 -0.0731108 0.13253339 -0.10488961 -0.0023298354
0.20023859 0.37933928 -0.26527417 -0.007872089 -0.22038719 -0.12456945 -0.22275378 -0.030467426
-0.22049268 -0.15533845 -0.34833393 0.119287066 -0.32251784 0.21395572 0.24033858 -0.14624333
0.24035552 -0.20387155 0.16432096 0.3332806 0.06422793 -0.37029704 -0.005825952 0.1116713
0.08743507 -0.19563682 -0.14735 -0.31784126 0.21268286 0.011848087 0.03560501 -0.108708225
0.26950586 0.1619321 -0.17385557 -0.25007114 -0.003139817 -0.26084372 -0.11507264 -0.05884815
0.07714494 -0.0538961 0.28631595 -0.04560944 -0.12807903 0.2240586 -0.11952675 -0.36120036
-0.08305726 0.23630118 -0.0031326045 0.012513931 0.0149789285 0.13436052 -0.35752532 0.19888932
-0.3050206 0.021033945 0.09435183 -0.0056426283 0.12890874 -0.0017300192 -0.015954401 -0.19557065
0.059269696 -0.016881363 0.024996813 -0.1661029 -0.15437491 0.14539474 0.28593197 -0.0060775736
0.48070332 -0.12191067 -0.11719836 0.00027719027 0.019103056 0.25029415 -0.24115622 -0.381708

att_dst f4 [1, 2, 64]
00000000: 1de6 3e3e 42d1 cabe a881 1e3d aa24 5bbe
00000010: 7070 413e e50b c43e 4c04 84bd cb76 60be
00000020: 0471 22bc 9cbf 0fbf 2b12 16be 3d80 733d
00000030: c584 1e3e ab12 433d d9f3 b0be 8cfd c6bd
00000040: fc40 863e ef53 eebe 3855 7e3d db5e e4bd
00000050: 3cb5 a4bd d08a 81bd 1be3 73be 7abd 70be
00000060: 68ae 47be fdb2 7ebd 1742 0dbe 6cd2 05be
00000070: 5f10 923c 42ba f4be cd17 09be e358 c03d
00000080: fa8f f8be ea9f 26be e477 73be 9ea4 27be
00000090: 2656 2cbe a55f 4dbe 2ba3 45be 8a60 c7be
000000a0: 3a38 8ebd 6f9e 94be 7a17 103f bb28 72be
000000b0: 2aa7 68be 41ce 9a3d c0f4 343c 58f6 edbe
000000c0: cb69 78be a1e1 3f3e 6d65 e93e 10f5 6a3e
000000d0: e012 6fbd e54f 703d 3c05 8abe 96e3 0bbe
000000e0: 846b e63d 4a6d 26bd 82da dcbe e372 ccbe
000000f0: edb9 cfbe d107 05bf 15f6 cabe 02a5 a8bd
00000100: 4216 5bbe 9d57 3bbd 757f 3a3e 4bd3 1dbe
00000110: e735 483e 43c4 27be 2b73 fdbc aeb9 56be
00000120: 1d27 4abe 4055 1abe e70a 863e 6b6a 5ebb
00000130: 7ba1 fe3d a372 813c d59b 4a3e 2413 92be
00000140: 4f30 59be 8dab efbd 4829 1cbc 214b 07be
00000150: eb8a a23d 46de 16be 0b51 8cbd bf1f 64be
00000160: 22e8 dabd 529e 8c3d 04b5 883e 030b fdbd
00000170: 8eee 5cbd b5bf 783e c650 37bd a836 5c3d
00000180: c9a4 aa3e e422 553e 2ec5 663e a207 d03d
00000190: e61e 0e3e 77e6 1bbe 0ab8 a9be 235b 1b3e
000001a0: 9768 453e 0c38 f2bd ee01 fd3c 0deb 0bbd
000001b0: 9d29 87be 8b44 173d 6779 59bd e059 a6bd
000001c0: 2029 ab3d 55ff 633e 41ed 923e 819a 643d
000001d0: 7d7b 4e3e 124e 273e ba6d a23e 5984 11be
000001e0: 9e7b a63d 3591 a8bd 2a32 4c3e 7261 3c3e
000001f0: 3a48 713e 5b78 d93d b583 803e 8cb5 743c
0.18642469 -0.39612776 0.03869787 -0.21400705 0.18890548 0.38290325 -0.06446132 -0.21920316
-0.00991464 -0.5615175 -0.14655368 0.05944847 0.15480335 0.047625225 -0.3456104 -0.09716329
0.26221454 -0.4654841 0.06209299 -0.11150905 -0.0804238 -0.063253045 -0.23817103 -0.2350978
-0.19500124 -0.062182415 -0.13794743 -0.13068551 0.017830072 -0.47798353 -0.13387986 0.09391954
-0.48547345 -0.1627194 -0.23776203 -0.1637139 -0.16829738 -0.20056017 -0.19300525 -0.3894084
-0.06944318 -0.29027125 0.5628582 -0.2364835 -0.22720018 0.07558871 0.011044681 -0.46477008
-0.24259107 0.18738414 0.45585194 0.22945046 -0.05836761 0.058669943 -0.2695712 -0.13661036
0.11250976 -0.04063157 -0.43135458 -0.39931402 -0.40571538 -0.5196505 -0.3964087 -0.08234598
-0.2139521 -0.04573785 0.18212683 -0.15412633 0.19551812 -0.16383462 -0.030938705 -0.20969269
-0.19741483 -0.15071583 0.26180193 -0.0033937942 0.12433144 0.015801733 0.19786008 -0.28530228
-0.21209835 -0.117026426 -0.009531327 -0.13212253 0.07936653 -0.14733228 -0.06851395 -0.22277735
-0.10688807 0.06866135 0.26700604 -0.12355616 -0.05393844 0.2429188 -0.044754766 0.05376306
0.33328846 0.20814091 0.22536156 0.10157706 0.13878974 -0.15224634 -0.33148223 0.15171485
0.19278179 -0.11827096 0.03088471 -0.03415971 -0.26398936 0.036930602 -0.053094294 -0.08122611
0.08357453 0.2226537 0.28696635 0.05581141 0.20164295 0.16338375 0.3172434 -0.14210643
0.08129047 -0.08230821 0.19941011 0.18396547 0.23562708 0.10618659 0.25100484 0.014935862

bias f4 [128]
00000000: 66a0 4dbd 0000 0000 a534 b6bd 56f6 ccbd
00000010: add8 3fbd c36f 80bc b4c9 54bd 3030 60bc
00000020: a18d 2ebc 25b3 a1bd 368c 98bd b9d6 093e
00000030: dc6e 9bbd 3ef9 a8bd 07c7 c4bd 4dcc 46bd
00000040: 5316 57bd 0000 0000 e29e 63bd bd5b 80bd
00000050: 72a7 d23d 34aa 9bbd 0000 0000 cf2b 24bd
00000060: ae0d 64bd 5219 56bd b911 57bd 65b7 d4bc
00000070: 103c a7bd cce7 73bd 0000 0000 4810 c6bd
00000080: b171 92bd 3706 e73d d0cd 3ebd 0f68 07bb
00000090: 0000 0000 a490 f8bd b81b 8e3d 0000 0000
000000a0: 5384 ee3c ed02 3ebd 3dc6 413e e949 4abd
000000b0: 322a 72bd 0000 0000 e43f 04be 68fe 0b3f
000000c0: 7d44 9ebd 4c47 063d bdd7 4abd b40a adbc
000000d0: 13d1 613e 7f61 04be f029 f93d 895c b5bd
000000e0: 77cd d2bd 9ce1 46bd 9b43 97bd 6220 97bd
000000f0: 0000 0000 6b44 86bd f51e dcbd 467d bebd
00000100: 29f7 da3c b0d8 45bd ea91 38bd 752c 3abd
00000110: 0000 0000 7026 16be 0000 0000 1932 19bd
00000120: 8545 493f 2218 23bd cfa3 aebd eafd 753e
00000130: a6ba f6bd 7c24 e2bd a25e e3bd 1cf5 b4bd
00000140: a97f 15be 0000 0000 d537 78bd f782 38bd
00000150: 0000 0000 853d 98bd e34a abbd e69a edbc
00000160: d5f2 ddbd 0000 0000 0000 0000 35a6 a9bd
00000170: e8f2 f3bd ab8c 52bd 2651 cbbd 5bc9 9ebd
00000180: 0000 0000 83dc dabd 45f7 75bd f562 a2bd
00000190: 0000 0000 bfaf 4ebd ccb6 8fbd d649 33be
000001a0: c3dd 03be f04f 4bbc 8beb 9bbd fa80 b7bd
000001b0: 6ef1 913d 8372 30bb 22e6 86bb c6b0 5cbd
000001c0: 3e94 aabd baa3 88bd 4a0b 84bd a75b 1bbd
000001d0: 0000 0000 0000 0000 8ab6 9bbd 0000 0000
000001e0: 6ed0 a5bd 3ff2 77bd 99b6 90bd 0000 0000
000001f0: 0000 0000 a2c9 45bd 39a9 e73d 5460 f1bd
-0.050201796 0.0 -0.0889676 -0.10007922 -0.046837498 -0.015678292 -0.05195017 -0.013683364
-0.010653884 -0.07895497 -0.07448618 0.13460816 -0.07589504 -0.08250664 -0.09608274 -0.04853468
-0.052511524 0.0 -0.055571444 -0.06267498 0.10285844 -0.07600823 0.0 -0.04008084
-0.05567711 -0.05227024 -0.052507136 -0.025966356 -0.08165753 -0.05954723 0.0 -0.09671074
-0.07150591 0.11280482 -0.046582997 -0.002066139 0.0 -0.12136963 0.06938881 0.0
0.029115831 -0.04638951 0.18923278 -0.049386892 -0.05912227 0.0 -0.12914997 0.5468507
-0.07727907 0.032782838 -0.04952215 -0.021123268 0.22052412 -0.12927817 0.12166202 -0.0885554
-0.102930956 -0.048555 -0.073859416 -0.073792234 0.0 -0.065560184 -0.10748092 -0.09301238
0.026729183 -0.048302352 -0.04506103 -0.045452554 0.0 -0.146631 0.0 -0.037401292
0.78621703 -0.039817937 -0.08527338 0.24022642 -0.12047319 -0.11042115 -0.11102034 -0.088358134
-0.1459948 0.0 -0.06060012 -0.045046773 0.0 -0.07433609 -0.08363893 -0.029004525
-0.10837332 0.0 0.0 -0.082836546 -0.11911565 -0.051403683 -0.09927587 -0.07753249
0.0 -0.106865905 -0.060050268 -0.07929031 0.0 -0.050460573 -0.070172876 -0.17508635
-0.12877564 -0.012409195 -0.07613286 -0.08960147 0.07126127 -0.0026923723 -0.0041167894 -0.05387952
-0.08329056 -0.06671853 -0.06447466 -0.037929203 0.0 0.0 -0.07603176 0.0
-0.080963954 -0.06053376 -0.07066078 0.0 0.0 -0.048287995 0.113115735 -0.11785951

weight f4 [128, 8]
00000000: 94d4 133e fc99 bc3d 0277 033e 68a9 8abe
00000010: a095 bfbc 10ff 2d3b a8fa 0e3e dc1c c53a
00000020: 9673 443c 0cda 25be ebc0 073e 0706 ddbd
00000030: dac1 883c a2dc efbd 0d27 cf3d ea51 b3be
00000040: 90c7 dfbb c9dd 96bd 3244 e5bd e741 883c
00000050: 6f3d be3c c17e 1b3d 85fc b0bd b8aa 8dbe
00000060: 533d 9f3d 2cc4 f6bd b081 3b3c e161 ddbd
00000070: 9965 3dbe d9a6 92bc ffe1 5ebd c757 66be
00000080: a028 e13d 289e 5fbe 62de 55be 6d00 6bbe
00000090: e5d4 673d 431a 8f3c 88f4 243e 336c 823d
000000a0: 152b 0e3e ee9e 94be a58e 493d c4dd eebd
000000b0: 106b c03c 8b8e 96bd 873e 2abd c01a 8abc
000000c0: 8a00 8cbe 49d8 cf3e 0764 afbd a107 cdbf
000000d0: 7fa1 aebe cb75 a63b 548b 433e ff62 513b
000000e0: 567d 8a3e 2861 9439 65d7 abbe 8681 35be
000000f0: d139 edbe 0b69 273e 9b23 a9bd b782 87bb
00000100: fa63 23bf 06bb 5f3d ba75 85bd 1085 6abe
00000110: 882b 03bf 5d66 bc3d fb97 133d 8150 a33d
00000120: fd05 37bd 9804 353c ec99 88be d01c ca3d
00000130: 39ce 893d b942 61be d60c 42bd 077b 4dbe
00000140: c231 793d bb8f 4bbe 443b 10be 7125 55be
00000150: cacb 77be fa83 df3d d7d4 2d3d 6e7e 8bbe
00000160: 16ae adbd 8b8d 8f3d 59ef d33c 707e 703e
00000170: 37a1 c3bd cf96 27be b1cb 173e 20e1 313e
00000180: 4502 533d b5c5 8bbd 4752 0cbe a59a 873c
00000190: 3aea 6ebc 4183 e7bd 7d18 36be 3bb5 123d
000001a0: 9919 11be a250 33be f835 5cbe 8d95 0ebd
000001b0: 9fc0 e2bd 2bbf 5bbd 0503 debb 6ff1 f13d
000001c0: e740 563c e224 ffbd a920 81be c01f 403d
000001d0: abba 77bd b409 6f3d e1f1 93be fc50 83bd
000001e0: 934f aebd 90be 0a3e 2138 c03d 8af8 e6be
000001f0: 5f28 b63d c1b4 81be d12b fc3c 0405 0b3d
00000200: 398f fd3d 8f8d b7bd 9a15 9c3d dd4d e1bd
00000210: 3939 1c3d f7c3 41bd 1cd2 033e 5235 3fbd
00000220: addf cfbd f4e7 43be 4166 35be 1879 793e
00000230: a8c4 30bd f188 c9bd 547a 38bd 400c 89be
00000240: 0ef4 e53c 3f81 933d 3863 bcbd 3bd9 b8bd
00000250: 6ae9 17be 9abb 5a3d 96b9 41be c193 21be
00000260: 083e 3dbe af9e 5abe 0325 1bbe 0242 a1bd
00000270: c913 79be 95d0 ba3c 08de 72be 7d06 89be
00000280: f36d 103e 6aa8 793d db67 3abe 4bd3 483d
00000290: 28fd a13d f15c bb3d 8939 db3d 0e37 44be
000002a0: 4099 39be 436a 0f3d 94cd 41be 9ce9 1fbe
000002b0: 3a6f 45be 9f19 04be db4d 963d 5d4b 763d
000002c0: 61e2 00be 4e21 c4bd 4e3d b1bd e840 cbbd
000002d0: c8ad 36be 3039 13be cc08 48be 3b5e b4be
000002e0: 588b 953c 2fe4 84bd 535d b4be 0855 bbbe
000002f0: 3209 1bbe ec9d f9bd fb41 14be a66b 423c
00000300: 1960 23be b6f3 c73d 31d5 723d fdac 74be
00000310: f851 c93c 5e17 febc d690 963c 9a77 1ebe
00000320: e535 14bd 011a 9d3c 6ca7 72be 030c 703d
00000330: c8ce 8fbd bd21 49be 53b4 00be c17d 25be
00000340: c427 e5bc 4acc 4fbe d59d 19be 2b9d 20bf
00000350: 5add 413b 7c6e d83d 486c 5f3d 8914 153e
00000360: afd2 02be 2c73 4a3e 92e8 b03d 25b8 86be
00000370: bfff 86bd 5bdf 203e 892e bcbd 2e37 80bd
00000380: a915 7f3d 4745 c0bc 4eb1 de3d 7f8b 21be
00000390: 61db 01be f45f 653d 3b4c c1bc 1fca 663e
000003a0: 7924 d0bd 6cde 88bc 267d 32be 4936 d43d
000003b0: ea80 7fbd 7316 913d 81bb 803d 543a 69bc
000003c0: 82cf 9b3d 7943 a7be a7eb 81be a5bb c33b
000003d0: 466a 8bbd b579 61be 0c4b f23d bdb9 f9b8
000003e0: 4294 c33d e0af 47be 6fbd 3bbe 013f aa3d
000003f0: 8f0a 16be ecec 2fbd c5cd 25bd 8631 363d
0.14436561 0.09209058 0.12838367 -0.27082372 -0.023386776 0.0026549734 0.13962805 0.0015038508
0.011990448 -0.1619646 0.13257186 -0.10792165 0.016693998 -0.11712004 0.1011487 -0.35023433
-0.0068292096 -0.07366521 -0.11194648 0.016632987 0.023222653 0.03796268 -0.08641914 -0.2766931
0.077753685 -0.120491356 0.011444494 -0.108096845 -0.18495788 -0.017901825 -0.054414745 -0.22494422
0.10994077 -0.21837676 -0.20885614 -0.22949381 0.056599516 0.017468577 0.16108906 0.063682936
0.13883622 -0.29027504 0.049208302 -0.11663392 0.023488551 -0.07351407 -0.041563537 -0.016858459
-0.2734416 0.405947 -0.085640006 -1.6017953 -0.34107587 0.00507996 0.19096118 0.0031949875
0.2704875 0.00028301147 -0.3356277 -0.1772519 -0.46333173 0.16348664 -0.08258744 -0.0041354555
-0.6382443 0.05462172 -0.06516595 -0.22902322 -0.512383 0.09199212 0.03603361 0.07974339
-0.044683445 0.0110484585 -0.26679933 0.09868777 0.06728787 -0.21998109 -0.047375523 -0.20066462
0.06083847 -0.19879048 -0.14085108 -0.20815064 -0.24198833 0.109138444 0.042439308 -0.27244896
-0.0848047 0.07009419 0.025870966 0.23485732 -0.09552234 -0.16366123 0.14823796 0.17371035
0.051515836 -0.06824819 -0.13703261 0.016553232 -0.014582211 -0.113043316 -0.17782779 0.035817366
-0.14169921 -0.17511228 -0.21504962 -0.03481059 -0.11071896 -0.05364911 -0.0067752623 0.11813628
0.013076997 -0.12458207 -0.2522023 0.04690528 -0.060480755 0.058358863 -0.28895476 -0.06411931
-0.08511271 0.13549256 0.09385706 -0.45111495 0.08894419 -0.25333217 0.030782612 0.03394033
0.12380833 -0.08962547 0.07621308 -0.11001179 0.03814051 -0.047306027 0.12873119 -0.04668171
-0.10150085 -0.19131452 -0.17714788 0.243626 -0.043156296 -0.098405726 -0.045038536 -0.26767159
0.028070476 0.07202386 -0.09198612 -0.090258084 -0.14835134 0.053401567 -0.18918452 -0.1577902
-0.18480694 -0.21349595 -0.15150838 -0.07873918 -0.24323954 0.022804538 -0.2371751 -0.26762763
0.14104442 0.060951628 -0.1820368 0.04902963 0.07909614 0.091485865 0.10704333 -0.19161627
-0.18124866 0.03501345 -0.18926078 -0.15616459 -0.19280711 -0.12900399 0.073390685 0.060130466
-0.12586357 -0.09576665 -0.08654271 -0.09924489 -0.1783973 -0.14377284 -0.19534606 -0.35228142
0.01825492 -0.06488835 -0.3522745 -0.3658831 -0.15140226 -0.12188324 -0.14478295 0.011866486
-0.15954627 0.09763281 0.059285346 -0.23894115 0.024575219 -0.031017002 0.01837961 -0.15475312
-0.03618421 0.019177439 -0.23696679 0.058605205 -0.07021862 -0.19641776 -0.12568788 -0.16161253
-0.027973063 -0.20292774 -0.15001614 -0.6273982 0.0029581399 0.10567948 0.054546624 0.14558615
-0.12775682 0.19770497 0.08638109 -0.26312366 -0.065917484 0.15710203 -0.091885634 -0.06260525
0.062276516 -0.023470534 0.10873662 -0.1577587 -0.12681343 0.05599971 -0.02359592 0.2253804
-0.101632066 -0.016707622 -0.17430553 0.103619166 -0.0623788 0.0708436 0.062857635 -0.014235098
0.07607938 -0.32668665 -0.253751 0.0059732967 -0.068073794 -0.22019084 0.1183072 -0.00011907842
0.09549762 -0.19500685 -0.18333982 0.08312798 -0.14652465 -0.042950556 -0.04047944 0.044480823

att_src f4 [1, 2, 64]
00000000: 6df4 c4bd 60d7 b03e f11b 0bbe 7ac4 b0bc
00000010: ec12 0fbd dfab a43e f58c aebd 9cfc 2abe
00000020: 297d c43e ca97 9cbd 9161 47bd c858 75be
00000030: 793e c4bd 520a c6bd b71c d5bd d6c2 7a3e
00000040: f967 163e b01a bbbd ab6a 34bd 3e5c db3d
00000050: 4eba 41be 0848 983c b92d f03d d626 aebe
00000060: 4a1f 203d 39fb 623e 6540 403d 262a c83d
00000070: 6071 86bd 1962 7abe ab11 9abd 2eed 38bd
00000080: 2dad 623e f723 4d3d 62da a6be 7132 86be
00000090: 277d cb3b f3a3 163c 6c6e c7bd 59a6 bfbd
000000a0: 1138 653b b4b0 a5bd 5e14 603d 0843 103e
000000b0: fb16 383e 482c 49bf 21da ca3d 5ada 83be
000000c0: c129 c5be 4c3a 0ebd d42e f43d 21d9 683b
000000d0: a37f 2b3e 2c1e c83d caa8 533e fba3 083e
000000e0: 3cd4 17bc 8b35 1cbc 1a6a 30bd ffa0 0bbd
000000f0: ed8a 2c3d fcee 8bbe 18ad e93b 7c3f 8d3e
00000100: 5186 a43e 1416 623d 013e 033e 9347 bf3e
00000110: 734c b43a 7331 913e f4da ad3d 9650 823e
00000120: c598 9cbe 627c 023e 521d 92be ee1c c2bb
00000130: c26b 4f3e e333 1f3d b333 84be 56fa 8f3e
00000140: 0b1d 0abc 3937 f93d dbe8 db3d 3584 233d
00000150: 8af8 b0be db44 003d ed79 32bd a743 5dbe
00000160: b8ed 993d 9211 f83c be20 96bf d271 48be
00000170: 0330 b63e 32da a83e be1a b23e f345 1ebf
00000180: ca3c 7ebe 1531 c0bc 8b4e 0bbe 669b 9fbe
00000190: ef67 abbe 648c 4b3e 5498 b23d 5013 b93e
000001a0: b7d8 0a3d b32a 573e 891e ec3c c4f0 6e3e
000001b0: f16d 963e 7a5c 0cbf 81b6 8ebe 9603 edbd
000001c0: 5b79 753e b02d 713e 54f1 b3be 8294 1cbf
000001d0: 256c 13be be57 a9bd 59cd b43d 5232 103b
000001e0: d351 9ebe e1b7 813e 2df0 0a3e c063 a8be
000001f0: d280 acbe e30b b93e 8f92 ffbe ad07 2abd
-0.09616933 0.34539318 -0.13584878 -0.021578062 -0.034930155 0.32162377 -0.08522979 -0.16697925
0.3837674 -0.07646139 -0.04867703 -0.23959649 -0.09582228 -0.09669937 -0.104058675 0.24488387
0.146881 -0.091359496 -0.04404704 0.10710953 -0.18918726 0.018589035 0.11727471 -0.34014004
0.03909234 0.22166146 0.04693641 0.09773664 -0.06564593 -0.24451484 -0.07522901 -0.045148067
0.22136374 0.050083127 -0.32588488 -0.2621036 0.0062099877 0.009194362 -0.09737858 -0.093579
0.0034976045 -0.08090344 0.054706924 0.1408807 0.17977516 -0.7858319 0.09904886 -0.25752527
-0.38508418 -0.034723565 0.11922994 0.003552981 0.16747908 0.0977138 0.20669857 0.13343804
-0.009266909 -0.00953425 -0.043069936 -0.034089085 0.042124677 -0.27330768 0.00713123 0.27587497
0.32133725 0.055196837 0.12816621 0.37359294 0.0013755694 0.2835804 0.084890276 0.25452107
-0.30585304 0.12742761 -0.28537995 -0.005923859 0.2025595 0.038867842 -0.25820693 0.2812068
-0.008429776 0.12168736 0.10737773 0.039921004 -0.3456462 0.031315666 -0.04357331 -0.21607839
0.075160444 0.030281816 -1.1728742 -0.19574669 0.35583505 0.3297897 0.34786028 -0.61825484
-0.24827877 -0.023460904 -0.1360418 -0.31173247 -0.33477733 0.19877774 0.087204605 0.36147547
0.03389808 0.21012382 0.028823154 0.23334032 0.29380754 -0.5482861 -0.27873614 -0.115729496
0.23972075 0.23552585 -0.35145056 -0.61164105 -0.14396723 -0.082686886 0.088282295 0.002200265
-0.30921802 0.253356 0.13568182 -0.32888603 -0.33692032 0.3614188 -0.49916503 -0.041511226

att_dst f4 [1, 2, 64]
00000000: 3853 40bc 0fd6 31bc 9375 aebe 2d64 833d
00000010: 3383 673e 9458 863e cdc1 853e 6163 88bd
00000020: 7ce3 253e e1be 833e 998a 0c3e f67e 9a3e
00000030: 0fb3 f2bc 891a 3a3d 7be2 e9bc c06a e4bc
00000040: 67ee fcbd 2eba 053e a219 943c 8513 7c3e
00000050: 6742 9ebc 144e be3e 42b2 af3d 2ef1 543e
00000060: 93dc 8f3e 031b 803e 7b53 823d fafe 363e
00000070: 7c1c 5cba 3c60 8c3c b0f8 9cbe a837 3abe
00000080: 9bbb 923e 5c2c 8a3e f260 6ebe 3104 ecbd
00000090: 268e 8bbc e1c4 b8bb 5c61 813e be04 41bc
000000a0: da0a 32be ee45 0d3d baa7 c7bc 728c 1fbe
000000b0: 527b 32be 3b12 8d3e a6d9 813e 0755 0abe
000000c0: 322c d6bd 0355 68be ab50 79be 7a07 e43d
000000d0: 48b6 b63e 6704 8e3e dab2 de3d 4ffd 10be
000000e0: c295 cc3e 8bcc 683e e441 b33e 87e3 a0be
000000f0: fcac 383e 3a13 8b3d 38f2 89be 36d7 e33c
00000100: b93b 1e3d f662 ae3d e50a 8b3e 7ccd 593e
00000110: ec7f 28be 6434 0a3d f560 c83e a96c 8c3d
00000120: c621 d7bd 24c1 113d 6922 82be 1cc1 3abd
00000130: d662 8c3e 5ba5 bfbc a594 5b3e e6bc 38be
00000140: 1449 39be 8d20 db3d a699 8abe 92e9 1e3e
00000150: cc3a 1dbe 77b8 e43e b262 45bc d168 8b3e
00000160: a078 263e d2d5 3dbd 5e96 703e eb0d 873e
00000170: ed60 b23e be14 95bd ff4f d1bc 9b26 9f3e
00000180: a951 2b3e bc50 a73e f6be ccbc 0bd2 f33c
00000190: 66f5 0a3f 68d6 433d 1cd8 8d3e dafb 69be
000001a0: 1001 79bc 41a7 df3e caf5 af3e a993 13bd
000001b0: 1da0 b0bd c0c1 023f da76 a43d e7f4 333e
000001c0: 3c4c 9dbc ec17 cabd 7769 8c3c 0815 b63e
000001d0: cfd8 b83e c6d7 ce3d f39e 9c3a 75bf b13e
000001e0: 0cbb b93e b5cc 513c 9277 ccbd 7336 c13d
000001f0: 1707 583e 2499 1cbe 2567 dc3e fc32 5fbd
-0.011738591 -0.010854258 -0.34074077 0.064155914 0.22608642 0.26239455 0.2612442 -0.0665958
0.1620006 0.25731567 0.13724746 0.30174989 -0.029626397 0.045435462 -0.028550377 -0.027882934
-0.12350159 0.13059303 0.018078629 0.24616821 -0.019318772 0.37168944 0.08578922 0.20795128
0.28097972 0.25020608 0.06363579 0.17870703 -0.00083965785 0.017135732 -0.30658484 -0.18185294
0.28658757 0.2698697 -0.23279169 -0.11524237 -0.017035555 -0.005638704 0.25269592 -0.011780916
-0.17386952 0.03449052 -0.02437197 -0.1558092 -0.17429855 0.2755297 0.25361365 -0.13508998
-0.10457648 -0.2268868 -0.24347179 0.111342385 0.35685945 0.27737734 0.10873957 -0.1415913
0.39958006 0.22734277 0.35011208 -0.3142359 0.18034738 0.067907766 -0.2694261 0.027812582
0.038631175 0.08514969 0.2715675 0.21269792 -0.16455048 0.03374137 0.39136472 0.06856663
-0.10504489 0.035584584 -0.25416878 -0.04559432 0.27419156 -0.023394277 0.21443422 -0.18040809
-0.18094283 0.10699568 -0.2707035 0.15518788 -0.1535446 0.44671986 -0.012047457 0.27228406
0.16256952 -0.046346493 0.2349486 0.26377806 0.34839574 -0.07279347 -0.02555084 0.3108414
0.1673037 0.32678783 -0.024993401 0.029763242 0.542807 0.047811896 0.2770394 -0.2284998
-0.015198007 0.43682292 0.3436721 -0.03602949 -0.08624289 0.5107689 0.08030482 0.17573892
-0.01920139 -0.09867844 0.017140133 0.3556292 0.36102912 0.10099749 0.0011949226 0.34716383
0.36275518 0.012805154 -0.09983744 0.094342135 0.21096455 -0.15292794 0.43047443 -0.054491982

bias f4 [128]
00000000: f998 3b3e 6b82 a0bd 1481 3cbd 25fc 75bd
00000010: b177 42be cafb 75bd ef06 acbd 0dbd d9bc
00000020: 801a 1dbe 31fc 75bd 0000 0000 6475 28bd
00000030: d630 3ebd f55a 3cbd 532a 093e 13a1 90bd
00000040: 7350 adbd 6139 90be 523a 3dbd 5050 16be
00000050: f733 2cbe 0f25 d0bd 41fc 75bd e379 17bd
00000060: 369b 3ebd d89f 75bd 5282 0bbd e6ec 75bd
00000070: 49a0 77bd 542a 76bd 752f 0fbd 4a88 52bd
00000080: 33bb 14bd 36e4 67bd 56d3 92bd ba83 41bd
00000090: 6b0e 9ebd 00b0 63bd 1ddd 64bd 3567 09bd
000000a0: 32fc 75bd b8df 6abd dd33 adbd d2c5 d43c
000000b0: 6c15 49bd 500d 74bd 7933 1abe 3afc 75bd
000000c0: a9f7 1ebd 116d 7abd 978e 78bd 23c5 81bd
000000d0: ea6f eabd 51d8 02be 5697 47bd 0327 88bd
000000e0: 7ba5 cebc 39fc 75bd a359 76bd 1a4c 68bd
000000f0: 1292 30bd 72fb 75bd d6ac 05bd 2ae3 ac3c
00000100: 6afc 75bd 88f5 aabd 706f 39bd 5102 e6bd
00000110: ddf5 75bd 5db5 5bbd 6294 85bd 3cfc 75bd
00000120: e6fb 75bd a527 79bd ce92 6b3e 0058 9abd
00000130: 5779 5bbd 937d a4bd 9e1b 76bd 0999 3abd
00000140: a0fd 0dbd 298e 61bd 4ac8 4bbc 31fc 75bd
00000150: c18e 46bd 20b1 63bd 9e7b 3abd d291 84be
00000160: 02e1 7cbd 4f2e 0fbd ce18 febe 3cfc 75bd
00000170: 25fc 75bd da70 6cbd 7c2a 67bd 565f 18be
00000180: dfe8 80bd 5eb4 21bd 5b8a 76bd da2b f3bd
00000190: a150 21bd 59a0 243e 8689 4dbd a7d2 b7bd
000001a0: 1bf8 25bd c7c1 76bd a6fd 59bd 4f33 16bd
000001b0: 16fc 75bd 71bc a8bd 4400 69bd 7f85 ccbd
000001c0: 3efc 75bd 66f2 75bd 5b7b a7bd be29 21be
000001d0: 09b1 63bd 973d 72bd a5ec 8dbd 6523 3bbd
000001e0: e613 4cbd ed90 e5be 9fd3 6fbd 5f96 3d3b
000001f0: eb88 59bd e0bc 8abd 8613 4cbe be5c f23d
0.18320073 -0.07837375 -0.046021536 -0.060054917 -0.18990971 -0.060054578 -0.0839976 -0.026579404
-0.1534214 -0.06005496 0.0 -0.041127577 -0.046433292 -0.04598518 0.13395052 -0.070619725
-0.0846261 -0.28168777 -0.046198197 -0.14679074 -0.16816698 -0.10163318 -0.06005502 -0.036981475
-0.04653474 -0.059966892 -0.03405983 -0.060040377 -0.060455594 -0.06009896 -0.034957368 -0.051399507
-0.03631134 -0.056614123 -0.071692154 -0.047244765 -0.07717594 -0.05558777 -0.055874933 -0.03354569
-0.060054965 -0.05734226 -0.08457158 0.025973234 -0.049092695 -0.05958301 -0.15058698 -0.060054995
-0.038810406 -0.06113917 -0.06068286 -0.06336429 -0.11447127 -0.1277783 -0.04872831 -0.06648066
-0.025225392 -0.06005499 -0.060144078 -0.0567132 -0.043108054 -0.06005425 -0.032635532 0.021104414
-0.060055174 -0.083476126 -0.04527229 -0.112309106 -0.060048927 -0.05363976 -0.065224424 -0.060055003
-0.060054682 -0.060828824 0.2300522 -0.07536316 -0.053582516 -0.08031764 -0.06008493 -0.045556102
-0.034665704 -0.055067215 -0.012437889 -0.06005496 -0.048475984 -0.05558884 -0.045528047 -0.25892502
-0.06173802 -0.034956273 -0.496283 -0.060055003 -0.060054917 -0.05772481 -0.056437 -0.14880118
-0.06294417 -0.039478652 -0.06019054 -0.118735984 -0.039383534 0.16076793 -0.05017998 -0.089757256
-0.040519815 -0.060243394 -0.053220414 -0.036670025 -0.06005486 -0.08239067 -0.05688502 -0.099864
-0.06005501 -0.060045622 -0.08177825 -0.1573858 -0.055588756 -0.059140768 -0.06929902 -0.04568805
-0.049823664 -0.44837132 -0.058551427 0.002892874 -0.05310909 -0.06774306 -0.19929323 0.118340954

weight f4 [128, 128]
00000000: 421a 8a3d d497 12bd 7ee1 cd3e 276e 9c3d
00000010: 0793 9fbc bc91 27bd 90e4 a7bd d639 6fbe
00000020: 3a6e 8d3d 8e63 5abd 2f85 aabd c3a5 753e
00000030: 7282 603e e8e1 293c f1ce e73c d8d1 04be
00000040: cc96 143e 237c d9bb 4a22 49bd 9f6c 4ebc
00000050: bc38 7dbe 676f 4cbd a132 e53d 3daf 28be
00000060: 98e6 9c3d a812 0f3e 2685 98bc 937b aa3c
00000070: 190e 4abe d1ed 8fbc 4888 09be 82b1 153e
00000080: bb98 9d3d 2401 cebe 1129 063d cdd4 f13d
00000090: 25ad a3bd aa42 da3e 45f0 57be 8dfa 10be
000000a0: 5dc4 17bd 3709 3c3e 591d 21bf 832d 9fbd
000000b0: d51d 14bf 6b24 e13c 2497 ee3d 8e93 193f
000000c0: 6b24 c23c 1b0e a53d 7f23 443c f9ec f63a
000000d0: 083e 1b3f 8008 febc 2d33 91be 293d 403d
000000e0: 56db 2ebe b270 d43d 089b 92bc f334 a83a
000000f0: ac39 793d 88c5 9bbd e3ca 9bbd 4ed4 f43d
00000100: f492 8a3e e8f5 9a3d a5a5 96bd 3fcd 32be
00000110: dbc3 193d 5220 34bd f49a 4abc d0ba c53d
00000120: 5666 d1bf 9cb3 89bd 0ef5 923d d04b 193f
00000130: 274f b73d 3af1 aebd 1c4e dfbc 3ba9 273e
00000140: 55b8 653e 92d5 ccbc 2041 debd e571 0e3e
00000150: dea6 e5bd 49b2 3abe 586d 8bbc e0d8 73bf
00000160: 9bb8 093d 5162 173d 122e 8e3d f767 83bd
00000170: bbc7 cebd 0927 bd3e d2b5 903c fa6a af3d
00000180: e756 0a3e 9dbf 283e 4215 fc3c f7c9 debc
00000190: a38f 40bd 2c1e 6e3c 8ef3 453e 5459 543e
000001a0: 0fea 143e d498 13be 9f6d d63d d425 873d
000001b0: 7a93 363f 2cef f03c ff73 bcbd 437d 083e
000001c0: 162b 403e 32f0 8ebc 1509 f0be f54d 39bd
000001d0: 057f 153e a288 0ebe 2b61 b83d 5010 d93d
000001e0: 1dd9 7bbd 57f5 163f bfe5 30bc 8151 c6bc
000001f0: 490d 9b3d 0d2a a2bd fa87 6cbd 25ef 713e
00000200: 53b9 073e 8a7f 0d3e b5a5 24be e613 97bd
00000210: 37ca eabd 410b 20bd 76af 6c3d 3f8e 10be
00000220: b5bc 74bd 95b5 953d f888 b7bd 8320 adbd
00000230: c6d2 43be 5ae7 e2bd 2e36 c1bd 03d8 143d
00000240: 5739 d7bc de51 943d 219e 2d3d 2358 7cbd
00000250: 03b3 8ebd 86a6 cfbd 9066 f5bd 9bc6 64be
00000260: 904d f0bd 1c10 0dbd 83be 16be f19d 2bbe
00000270: 588a cebd 03a9 a0bd 9e36 61bd d2d0 fabb
00000280: 49f3 b33d d2c4 04bd 4f2d b0bd edf9 9f3d
00000290: 8668 f03d 27a7 bdbc c3a6 8a3d 118c 053c
000002a0: 97e3 02be f538 d8bc 8bc2 353d 7eae 8abc
000002b0: bd4c cebd 3dd1 dbbd 1235 f33d 465c 2b3f
000002c0: 4fdd ae3c 4e0c 9cbd 620b f2bd db58 36be
000002d0: 48a0 293d 833d 19bd ce7e 6cbe c4b1 e9bd
000002e0: 7393 02be b711 01bd fa10 bc3d d966 67bd
000002f0: c3eb 25bc c9cb 123d 07bb b5bd 72bd 3fbd
00000300: 9438 41bc 0ab0 06be 67a7 0fbe 4beb cf3d
00000310: 35a1 973d 9720 ccbd 7490 13bd 117b 9a3c
00000320: e144 f2be 3ba3 d63d c46b 423d acee 29be
00000330: 972b 96bd fc16 4fbe 3248 25bd 0f19 2bbe
00000340: 92eb 19be 01bd 10be 0840 373d f547 20be
00000350: bc2f d23d cca5 beb9 191a 843d 2d3e ac3d
00000360: 5fa4 50bd 6f3b 9fbd 56a6 f63d bbbc 2a3c
00000370: 4bd4 5ebd ac4f babd 0dda 343d 0629 1f3d
00000380: 7b8e c0bd 9c27 2ebe 7417 febd edce a2bd
00000390: a797 66bd 9157 6f3d 10e9 33be 74e9 06be
000003a0: 6863 933d f417 713c 23c8 74bd ac0b d2bd
000003b0: a2ed a7bd d1f9 57bd 87d6 3bbd 582c 583d
000003c0: 2408 abbc e228 203d 6716 8fbd 77f6 5abe
000003d0: c959 bd3d 9ed8 5c3d 11e8 a73d 87e8 d63d
000003e0: e989 633d 4851 9dbc c4f5 c0bc 1a3c 983d
000003f0: 10e6 f9bd d9e5 3c3d 02f7 013d 9cc7 683d
0.067432895 -0.035789326 0.402111 0.076381974 -0.019479288 -0.040910468 -0.08197892 -0.23361906
0.0690579 -0.0533176 -0.08326184 0.23989014 0.21924761 0.010368802 0.02829692 -0.12970674
0.1451065 -0.0066371127 -0.049104966 -0.0125991395 -0.24728674 -0.04991093 0.11191297 -0.16473098
0.0766117 0.1397196 -0.018618178 0.020810878 -0.1973194 -0.017569454 -0.13430893 0.14618495
0.07695147 -0.40235245 0.032754008 0.11808167 -0.07992009 0.42628986 -0.2108775 -0.14158078
-0.0370525 0.1836289 -0.62935406 -0.077723525 -0.5785802 0.027483186 0.116499215 0.59990776
0.023699006 0.08059331 0.011971354 0.0018838934 0.6064153 -0.031009912 -0.28359357 0.046933327
-0.17075858 0.103730574 -0.01789619 0.0012833163 0.060846016 -0.076060355 -0.07607057 0.119545564
0.2706524 0.07566434 -0.07355813 -0.17461108 0.037540298 -0.043976136 -0.012366045 0.09654772
-1.6359355 -0.06723711 0.07175647 0.59881306 0.08950644 -0.08542104 -0.027258925 0.1637315
0.22433598 -0.025004182 -0.10852265 0.13910635 -0.11213468 -0.18232073 -0.017019913 -0.952528
0.03362332 0.036958996 0.06942381 -0.06416314 -0.10096689 0.36943844 0.017664824 0.08565326
0.13509713 0.16479345 0.030771855 -0.027195914 -0.047011983 0.014533561 0.1933119 0.20737201
0.14542411 -0.14413768 0.10470127 0.06599012 0.7131878 0.029410921 -0.09201812 0.13329034
0.18766436 -0.017448518 -0.4688193 -0.04524036 0.14599235 -0.13919309 0.09002908 0.105988145
-0.061486352 0.5896811 -0.010796963 -0.024208786 0.07570893 -0.07918177 -0.057746865 0.23626383
0.1325429 0.13818184 -0.16078837 -0.07376842 -0.11464351 -0.039073233 0.05778452 -0.14116763
-0.059750278 0.07310025 -0.089616716 -0.08453467 -0.19123372 -0.11079283 -0.09434162 0.036338817
-0.026272459 0.072421774 0.04238713 -0.06160749 -0.069677375 -0.10139184 -0.11982453 -0.22341387
-0.11733544 -0.03443919 -0.14721112 -0.16759469 -0.10084981 -0.078447364 -0.054983728 -0.007654288
0.08786637 -0.032414265 -0.08602392 0.078113414 0.11738686 -0.023150994 0.067700885 0.00815107
-0.12782131 -0.026394347 0.044374984 -0.016928907 -0.100732304 -0.107332684 0.11875357 0.66937673
0.021345763 -0.076195344 -0.11818577 -0.17807333 0.04141262 -0.037412178 -0.23095247 -0.11410859
-0.1275156 -0.031511035 0.091829255 -0.056494568 -0.010127011 0.035838876 -0.08873563 -0.04681153
-0.011793274 -0.13153091 -0.14028703 0.101523004 0.07403795 -0.099671535 -0.036026433 0.01885751
-0.47318175 0.104803525 0.047466055 -0.16594952 -0.07332533 -0.20223612 -0.040352054 -0.16708778
-0.15031269 -0.141346 0.0447388 -0.1565245 0.10263011 -0.00036363152 0.0645029 0.084102966
-0.050938006 -0.07775008 0.12043445 0.010420973 -0.054401677 -0.090972275 0.044153262 0.038857482
-0.09402176 -0.17007297 -0.12406817 -0.07949624 -0.05629697 0.05843312 -0.17569375 -0.13174993
0.071966946 0.0147151835 -0.059761178 -0.102561325 -0.08199622 -0.052728478 -0.045858886 0.052776664
-0.020877905 0.03910149 -0.06986695 -0.21383081 0.09245641 0.05391752 0.0819856 0.1049357
0.055551443 -0.019203797 -0.02355469 0.074333385 -0.12202084 0.046117637 0.031729706 0.056830987

att_src f4 [1, 2, 64]
00000000: d504 e0be 9660 533e feb0 4ebe 3ecf 893e
00000010: 05d4 b4be f50e cfbe d3fc 96bd 04c3 28be
00000020: 183b 573e 600b c13e bf2e 7cbe b33e 33bf
00000030: 1488 5fbe d9a9 fd3d 999c 493e df84 37be
00000040: 32ac 6fbe bef2 73be 49b0 c53e 1add 533f
00000050: d296 ea3e 2d04 46bd 4989 b13e ebf6 8c3e
00000060: bbea 303f 6c89 6a3e 4b89 433e 99f2 41be
00000070: 49e6 a0be 5368 b73e 0e7d e2be 44a5 333e
00000080: 0a0e c4bd adb6 8cbe 9535 2b3e f8c7 57be
00000090: edb5 47be e6d0 aa3e 87d7 bd3d 1b8f 873e
000000a0: cbbb a6bd 894a a4bd 3aff 2a3e da94 723e
000000b0: 5363 6bbe c71b 8cbd 5518 483e 525c 82bd
000000c0: fc2f ce3e 5a4e c8be a4dd 49be 70bf 163e
000000d0: 5284 1dbf 7a80 813e 2b5f e9bc 291d f13e
000000e0: b6f8 d0bb 03e0 dd3e 3b4d 23ba 7519 9e3c
000000f0: 4f5f 0cbe 38f2 9bbd b80a 3b3f 3b2e 1abe
00000100: 84d7 5c3e 514c 9dbc eef3 10be cbec 743e
00000110: a805 843e e038 8c3e f4f0 813e 7167 2f3e
00000120: 5305 8a3e 6011 893e ae64 8ebc b545 923e
00000130: d877 e33d fc1c e6ba e6e4 583e 7580 413e
00000140: b1a1 c6bd 43e1 553d 26d6 b3be 0690 a7bd
00000150: e6ad 9f3e 42c9 333e 69b0 0c3f 5628 373e
00000160: 1160 0f3e c335 183d ce96 16bd e485 8abe
00000170: a0df 623e 28e5 7bbe 504d 643c 4e14 783d
00000180: 601d 4d3e a30f b9be 06b9 e73d 2bc7 93bd
00000190: bd39 28be 2b83 c1be d557 cebe b9e4 96be
000001a0: f73a 163e d444 5dbe f260 4a3a 601f a2be
000001b0: b241 5bbe ab02 15bf 089a d7bc d88e 91be
000001c0: 1665 043e fea3 8dbe 036a dbbd 41f3 073e
000001d0: cc41 4f3e be03 10be 7dcb 25bd 2885 68bd
000001e0: e11e 34bd 7dcd b3bd 093e 11bf 96a0 05be
000001f0: 085e 9ebe 9df4 64bc e83d 663e 5857 773e
-0.43753687 0.20642313 -0.20184705 0.26915926 -0.35318008 -0.404411 -0.07372441 -0.16480643
0.21018636 0.3770399 -0.24627207 -0.70017546 -0.21829253 0.123859115 0.19688644 -0.1792178
-0.23405531 -0.23823068 0.38611057 0.8275925 0.45818192 -0.048343826 0.34675053 0.27532133
0.6910817 0.22903985 0.19095342 -0.189402 -0.31425694 0.3582178 -0.44236034 0.17543513
-0.0957299 -0.2748312 0.16719659 -0.21072376 -0.19502993 0.33362502 0.09269624 0.26476368
-0.081412874 -0.08022029 0.16698924 0.23689595 -0.22987108 -0.068412356 0.19540532 -0.06365265
0.40270984 -0.39122277 -0.19713455 0.14721465 -0.6153003 0.25293332 -0.028487762 0.4709256
-0.006377305 0.4333497 -0.0006229465 0.019299248 -0.13708232 -0.07614559 0.7306323 -0.15056698
0.21566588 -0.01920143 -0.14155552 0.23918454 0.25785565 0.27387142 0.25379145 0.17129304
0.26957187 0.2677107 -0.017381992 0.28568807 0.11106843 -0.0017556245 0.21181068 0.18896659
-0.09698809 0.05221678 -0.3512432 -0.08181767 0.3118736 0.17557243 0.5495668 0.1788648
0.1400149 0.037160646 -0.036764912 -0.27055275 0.22155619 -0.24599135 0.013934448 0.06056624
0.20030737 -0.36144742 0.11314587 -0.07215723 -0.16428275 -0.37795386 -0.40301386 -0.29471377
0.14670931 -0.21608287 0.00077201345 -0.31664562 -0.2141178 -0.58207196 -0.026318565 -0.28429294
0.12929186 -0.2766418 -0.107135795 0.13276388 0.20239943 -0.14063928 -0.040477265 -0.056767613
-0.04397476 -0.08779428 -0.56735283 -0.1304954 -0.30931115 -0.013974336 0.22484553 0.24154413

att_dst f4 [1, 2, 64]
00000000: 9882 28bf c4b6 a5be 67e8 b63c 7a29 663f
00000010: 5c6e fbbe d3f0 663e 82b9 0ebe fae7 45be
00000020: 4084 20be 2b22 593e e509 593b 22c2 a63f
00000030: 7028 a23c 63e9 b63d 1379 6fbb 31f7 723e
00000040: 9f96 4c3d 1082 1bbe 64be 8e3e 63ef 8a3e
00000050: 39a8 823e 9a1f a33e 514b 483e a13b ecbd
00000060: d859 863d 415b d63e 4043 72be 087a 823d
00000070: 9980 433e c64a ebbe 424d ef3c 39f1 b2bd
00000080: f326 92be 1935 4abe 8a4f 94bc 0496 c83d
00000090: 4b36 42be 9a23 fc3d 8b90 603e 18aa a7be
000000a0: d4c5 413e 7bfb 193d e847 cb3e 6cab 623e
000000b0: d618 33be 12de a63e 02c9 ae3e dab2 dabb
000000c0: 518e 603e 146c 8f3e ff5b a33e 9fda 9abb
000000d0: 5f0f 0f3f 7ade 97bd 11f5 5bbe c22d 9c3e
000000e0: 9bf0 2cbe 4958 89be 4662 303e bfab 7e3d
000000f0: 1d7d 0ebf d82c 4abc 5fe9 873d 3c85 9e3c
00000100: 9258 8bbe 2322 27be 8a01 7a3e d511 aabe
00000110: ca13 6fbe dfde ebbe 20ae 7ebd 6d4b bf3d
00000120: d46c 38be 0afc 94be 653f 2d3e ca39 40be
00000130: fbe2 71be 7683 75be 1f92 2ebe fd2e 9a3e
00000140: 09e7 843e af9f 2f3e 15c1 023e 64ac 633e
00000150: 853b 53bd 7ec5 21bd 9e4e 15bf 6574 3dbe
00000160: 64bb 0b3e e6ff d1bc 72ad 0e3d c708 9a3e
00000170: 344c 81be 68d3 983e 00e7 2fbd 0766 0bbd
00000180: 3497 81be 90c3 5ebd 006c c1be a680 c5bd
00000190: b87e 413e 2565 7f3e 4e41 e63e 9d43 d73e
000001a0: ae51 01be 84a1 aebd f1dd 813d 5bdd 47bd
000001b0: 37d4 21bc 2617 2d3f d00f 573e 2845 4d3e
000001c0: 78f1 aebd afe9 e13e 5bee eb3c fb64 1c3e
000001d0: f291 a5be d631 373b 18a9 893d f68f c33d
000001e0: a988 13bd 6a39 353e 3582 003f a395 913e
000001f0: be35 a23e 7123 b43d a9eb 9ebe 4123 eabd
-0.6582427 -0.32366002 0.022327615 0.8990704 -0.49107635 0.22552805 -0.13937953 -0.19326773
-0.1567545 0.2120444 0.003311747 1.3027995 0.019794673 0.08931234 -0.0036540672 0.23727109
0.04994833 -0.15186334 0.27879632 0.27135763 0.2551897 0.31860048 0.19559981 -0.11534811
0.06560105 0.41866496 -0.23658466 0.06370932 0.19092025 -0.45955485 0.029211644 -0.08737416
-0.2854534 -0.19746818 -0.018104333 0.09794238 -0.18966024 0.12311478 0.21930139 -0.3274696
0.18923122 0.037593346 0.39703298 0.22135705 -0.17489943 0.325913 0.34137732 -0.006674153
0.2192929 0.28012145 0.31906125 -0.0047257687 0.5588283 -0.07415481 -0.21480204 0.3050366
-0.16888659 -0.2682517 0.17224988 0.06217551 -0.5565966 -0.012339793 0.06636309 0.01935064
-0.2721601 -0.16321616 0.2441465 -0.3321673 -0.23347393 -0.46068475 -0.062177777 0.09340558
-0.18010265 -0.2909854 0.16918714 -0.18772045 -0.23621742 -0.2397593 -0.17047928 0.30113974
0.25957516 0.17150758 0.12768967 0.2223373 -0.051570434 -0.039494984 -0.58323085 -0.18501432
0.13645703 -0.025634717 0.03483338 0.30084822 -0.2525345 0.2984879 -0.04294491 -0.034032848
-0.2531067 -0.05438572 -0.3777771 -0.09643678 0.18895996 0.24940927 0.449717 0.42043772
-0.12628815 -0.085269004 0.0634116 -0.048795085 -0.009877256 0.67613447 0.21002126 0.20045912
-0.0854215 0.441236 0.02880018 0.15272896 -0.3233791 0.0027953289 0.06721705 0.09548943
-0.036019 0.17697683 0.5019868 0.28434476 0.31681627 0.087958224 -0.3103917 -0.114325054

bias f4 [128]
00000000: 02be bcbd b4c6 7cbd 3e45 a1bd 4118 45bd
00000010: c996 1fbe 6344 83bd d50a 8ebd acf5 cfbd
00000020: 9131 2d3d f8f1 7fbd be17 97bd 2678 67bd
00000030: 1aa9 3bbd d650 0cbd acb4 563b 367b 52bd
00000040: 1cdf 0b3d e73d bcbc 3610 873e 8346 c9bd
00000050: 7510 7abd 8244 203d 0f92 dcbd fca1 c1bd
00000060: eb13 98bd a277 1e3e b44b 83bd 11a0 95bd
00000070: dc94 79bd 7ddd 19be e71e fabc 6716 b9bc
00000080: 7f3e 023c feaf 17bd 37eb ba3d 19ae 17be
00000090: b3c9 89bc 7f66 8bbc 196f 91bd 4e96 24bd
000000a0: b762 1a3e 7ef6 e0bc 82fc 75bd 8c7e afbd
000000b0: 04ba 833d e1f2 2ebd 3ffc 75bd 7f00 5ebd
000000c0: 21fe 56be d973 9cbd 7a2b c43d 3a58 6ebd
000000d0: 9b31 adbc d846 55bd ed06 9bbd 48a7 2bbd
000000e0: 605e c43d a70b 90bd 2c44 75bd 0ac6 863c
000000f0: c8a5 4cbe 8280 83bd 5a9b a5bd 15d3 17bd
00000100: bb22 84bd 19cd 9fbd 48c5 6f3c e1dc 7abd
00000110: 15c7 77bd f2eb e23d 8d85 6dbd 44bb 3abd
00000120: 1fd4 bcbd 070a dcbd 294b 86bd 8cb0 64bd
00000130: 01cd 3abd a96a 5bbd d426 8fbd d197 163d
00000140: 23cc 65bd af71 52bc 742a 17bc 21b3 44be
00000150: eab1 55bd 9b07 76bd a398 9bbd 27e4 34bd
00000160: 6404 053e 9770 583d 22ad e6bd 2bae 8bbd
00000170: 341b cb3c a796 ebbd f115 88bd 8557 89bc
00000180: b3ff 7abd 26f8 35bd e2bd 09bd b74b 00bd
00000190: 79cc 04bd c170 09bd 2280 c93c d0ac 54be
000001a0: a964 62bd 7a8a 05be ebed 893e 13db 783e
000001b0: ad9b 2ebd 97a1 2c3d d00b 03bd 57cb 35bd
000001c0: adda edbc f964 76bd b7fd a8bd 6e82 42bd
000001d0: 4f93 81bd c952 95bd 4866 7cbe bb03 01bd
000001e0: 2607 58bd 8758 a2bd 6c27 babc 60be 3ebe
000001f0: 67aa b4bc aaaa 5c3d 5926 c7bd 827b ca3a
-0.092159286 -0.061712936 -0.07874535 -0.048118833 -0.15584864 -0.06409528 -0.0693566 -0.1015428
0.0422836 -0.06248662 -0.07377575 -0.056511067 -0.045815565 -0.03425678 0.0032761497 -0.051387034
0.03414832 -0.022978736 0.26379555 -0.09827902 -0.06105085 0.039127834 -0.10770046 -0.09454724
-0.07425674 0.15475324 -0.064109236 -0.07305921 -0.06093298 -0.15025897 -0.030532314 -0.02259369
0.007949471 -0.037033074 0.09126895 -0.14812507 -0.01681981 -0.017016647 -0.07101268 -0.040182404
0.15076719 -0.027461287 -0.060055263 -0.08569059 0.06431964 -0.042712096 -0.060055014 -0.05419969
-0.2099538 -0.07639284 0.09578605 -0.05818961 -0.021141818 -0.052069515 -0.0756968 -0.04190758
0.09588313 -0.070334725 -0.059879467 0.016451854 -0.19985116 -0.06420995 -0.080862716 -0.037066538
-0.06451937 -0.07802791 0.014634438 -0.061245803 -0.060492594 0.11080159 -0.057988692 -0.045588747
-0.092201464 -0.107441 -0.065573044 -0.05583243 -0.045605663 -0.053568516 -0.06989828 0.036765877
-0.056102883 -0.012844487 -0.00922643 -0.19208957 -0.052171625 -0.060065847 -0.075974725 -0.044162896
0.12989956 0.05284175 -0.11263491 -0.06820329 0.024793245 -0.11503344 -0.0664481 -0.016765365
-0.06127901 -0.044426106 -0.033628352 -0.031322207 -0.032421563 -0.033554796 0.024597231 -0.20769048
-0.05527178 -0.13041106 0.2693933 0.2430232 -0.042628933 0.04214629 -0.031993687 -0.044383373
-0.029034937 -0.06015489 -0.08251517 -0.04748767 -0.06326925 -0.07291181 -0.24648392 -0.0314977
-0.052741192 -0.079270415 -0.022723876 -0.1862731 -0.02205391 0.053873695 -0.09724111 0.0015448185

weight f4 [128, 128]
00000000: 9967 2d3f c3bb 883c 51f1 cf3d 7b87 46be
00000010: b44c 07be 79f8 803d ac80 1dbe 5fe5 b33d
00000020: 8339 243d d795 b9bd daa2 1abe 0a5b 5b3e
00000030: 322f 983c 080e 363e 8cc9 b5bd 4ebd 6dbb
00000040: 7eb8 8a3d c408 983e d5dd cfbd ad21 d0bd
00000050: 0611 d83d 8ada b93d 09e0 24be 7e33 1bbe
00000060: 11d4 2abe 9dae 5cbd c0a6 823d a7d7 99bd
00000070: 359e f2bd 5b28 bb3c 6d96 e7bd 8900 0c3d
00000080: e7a0 5abb f0e7 7f3b 4093 7c3d 9019 293e
00000090: f2b3 893c 0cfb ec3d e1d6 833d 7d35 e93d
000000a0: ed74 9cbd 5873 c23d c9e4 bd3d 995f 21be
000000b0: 32d0 9b3c d78b bc3d 600b fd3d 99d6 913d
000000c0: 77f7 f43b cd21 a33d e385 46bd c82c 9cbd
000000d0: 08ae 0c3e 555d aa3d 04f5 21be d898 2bbd
000000e0: d3f4 ba3d 97e3 c6bd c203 e3bc af86 253d
000000f0: 1125 81bd db63 30be ac24 0abe a277 213d
00000100: ae5c 12be cde3 54be ce8f b1bd c66a 07ba
00000110: 2e51 4ebb 623d c33d f1a5 c1bd dc47 b6bd
00000120: 36e5 32be abca 4c3d c376 e73c f444 ba3d
00000130: a8c3 1abc 69c6 3dbd a118 2cbe eef8 66be
00000140: 1354 d3bd 69dd 08be f252 bebd 231e 3bbe
00000150: 224e 883d b95e de3c 1125 ac3d 6ec1 343e
00000160: 6e03 903c a8f9 9cbd e637 8abd 0c0d e53c
00000170: 6c31 3f3d 8be0 1dbd 9b34 b3bc c24d 313d
00000180: 684b 933e 5b9e cebc ae7c a8bd 93b5 03bd
00000190: e1ca 02be 1885 9ebe ac77 ad3d 94ff 12be
000001a0: a504 0e3d 3cbb 153d a3bb 76bd f97d 10be
000001b0: 0cb9 7bbd e6bf df3e a01d d3bd 2596 10bc
000001c0: 8977 ec3c 59a8 b9bd 89a3 fbbd b4ba 253e
000001d0: 5cf4 953d e7d8 32be d697 f3bd 5ce9 1e3e
000001e0: 90b5 633d e6ad febd a1ce e0bc 2aa2 943e
000001f0: 6916 a53d 8a26 22be 78b7 96be 673c ce3e
00000200: 8095 a03e 86e3 b53d 491c 95bd e47b 7b3c
00000210: fc78 febd fa0b 7cbd 29e7 96bd 12be e6bd
00000220: 1d85 c63d cb99 14bd 4a20 56bd ebaa 62bd
00000230: 541a a3bd ebfb 7eb8 58a0 533f 9598 4d3e
00000240: 4991 93bd cca8 8e3e 50dc 86bd 1401 17bc
00000250: 7e5e 173d c770 153e ae0c 023e 3d21 df3d
00000260: 4ac3 a03d 6499 aa3d 5508 18be 601e d8bc
00000270: 538e babd c987 143e 6609 c3bc 1850 20bd
00000280: 66c4 88bd aa7f d9bc 0a7c 3b3c b1b0 573d
00000290: b57a f6bd f130 553e 25ae a2bd 4c6a e23d
000002a0: f381 0d3e 97b8 cbbd 0f90 04bc e4c6 023e
000002b0: ba72 0ebd 045e f4bd 961a 623d e9dc 25bd
000002c0: 4e15 c6bf c579 40bd 8545 9bbc 6551 363d
000002d0: a809 1c3e e0cf f73d 966e db3c b033 5f3e
000002e0: 438a 023d a6d0 3d3e 0143 36bd d2f4 993b
000002f0: b4bc c03c f532 c13c 6d87 f73c b1b0 ab3c
00000300: a368 2e3e 12ed 793d 00c2 043e 6875 a13d
00000310: 3333 fd3d 4856 30bc 743b 04be 4d78 87bd
00000320: 2db0 4a3d b77b 8ebc 96bb 503f 71cc 30be
00000330: ad08 d13c 6605 2a3e 36ad 70bd 0662 2bbd
00000340: 29db a13b 68f6 ed3d 6162 d0bd 1aad 543d
00000350: f746 b3bd 4e1d 71bd 2a22 113e b099 bebe
00000360: 0c30 c83c 5498 92bd 27c8 a4bd 30cb 873d
00000370: 907c d9bd 9290 bdbe d169 823d 8642 333e
00000380: 0dac cbbe ad80 863d 2222 ecbc 2b7d 553d
00000390: 1595 d03c ca4f 5bbe ac21 1abd 8fbd 903d
000003a0: 3d1c 1fbd 215d 06bd bf30 86bd 9a07 8a3d
000003b0: b959 eabb 9c44 32bf b0e1 a2bd 6754 adbd
000003c0: ced6 503e 94c2 bbbb f18c 8f3d b59a bcbd
000003d0: 962a e4bd bd70 1dba cf59 973d a51a 91bd
000003e0: 8cf0 73bd 7e47 dc3c feb8 173e 1468 b1be
000003f0: 47f7 ec3d 19a2 d33d d175 c23d dc2f b7be
0.677362 0.016691094 0.10153449 -0.19387619 -0.13212854 0.062973924 -0.15381116 0.087839834
0.04009391 -0.09061783 -0.15101185 0.21421447 0.018577192 0.1777879 -0.08876333 -0.0036276164
0.0677347 0.29694188 -0.10149733 -0.10162673 0.10550122 0.09074886 -0.16101088 -0.15156361
-0.1668246 -0.05387746 0.06379461 -0.075118355 -0.11846582 0.022846391 -0.11307988 0.034180198
-0.0033360065 0.0039048158 0.061663866 0.16513658 0.016809437 0.11571321 0.06437469 0.11387155
-0.07639489 0.09494656 0.09272153 -0.15759124 0.019020174 0.0920636 0.12355685 0.071210094
0.007475789 0.07965431 -0.048467528 -0.07625729 0.13738263 0.08318583 -0.15816122 -0.04189381
0.09128728 -0.09711378 -0.027711753 0.040411647 -0.06305898 -0.17225592 -0.13490552 0.03942073
-0.14293167 -0.20790024 -0.08670007 -0.0005165752 -0.0031481492 0.09533192 -0.09455479 -0.08900425
-0.1747025 0.049997967 0.028254872 0.09095183 -0.009446062 -0.046331797 -0.1680627 -0.22555897
-0.1031877 -0.13365711 -0.09293164 -0.18273215 0.06655528 0.027144777 0.08405507 0.17651913
0.01757976 -0.07664806 -0.06748943 0.027960323 0.04667799 -0.03854422 -0.02187567 0.043287046
0.28768468 -0.025221994 -0.08226906 -0.032155585 -0.12772705 -0.30960917 0.08470091 -0.14355308
0.034672398 0.036555514 -0.060237538 -0.14110555 -0.06145577 0.43701094 -0.10308385 -0.00882486
0.028865593 -0.09065313 -0.12287051 0.16184503 0.073219985 -0.17465554 -0.11894195 0.15518707
0.055593073 -0.12435512 -0.027442278 0.2902997 0.08060915 -0.15835014 -0.2943685 0.40280458
0.3136406 0.08881287 -0.072807856 0.015349362 -0.1242542 -0.06153486 -0.07368309 -0.11266722
0.09693358 -0.03627948 -0.052276887 -0.05533878 -0.07964006 -6.0792936e-05 0.8266654 0.20077737
-0.07205445 0.27863157 -0.0658499 -0.009216566 0.03695535 0.14593802 0.1270015 0.108950116
0.078497484 0.08330038 -0.14846928 -0.026381671 -0.091091774 0.14504923 -0.023808192 -0.039138883
-0.06678085 -0.026550133 0.011443147 0.05265874 -0.12035123 0.20819451 -0.07943372 0.11055431
0.13819103 -0.09947317 -0.008090987 0.12771183 -0.03477738 -0.119319946 0.055201136 -0.04049388
-1.5475252 -0.04699113 -0.018954048 0.044511218 0.15238059 0.12100196 0.02678613 0.21797061
0.031870138 0.18536624 -0.044497494 0.0046983743 0.02352748 0.023583869 0.030215943 0.020958276
0.17032103 0.061017103 0.1296463 0.078837216 0.12363281 -0.010762759 -0.12913305 -0.066147424
0.04948442 -0.017392976 0.81536233 -0.17265488 0.025516832 0.16603622 -0.058758937 -0.04184153
0.004939456 0.11619264 -0.10175014 0.051922895 -0.0875377 -0.058865838 0.14173189 -0.3722663
0.024436973 -0.071579605 -0.080459885 0.06630552 -0.106194615 -0.3702436 0.06367839 0.17505845
-0.39779702 0.06567512 -0.02882487 0.052121323 0.025461713 -0.21417156 -0.03762977 0.070674054
-0.03884529 -0.03280366 -0.06552266 0.06739731 -0.007151809 -0.6963594 -0.07953203 -0.08463364
0.20394441 -0.0057299826 0.07009304 -0.092091955 -0.11140935 -0.0006005874 0.073901765 -0.0708516
-0.059555575 0.026889559 0.14816663 -0.34649718 0.11570602 0.10333652 0.09495128 -0.357787

att_src f4 [1, 2, 64]
00000000: 088f e3be 2901 c63e 50ce eb3e 8e19 fb3e
00000010: e200 ed3d fcab 1fbe f57e 0f3f d969 4abe
00000020: f93f debe db2d 8bbd c8fb 613d e686 3d3e
00000030: 9c3c 86be b16e 583d e686 ecbc 2e9b 1abe
00000040: 468b 86be 3375 72be 3229 4e3d ea30 23be
00000050: fdea 72be e827 a23e 4623 69be dec8 ea3e
00000060: 76aa febd da1b fd3e 41c2 043f 38b6 a5be
00000070: d33d 4ebe a228 9d3d f940 a73d b669 503c
00000080: 290a ab3e 1993 353f abe2 5cbe a19e 87be
00000090: 45fd 373f c6f1 813e 9b3c e53e 7e43 ec3c
000000a0: e4c3 493e 5424 a7be b8b4 0b3f 11c4 2d3e
000000b0: fa71 ea3e ccda 7d3d c71b 50be 229a 0c3e
000000c0: 3e87 293d ae7b b33e f7e3 4cbe 39c0 7fbe
000000d0: e3ff 303d 07e9 c23d 221e ccbd 2a16 143e
000000e0: 69ec c73d 208a b53d 8898 833d 6f28 b93e
000000f0: 2b79 03be 69fb 1b3f 4ec5 9fbe 237a b83e
00000100: 170f d13d ac0a 9dbe d6be 64bd 16b0 e4be
00000110: e8c7 823e 3440 fcbc 071f f6bd 8a16 06bf
00000120: 5732 57be d91f c7be ff09 c1bd 3f52 a33e
00000130: 7e64 3a3e 68d8 2b3e a0cf 99be 8334 19bc
00000140: f55c b63e 6936 b5be 5a0b 98be 5371 b7be
00000150: 6b08 78be f804 2d3e 6fd7 f7bd d245 3e3e
00000160: 5c40 8fbe cce3 68be a006 313e bef9 d03e
00000170: 5607 5e3d 559a 783e 14f7 15be 77fe 8abe
00000180: 13f0 9e3e cdef b5be 6ddf 1bbe 95e0 6fbd
00000190: a761 7bbe cc14 a5be b739 623e bbb0 b3be
000001a0: c5cb 4b3d db02 eebe a120 9c3e 4724 3abc
000001b0: e544 7cbe 84b4 913e 9b1c cebe 8e98 fb3a
000001c0: b23d dabe 3769 77be 5021 82be f6be 99bc
000001d0: cc2b 3e3d 84a3 aabe 5cc7 c9be 8c34 b63e
000001e0: 5c4c 5f3e 68e5 fbbe a39d 6f3e ef98 55be
000001f0: 96c5 34bd 13d4 913e 7ac0 89be b16a 99bd
-0.44445062 0.3867276 0.4605584 0.49042934 0.11572434 -0.1559295 0.56053096 -0.1976694
-0.43408182 -0.067958556 0.055171758 0.18508491 -0.26218116 0.05283994 -0.028872918 -0.15098259
-0.26278132 -0.2367752 0.050332256 -0.15936628 -0.23722453 0.3167107 -0.22767362 0.45856375
-0.124348566 0.49435312 0.5185891 -0.32365584 -0.20140772 0.07673766 0.081666894 0.012720516
0.3340619 0.7092758 -0.21570842 -0.26488212 0.71870834 0.2537977 0.447728 0.028840777
0.19703633 -0.32644904 0.5457263 0.16969325 0.45790082 0.06197624 -0.20323096 0.13730672
0.041388743 0.35055298 -0.20008837 -0.24975671 0.043212783 0.09517103 -0.09966685 0.1446158
0.097618885 0.08864236 0.064255774 0.3616366 -0.1283919 0.60930496 -0.3120522 0.36030683
0.10207956 -0.30672204 -0.055846058 -0.44665593 0.2554314 -0.030792333 -0.12017637 -0.5237814
-0.21015297 -0.38891485 -0.09425735 0.31898686 0.18202397 0.16781771 -0.30041218 -0.009350899
0.35617796 -0.35393074 -0.2969616 -0.35828647 -0.24221961 0.16896427 -0.121016376 0.18581322
-0.2797879 -0.22743148 0.17287683 0.40815538 0.054206215 0.24277623 -0.14645034 -0.27147266
0.31042537 -0.35534516 -0.15221949 -0.058563787 -0.2454897 -0.3224243 0.22092329 -0.35095772
0.049754877 -0.46486554 0.30493644 -0.011361188 -0.24635656 0.28458035 -0.402562 0.0019195245
-0.42625195 -0.2416123 -0.2541604 -0.018767815 0.046428487 -0.33327878 -0.39409912 0.35586965
0.21806473 -0.4919846 0.23399977 -0.20859121 -0.044133745 0.28482112 -0.2690466 -0.07491053
