Models/9jpezkmb_best_model.pth (torch, 39892 bytes, 28 tensors)

convs.0.att_src f4 [1, 2, 16]
-0.24306504 0.299087 0.2296823 0.1605009 0.56087655 0.86698914 -0.27019054 -0.21063878
-0.0031917468 0.79644716 -0.26139504 -0.49038133 -0.23971555 0.15803811 -0.32285258 -0.1640788
-0.22335261 -0.42331812 -0.13130654 -0.21277733 -0.14989871 0.7886202 0.4094508 0.5574137
-0.15551822 -0.008438524 -0.62274486 0.46088162 -0.16220258 -0.6207208 0.22141191 0.23734553
00000000: 0be6 78be ee21 993e d631 6b3e 595a 243e
00000010: 9b95 0f3f 00f3 5d3f 6a56 8abe b1b1 57be
00000020: a02c 51bb f6e3 4b3f 92d5 85be 4313 fbbe
00000030: fe77 75be bed4 213e ef4c a5be 4604 28be
00000040: 8cb6 64be 27bd d8be 3975 06be 4de2 59be
00000050: 0c7f 19be 03e3 493f 89a3 d13e aab2 0e3f
00000060: 2b40 1fbe bc41 0abc 356c 1fbf adf8 eb3e
00000070: 6f18 26be 8fe7 1ebf ceb9 623e b50a 733e

convs.0.att_dst f4 [1, 2, 16]
-0.7141991 -0.84381205 -0.11976396 -0.36829638 0.26356637 0.38456467 -0.017415538 0.61429876
0.8142048 -0.43079916 0.7134233 -0.30675223 0.050216746 0.37989277 0.23797935 -0.6480926
0.34645057 0.22329439 0.6373667 0.03209012 0.3238283 -0.11302643 0.34364426 0.6635934
-0.84607285 -0.3104044 -1.8255458 -0.20736374 0.5573304 -0.8494895 -0.2935766 -0.7362942
00000000: c1d5 36bf 1104 58bf cf46 f5bd 5891 bcbe
00000010: 2cf2 863e a9e5 c43e 08ab 8ebc af42 1d3f
00000020: ba6f 503f b591 dcbe e9a2 363f a10e 9dbe
00000030: 13b0 4d3d 4e81 c23e dcb0 733e 66e9 25bf
00000040: f861 b13e 49a7 643e 772a 233f ee70 033d
00000050: d3cc a53e 677a e7bd 24f2 af3e 42e1 293f
00000060: 3b98 58bf 53ed 9ebe 7cab e9bf 2957 54be
00000070: 35ad 0e3f 2578 59bf ac4f 96be c77d 3cbf

convs.0.bias f4 [32]
0.79974014 -0.07121035 0.25500327 0.0009973301 0.6708643 0.20392966 0.1194719 -0.37345085
0.010452465 0.21705818 0.0677321 0.16822979 -0.050383754 0.1858667 0.15042633 0.78675675
-0.34785908 -0.046493083 0.12519565 0.07318754 0.20676166 0.22887227 0.07590204 -0.28809065
0.9030408 -0.122491166 -0.17181656 -0.08490987 0.2519462 -0.25762737 0.2805595 -0.49618256
00000000: c5bb 4c3f bbd6 91bd ca8f 823e d8b8 823a
00000010: c3bd 2b3f f0d2 503e afad f43d f334 bfbe
00000020: d140 2b3c 8044 5e3e 21b7 8a3d 6e44 2c3e
00000030: 325f 4ebd d753 3e3e 5c09 1a3e e468 493f
00000040: 961a b2be 886f 3ebd 4a33 003e 59e3 953d
00000050: 54b9 533e 7e5d 6a3e 8772 9b3d 9e80 93be
00000060: af2d 673f a6dc fabd aef0 2fbe 3ae5 adbd
00000070: 18ff 803e bce7 83be 7fa5 8f3e a40b febe

convs.0.lin.weight f4 [32, 9]
-0.4270445 1.3870134 -0.1593142 0.29697582 -0.37345493 -0.08949522 -0.050513726 -0.29980293
1.2187538 0.17025426 -0.9370741 0.29916435 -0.035561003 -0.07719745 -0.44695535 -0.3179855
-0.17016849 -0.25029036 -0.42796955 -0.9322482 0.7210059 -0.3001427 0.24555553 -0.29481676
0.120859206 0.19401664 0.20241892 -0.058906954 -0.15174213 0.35396484 -0.019088052 0.3893365
0.41394275 -0.17715801 0.44327825 0.0630502 -0.4873767 -0.6707218 -0.080699585 0.20950267
0.3981931 0.6952954 0.18484053 -0.10252435 -2.0492604 0.2612285 -2.2650664 0.18842548
-0.5201743 -0.120922506 0.6159364 0.5040867 0.6441036 -0.80533224 0.17039421 1.1990371
0.07899252 -0.31252912 -0.15947506 0.1279644 0.20914082 -0.0759938 0.559484 0.3856684
0.4885097 0.48022664 -0.24378301 0.14935505 0.1723299 -0.09221944 0.41926196 -0.5105932
0.02225151 0.2857547 0.0413695 0.017275989 0.004455064 -0.23706926 0.6000019 0.5916809
0.25174558 0.07325757 -0.10053281 0.06850594 0.09822754 0.10006998 -0.23236085 -0.093582936
-0.2224055 -2.979097 -0.1440081 0.21568273 -0.25750947 -0.33142012 0.3152152 -0.07078447
0.25533128 -0.2106933 0.48319834 0.076518446 0.98618686 0.12516996 -0.23569624 -0.19562748
-0.29381385 -0.0044624945 0.4731792 0.68216586 -0.45696092 -0.027749747 0.50792754 -0.10008543
-0.38341123 -0.32171267 0.45086706 -0.36720085 0.8768459 0.021926172 -0.35894608 0.17322725
-0.20401695 0.10540263 0.20983025 -0.24928173 0.46753 0.671509 0.0919556 1.7264826
-0.5962092 0.45408958 0.26816657 -0.019046914 0.10614918 -0.29154727 0.4476827 -0.058648925
1.0139627 0.068405144 0.16062991 -0.07949024 0.4113584 -0.05686603 0.07318748 -0.7135641
-0.17969853 -0.50993884 0.010946125 -0.90195984 -0.28794792 0.25004295 0.27553418 -0.1697669
-0.0029045949 0.5755448 -1.0221467 -0.15358089 -0.31556457 -0.23581363 0.9477464 0.010141113
0.49002692 -0.33314124 -0.5310766 -0.6901238 0.07933522 -1.1570934 0.20977122 -0.61723614
0.3785478 -0.8847533 0.43633845 -0.6637678 -0.17563029 1.7479537 -0.70833266 0.44099486
-0.42774636 -0.026495984 0.08998643 -1.4706432 -0.029731505 -0.65938723 -0.3299801 -1.0568138
-0.053951975 -0.4846914 0.20247881 -0.5246441 0.42128897 -0.91893065 0.4810511 -0.0990738
0.25268367 0.20066646 -0.60148454 0.45317477 -0.69741684 0.43673113 -0.40686828 0.090322755
0.86437416 -0.43530726 0.32106185 -0.09615408 -0.31977478 -0.038988184 0.83565426 -0.07641759
-0.24219657 -0.017179068 -0.12428523 -0.2057053 -0.51491725 0.21937063 0.06843183 -1.2840532
0.35034543 1.0959489 0.68674093 1.2804518 0.053362403 0.21781065 -0.437817 0.9296539
-0.9615776 -0.07531796 -0.3722439 -0.18169992 -0.12339324 0.6973145 1.0679309 0.06433559
-0.13662657 0.024266955 0.3319274 0.8422164 0.62390536 -0.18325277 0.45254952 -0.14846927
-0.49266595 0.6904343 -0.40460348 -0.34298158 1.0061333 -0.47337064 -0.0061826725 -0.21374835
-0.15757556 0.19393535 -0.54380006 0.4762357 0.045629647 -0.4252175 -0.121603906 0.119111955
00000000: 94a5 dabe a889 b13f 4323 23be 370d 983e
00000010: 7c35 bfbe 4549 b7bd 7be7 4ebd c57f 99be
00000020: 2000 9c3f 2257 2e3e 17e4 6fbf 122c 993e
00000030: 6aa8 11bd b219 9ebd 55d7 e4be ffce a2be
00000040: a640 2ebe 0f26 80be d31e dbbe d1a7 6ebf
00000050: d893 383f 4eac 99be e972 7b3e 39f2 96be
00000060: 0885 f73d 4cac 463e e846 4f3e 6b48 71bd
00000070: 4a62 1bbe e13a b53e 8c5e 9cbc 1d57 c73e
00000080: 4ef0 d33e e968 35be 5ef5 e23e 7720 813d
00000090: 7089 f9be 6db4 2bbf d345 a5bd de87 563e
000000a0: f7df cb3e e1fe 313f d646 3d3e 49f8 d1bd
000000b0: 1527 03c0 bebf 853e d9f6 10c0 9cf2 403e
000000c0: 252a 05bf 38a6 f7bd 02ae 1d3f d30b 013f
000000d0: f9e3 243f 412a 4ebf d27b 2e3e 0c7a 993f
000000e0: d5c6 a13d d103 a0be 6e4d 23be 1a09 033e
000000f0: 0329 563e a3a2 9bbd 583a 0f3f 5476 c53e
00000100: f21d fa3e 44e0 f53e 41a2 79be 88f0 183e
00000110: 4077 303e 8cdd bcbd 81a9 d63e 3cb6 02bf
00000120: cc48 b63c 714e 923e 1173 293d 6086 8d3c
00000130: c9fb 913b 49c2 72be b999 193f 6678 173f
00000140: cce4 803e 1108 963d 25e4 cdbd d84c 8c3d
00000150: 852b c93d 7df1 cc3d 01f0 6dbe 69a8 bfbd
00000160: 44be 63be 86a9 3ec0 dc76 13be efdb 5c3e
00000170: 48d8 83be e6af a9be e363 a13e 73f7 90bd
00000180: c8ba 823e fcbf 57be c665 f73e b4b5 9c3d
00000190: be76 7c3f 8e2c 003e 5b5a 71be 9252 48be
000001a0: c56e 96be 1e3a 92bb 8b44 f23e 6ca2 2e3f
000001b0: c8f6 e9be 7053 e3bc 8a07 023f 97f9 ccbd
000001c0: 7a4e c4be 86b7 a4be 0cd8 e63e c001 bcbe
000001d0: f978 603f 849e b33c c8c7 b7be 7c62 313e
000001e0: d2e9 50be 56dd d73d bedd 563e b643 7fbe
000001f0: 1860 ef3e 04e8 2b3f 3853 bc3d 62fd dc3f
00000200: 2ba1 18bf 6e7e e83e 214d 893e 4608 9cbc
00000210: be64 d93d af45 95be ab36 e53e db39 70bd
00000220: 88c9 813f ff17 8c3d 2b7c 243e c7cb a2bd
00000230: 919d d23e 5bec 68bd 51e3 953d 23ac 36bf
00000240: e402 38be 5a8b 02bf 6057 333c d7e6 66bf
00000250: e96d 93be a105 803e d112 8d3e 60d7 2dbe
00000260: 045b 3ebb e756 133f b4d5 82bf 4f44 1dbe
00000270: ae91 a1be 2179 71be 829f 723f e926 263c
00000280: cfe4 fa3e 7d91 aabe a3f4 07bf f4ab 30bf
00000290: 817a a23d a31b 94bf 44ce 563e 3003 1ebf
000002a0: 04d1 c13e 317f 62bf c167 df3e b0ec 29bf
000002b0: 6dd8 33be f2bc df3f 4a55 35bf 14ca e13e
000002c0: 9201 dbbe 1b0e d9bc ce4a b83d 093e bcbf
000002d0: 7c8f f3bc 9acd 28bf 27f3 a8be ad45 87bf
000002e0: bffc 5cbd 7929 f8be 9b56 4f3e 134f 06bf
000002f0: 30b3 d73e 0a3f 6bbf 544c f63e 34e7 cabd
00000300: c15f 813e 827b 4d3e e4fa 19bf 8606 e83e
00000310: e989 32bf 399b df3e 0a51 d0be 23fb b83d
00000320: a047 5d3f 98e0 debe 3862 a43e 6eec c4bd
00000330: 85b9 a3be 13b2 1fbd 70ed 553f d380 9cbd
00000340: 6102 78be 1ebb 8cbc 4189 febd 69a4 52be
00000350: 9ed1 03bf b2a2 603e fd25 8c3d db5b a4bf
00000360: 7a60 b33e 0e48 8c3f 41ce 2f3f d8e5 a33f
00000370: 8992 5a3d c109 5f3e 8d29 e0be ccfd 6d3f
00000380: f329 76bf 4d40 9abd c196 bebe 8b0f 3abe
00000390: 98b5 fcbd 3483 323f f6b1 883f 61c2 833d
000003a0: d6e7 0bbe 7ecb c63c 63f2 a93e 7e9b 573f
000003b0: 43b8 1f3f 9da6 3bbe 92b4 e73e 5408 18be
000003c0: b63e fcbe 4dc0 303f 3028 cfbe 489b afbe
000003d0: fac8 803f a35d f2be 0498 cabb d9e0 5abe
000003e0: 7d5b 21be fd96 463e 7b36 0bbf 2ad5 f33e
000003f0: 27e6 3a3d 1cb6 d9be 780b f9bd f8f0 f33d

convs.1.att_src f4 [1, 2, 16]
-0.36048537 -0.8255215 0.16857584 0.058120884 -0.32273704 0.12360846 0.2905335 0.8829626
0.8353597 -0.25266603 -0.75185114 -0.16493978 0.82358074 0.54580337 -1.4984809 -0.20246325
-0.027661238 -0.3032874 1.0048225 0.013474461 -0.6929223 -0.20131585 -0.14886124 -0.7529728
-0.08058841 -0.8407318 0.4614089 -0.18468973 1.2531772 0.17467983 -0.80663794 1.4903015
00000000: 8a91 b8be 6155 53bf 259f 2c3e 2a10 6e3d
00000010: ca3d a5be 6f26 fd3d cfc0 943e d609 623f
00000020: 22da 553f 715d 81be 5179 40bf f9e5 28be
00000030: 30d6 523f c5b9 0b3f 39ce bfbf 8752 4fbe
00000040: d299 e2bc 7c48 9bbe 069e 803f fcc3 5c3c
00000050: 5b63 31bf be25 4ebe 156f 18be d3c2 40bf
00000060: 890b a5bd 333a 57bf ca3d ec3e 4e1f 3dbe
00000070: 1c68 a03f 45df 323e d37f 4ebf 33c2 be3f

convs.1.att_dst f4 [1, 2, 16]
0.21256764 0.8531926 -0.398947 0.17530145 0.31828752 -0.31413078 0.1703303 -0.4634126
-0.20101506 0.38337225 0.80837476 0.7295821 -1.4489119 -0.3031865 1.426171 -0.2078267
-0.42419314 0.75695884 0.06673385 0.31492123 -0.22899583 -0.7571294 0.55068654 -0.5360962
0.65813583 0.16549112 0.69122773 0.4009233 -0.72416943 -0.96764815 0.77108663 0.6840338
00000000: 55ab 593e d56a 5a3f c842 ccbe 3982 333e
00000010: 95f6 a23e c0d5 a0be 116b 2e3e 6b44 edbe
00000020: e4d6 4dbe 5e49 c43e a6f1 4e3f e4c5 3a3f
00000030: f275 b9bf 433b 9bbe c58c b63f 86d0 54be
00000040: d82f d9be 0ec8 413f c2ab 883d 5b3d a13e
00000050: e27d 6abe 3bd3 41bf cbf9 0c3f 9a3d 09bf
00000060: 977b 283f 8176 293e 4df4 303f d245 cd3e
00000070: 2b63 39bf cab7 77bf ef65 453f d71c 2f3f

convs.1.bias f4 [32]
0.03791081 0.07935423 -0.08390119 -0.032596637 -0.052329026 0.057270166 -0.029093115 0.049427096
0.05146258 0.09020072 0.009187289 -0.02247848 0.05656958 0.034637798 -0.015398105 0.02888549
-0.092532404 -0.016066102 -0.03977942 0.008965957 0.027237043 0.058475208 -0.002510244 -0.06681277
-0.04378787 -0.07410581 -0.012981972 0.055918556 0.038153928 -0.04858219 0.093086794 0.034387115
00000000: 5e48 1b3d 7884 a23d 63d4 abbd 0d84 05bd
00000010: f656 56bd 1f94 6a3d af54 eebc 1174 4a3d
00000020: 6dca 523d 28bb b83d 4886 163c ca24 b8bc
00000030: 81b5 673d 5de0 0d3d 5548 7cbc 43a1 ec3c
00000040: a181 bdbd 0f9d 83bc bfef 22bd f3e5 123c
00000050: 3820 df3c b383 6f3d e882 24bb 22d5 88bd
00000060: e95a 33bd c9c4 97bd 56b2 54bc db0a 653d
00000070: 4b47 1c3d 1efe 46bd 4aa4 be3d 81d9 0c3d

convs.1.lin.weight f4 [32, 32]
-0.16959918 -0.14496554 -0.08597558 -0.33563414 -0.24068137 0.14916408 0.18951051 0.10190828
-0.09364291 0.43040377 -0.022236753 -0.34582824 -0.3779624 -0.18524583 0.3378014 -0.3940235
0.14643656 0.031033192 0.23266272 -0.48330203 0.31521502 -0.22029075 -0.8183594 -0.22816133
0.16465135 -0.365384 -0.083531596 -0.23816678 0.8906393 -0.1295144 -0.099939704 0.3617017
0.13724032 0.26285312 0.2213685 -0.6300599 -0.08982883 0.14333636 -0.23346584 -0.08675228
0.023169639 -0.32353702 -0.063030645 0.10006722 0.7060025 -0.8927335 -0.15805279 -0.17173733
-0.15171994 -0.17718093 -0.2305371 -0.27505857 -0.073037215 0.10284564 -0.5271475 0.11644521
0.047338393 -0.20042063 -0.19958615 0.008790319 0.2990331 -0.3377462 -0.17742541 0.32706425
-0.034163572 0.034436945 -0.23750135 0.3561678 0.39564586 -0.26658073 0.38504335 0.032277443
0.054713365 0.35870218 0.038296774 -0.18390132 -0.020472445 0.2546577 -0.13108726 0.052187253
0.09006908 0.012825904 0.049241617 0.14379686 0.27497858 -0.08578456 -0.12450934 -0.24705671
-0.25819457 -0.050375648 0.09436943 0.23805244 -0.0360456 -0.051816825 0.19925229 0.019585064
0.42602965 0.29517433 -0.33519787 -0.3684932 -0.20489809 -0.007696548 -0.12737182 0.60133564
-0.18810098 0.06837315 -0.12729701 0.1485646 0.13360061 -0.1745404 -0.27775794 0.12437327
-0.09509807 0.020545732 -0.07558825 0.45730215 0.23071016 0.25678623 0.036959298 -0.3399655
-0.05541413 -0.13500334 0.4350248 -0.08106395 -0.6504709 -0.41531008 -0.32569668 0.3363738
-0.29013118 0.2886313 0.39368775 -0.19632389 0.16895705 -0.2052288 0.24286388 0.4375117
0.045488544 -0.17912954 -0.12034067 0.2278988 0.10097753 -0.32163215 -0.2987497 -0.14207537
0.343574 -0.013618018 -0.11258505 -0.02158191 0.23560722 0.1641489 -0.13647066 -0.24293102
-0.051356684 -0.01194591 -0.13610534 0.06943779 0.06490443 -0.3582199 0.17302945 -0.36695373
-0.04950266 0.20422226 -0.08731583 -0.31031892 0.12758195 0.2988548 0.16366903 0.48691493
-0.027069855 0.7588653 -0.26034808 0.2415878 -0.15278995 -0.011583848 0.17756867 0.15276332
0.14318995 -0.11368598 -0.037247587 -0.106792 0.17372642 0.15713988 0.13442174 0.16779318
-0.39315724 -0.056040525 -0.35270873 -0.17965461 -0.17918506 -0.28831625 -0.0863828 0.13748033
-0.092586175 0.31063348 -0.04221881 -0.6597189 -0.20864522 -0.2993812 0.3825987 -0.17372982
0.2524043 -0.10446831 0.18472402 -0.26833522 0.39685223 -0.32966194 0.08710348 -0.1069912
0.18362433 0.12686618 -0.20137179 -0.6178862 -0.0035006178 -0.20813937 0.31188318 0.1630195
0.25847042 0.06219495 -0.41084102 -0.064160414 0.47726223 0.6207304 -0.12891032 0.060605638
-0.3393255 -0.27743316 -0.1167969 0.019629044 -0.67147404 0.1258166 0.17373998 0.012337038
0.10579788 -0.20539978 -0.025566464 -0.47433576 0.23263393 0.2169935 0.1431676 0.015548495
-0.105192624 0.27791208 0.26996362 0.31111875 -0.073513456 0.19599457 0.31772405 0.028558027
-0.10480487 -0.050528403 -0.718669 0.13259892 -0.2798048 0.119898126 -0.21167889 -0.069602594
00000000: 68ab 2dbe d971 14be f713 b0bd 3dd8 abbe
00000010: 2d75 76be 78be 183e 0b0f 423e 4ab5 d03d
00000020: dbc7 bfbd e25d dc3e da29 b6bc 6610 b1be
00000030: 4a84 c1be 15b1 3dbe 4ef4 ac3e 73bd c9be
00000040: 77f3 153e 5239 fe3c 233f 6e3e 5d73 f7be
00000050: dd63 a13e e693 61be 0080 51bf 20a3 69be
00000060: 5d9a 283e 9d13 bbbe 9d12 abbd fee1 73be
00000070: f000 643f 6c9f 04be 30ad ccbd f730 b93e
00000080: ba88 0c3e af94 863e 6dae 623e 9b4b 21bf
00000090: 2df8 b7bd c4c6 123e ab11 6fbe 2eab b1bd
000000a0: 41ce bd3c a5a6 a5be 3616 81bd 0bf0 cc3d
000000b0: 94bc 343f 2f8a 64bf 97d8 21be e9db 2fbe
000000c0: 795c 1bbe eb6e 35be eb11 6cbe 7ad4 8cbe
000000d0: 8994 95bd bca0 d23d 23f3 06bf d47a ee3d
000000e0: e7e5 413d 113b 4dbe 5060 4cbe 4505 103c
000000f0: de1a 993e 12ed acbe 02af 35be f774 a73e
00000100: 1aef 0bbd c10d 0d3d 8e33 73be a05b b63e
00000110: 1892 ca3e 457d 88be 6724 c53e 5a35 043d
00000120: 1f1b 603d d0a7 b73e 14dd 1c3d a150 3cbe
00000130: d4b5 a7bc 7e62 823e bd3b 06be 4dc2 553d
00000140: 2376 b83d be23 523c 94b1 493d 7c3f 133e
00000150: fec9 8c3e d1af afbd c1fe febd 6ffc 7cbe
00000160: 1432 84be b256 4ebd c244 c13d 05c4 733e
00000170: 8da4 13bd e13d 54bd cb08 4c3e db70 a03c
00000180: 8f20 da3e 1721 973e 0e9f abbe 24ab bcbe
00000190: ced0 51be 5333 fcbb c26d 02be 22f1 193f
000001a0: 8b9d 40be 3907 8c3d 265a 02be 5221 183e
000001b0: 99ce 083e b8ba 32be 4a36 8ebe 6ab7 fe3d
000001c0: c7c2 c2bd 864f a83c 03ce 9abd 8223 ea3e
000001d0: 493f 6c3e 7c79 833e a262 173d f50f aebe
000001e0: edf9 62bd 513e 0abe 92bb de3e db04 a6bd
000001f0: 4385 26bf 86a3 d4be b7c1 a6be 3039 ac3e
00000200: 138c 94be 7bc7 933e 7191 c93e 2109 49be
00000210: 1403 2d3e 8027 52be 4fb1 783e 8901 e03e
00000220: 3252 3a3d bc6d 37be 2b75 f6bd 4e5e 693e
00000230: 4fcd ce3d f8ac a4be b8f5 98be 357c 11be
00000240: eee8 af3e 1b1e 5fbc fe92 e6bd 8ccc b0bc
00000250: 0543 713e a616 283e f7be 0bbe e9c2 78be
00000260: 635b 52bd c7b8 43bc 335f 0bbe 6635 8e3d
00000270: 9dec 843d 9968 b7be a22e 313e 5ce1 bbbe
00000280: 4dc3 4abd a41f 513e a4d2 b2bd 1fe2 9ebe
00000290: d8a4 023e 7f03 993e db98 273e ea4c f93e
000002a0: 9ac1 ddbc ff44 423f 584c 85be cb62 773e
000002b0: f874 1cbe 2eca 3dbc 90d4 353e fd6d 1c3e
000002c0: 63a0 123e 32d4 e8bd ed90 18bd c4b5 dabd
000002d0: 57e5 313e 47e9 203e daa5 093e fad1 2b3e
000002e0: e84b c9be c08a 65bd 3d96 b4be 61f7 37be
000002f0: 4a7c 37be 309e 93be 77e9 b0bd a5c7 0c3e
00000300: d29d bdbd 5a0b 9f3e a2ed 2cbd 56e3 28bf
00000310: 18a7 55be 7e48 99be fae3 c33e 3be6 31be
00000320: 233b 813e 7bf3 d5bd 4b28 3d3e 3c63 89be
00000330: 3730 cb3e 73c9 a8be 4f63 b23d 341e dbbd
00000340: 0408 3c3e 35e9 013e 6834 4ebe ca2d 1ebf
00000350: 9f6a 65bb 7d22 55be 27af 9f3e 95ee 263e
00000360: 3c56 843e 22c0 7e3d c159 d2be 8966 83bd
00000370: b75b f43e 30e8 1e3f 1101 04be 9e3d 783d
00000380: 12bc adbe b80b 8ebe 3733 efbd 17cd a03c
00000390: b9e5 2bbf 11d6 003e e5e8 313e 4a21 4a3c
000003a0: 8fac d83d 5254 52be c370 d1bc 23dc f2be
000003b0: 9737 6e3e 8b33 5e3e 879a 123e 1dbf 7e3c
000003c0: 3b6f d7bd 7e4a 8e3e ac38 8a3e f54a 9f3e
000003d0: 398e 96bd cdb2 483e baac a23e 86f2 e93c
000003e0: f0a3 d6bd dff6 4ebd b1fa 37bf 03c8 073e
000003f0: 9342 8fbe 268d f53d 5ac2 58be ce8b 8ebd

convs.2.att_src f4 [1, 2, 16]
-0.45985314 -0.29822877 0.014958804 0.1085854 -0.61003256 -0.58058685 0.62236774 0.18788622
0.30073035 -0.3687564 0.20087914 0.08555486 0.5335635 0.15861493 0.19473574 0.39010623
-0.64952326 -0.5654532 -0.9065188 -0.1076209 -0.4967625 0.41117904 -0.910694 -0.2222748
0.5962282 0.24941638 -0.76533765 -0.03269629 0.6703558 0.34182844 -0.24368301 -0.38611224
00000000: df71 ebbe 71b1 98be c515 753c 0662 de3d
00000010: 182b 1cbf 57a1 14bf 7e53 1f3f 3f65 403e
00000020: 54f9 993e a4cd bcbe 43b3 4d3e 6337 af3d
00000030: 9e97 083f f46b 223e ce68 473e 01bc c73e
00000040: 2847 26bf 8ac1 10bf 9e11 68bf 5968 dcbd
00000050: a857 febe 0f86 d23e 3e23 69bf 019c 63be
00000060: 69a2 183f 0267 7f3e 2bed 43bf 8cec 05bd
00000070: 709c 2b3f 2304 af3e 0a88 79be 81b0 c5be

convs.2.att_dst f4 [1, 2, 16]
0.3397896 0.7435227 0.114779025 -0.2704129 0.54934174 -0.17622381 -0.44363785 0.1535584
-0.46409872 0.31594342 -0.21329767 -0.066938095 -0.44533545 -0.37211308 0.22669125 -0.26833516
0.89519465 0.683087 0.72212756 0.21830858 0.6150148 0.03682398 1.213351 -0.22428888
-0.20818347 -0.09960662 1.1477642 -0.23743534 -1.2053547 -0.33378252 0.23945984 0.4200901
00000000: e7f8 ad3e 8157 3e3f 4411 eb3d 8f73 8abe
00000010: a9a1 0c3f 0474 34be 8024 e3be 6a3e 1d3e
00000020: 599e edbe 56c3 a13e b46a 5abe d716 89bd
00000030: 0203 e4be 9b85 bebe c021 683e 3a63 89be
00000040: 7a2b 653f cade 2e3f 5add 383f 498c 5f3e
00000050: 9c71 1d3f bed4 163d 164f 9b3f fcab 65be
00000060: 0c2e 55be 8efe cbbd f0e9 923f 4022 73be
00000070: 1049 9abf 8be5 aabe f634 753e 0d16 d73e

convs.2.bias f4 [32]
0.050811004 0.021089846 -0.0026155314 -0.0274492 -0.02017732 -0.065131724 -0.08453013 0.022073075
-0.066302046 -0.025967166 0.07781806 -0.079885565 -0.034254894 -0.042877737 0.096854135 -0.002390858
-0.057553634 -0.17656279 -0.07418035 -0.15517576 -0.06343963 0.07107171 -0.018952765 -0.0462495
-0.08113974 0.01776202 -0.023721639 -0.0464186 0.08543915 0.071186386 0.040998768 0.010373433
00000000: 331f 503d 9dc4 ac3c 5669 2bbb 25dd e0bc
00000010: e84a a5bc c863 85bd 221e adbd 98d2 b43c
00000020: 5ec9 87bd 18b9 d4bc 135f 9f3d 0b9b a3bd
00000030: dc4e 0cbd 91a0 2fbd 765b c63d f1af 1cbb
00000040: 5cbd 6bbd e0cc 34be deeb 97bd 65e6 1ebe
00000050: a3ec 81bd 0b8e 913d d442 9bbc 1e70 3dbd
00000060: 982c a6bd a881 913c e253 c2bc 6e21 3ebd
00000070: b9fa ae3d 2bca 913d 53ee 273d 55f5 293c

convs.2.lin.weight f4 [32, 32]
0.16468638 0.17082725 0.07403633 0.56946766 -0.04584749 0.1274018 0.0058485973 0.1302848
0.041735657 0.052968096 -0.03852526 0.38329193 0.2391069 -0.13477102 -0.12122131 0.26302207
0.00036737506 -0.1702512 -0.12347753 -0.06929569 0.13681084 -0.25380257 -0.3999416 -0.335837
0.118003264 -0.3768265 0.2117064 0.025091603 0.097894415 -0.07395854 0.12608291 0.025906026
-0.3623796 0.010004641 -0.2067511 0.23171487 0.21490334 -0.42505735 -0.38779342 0.18728551
-0.2424865 0.2743819 -0.033323094 0.027238518 0.8434241 0.64171153 0.24675117 0.054976918
0.0051891827 0.2595349 1.6325984 -0.36109373 -0.37566227 0.16276807 -0.031470865 0.11385259
0.32793158 0.072018966 0.24217111 0.23174945 0.52105474 0.41034818 0.21429704 0.18294829
0.2501372 -0.39208984 0.36345607 -0.24869572 -0.14798285 -0.0055351737 0.13999201 -0.1729745
-0.07750493 -0.08157624 0.4549055 0.26017216 0.11208077 0.05967929 0.07321856 -0.18821193
-0.21430199 0.1506978 0.21647888 0.198089 -0.1734437 0.021022571 -0.23515692 -0.17310385
0.083140984 -0.17652567 -0.25253186 0.2576628 0.24889435 0.18687871 -0.16182895 -0.118473165
-0.21920311 -0.12734205 -0.11865831 -0.94842124 -0.33154392 -0.0033294382 0.10879787 -0.457966
0.1973454 0.1314274 0.34575436 0.039308682 -0.41382474 0.07184467 0.9617462 -0.16630001
-0.06163011 0.4080174 -0.45083466 0.17730194 -0.4397273 -0.15809987 0.15975903 0.49404308
0.28013927 0.21556947 0.1769408 0.21011284 -0.53150326 -0.020630578 0.16308144 -0.0956437
0.20647545 0.115399845 0.35088283 1.1904491 0.017870074 0.23229314 -0.048536245 0.10252968
-0.33824337 0.0026666482 0.17864248 -0.086872116 0.46645835 0.57251906 -0.1928123 -0.0044644913
0.60821646 0.6279878 1.5795001 -0.22961746 -0.031685572 0.049781926 -0.4164677 0.3193833
0.01928084 -0.13928409 0.1672512 -0.15524682 0.41326654 0.14691311 -0.38099524 -0.2581508
-0.10520164 0.038606394 -0.25682372 0.23901106 -0.07156193 0.007936392 0.061923094 0.28045407
-0.35129225 -0.039539378 -0.28801683 -0.15988445 0.31706184 0.32452616 -0.2466975 -0.070940115
0.23157701 0.27101073 1.0525806 -0.12934987 -0.23068753 -0.21514626 -0.050796423 -0.15721206
0.23990428 0.13282049 0.13476579 -0.30213752 0.5886177 -0.11593364 0.11189546 -0.12229101
0.025926046 -0.0169481 -0.020841023 0.33051485 -0.15518582 0.09341317 0.54923224 -0.21754651
-0.25101203 -0.48228773 -0.4610777 0.20763385 1.0264723 -0.06097469 0.31087637 0.002871022
-0.37973267 0.025991816 1.044995 -0.745269 0.43098694 -0.046100225 -0.33217677 -0.32839018
-0.3572527 -0.31409392 0.04167986 0.117889136 0.27902457 0.24887826 -0.15280128 0.17701232
-0.28692394 -0.20106414 0.02920861 -0.19013092 0.04197455 -0.022618446 0.50044096 -0.08207696
-0.15772736 -0.0040926957 0.51510054 0.23543072 0.2547633 -0.46401918 -0.4699482 -0.09755925
-0.32647735 0.02377012 0.16021405 0.6150973 0.008588491 0.2995801 -0.38260806 0.24393828
-0.13558967 0.39173415 -0.048348308 0.22815369 0.2350263 -0.005526094 0.040975396 -0.17516966
00000000: 8ca3 283e 57ed 2e3e 5ca0 973d a2c8 113f
00000010: 94ca 3bbd 9e75 023e 97a5 bf3b 6169 053e
00000020: 02f3 2a3d 13f5 583d aacc 1dbd d73e c43e
00000030: 70d8 743e 6a01 0abe e142 f8bd d4aa 863e
00000040: 3f9c c039 5556 2ebe cae1 fcbd e6ea 8dbd
00000050: 2418 0c3e 69f2 81be 25c5 ccbe d4f2 abbe
00000060: b2ab f13d 67ef c0be 90c9 583e e88c cd3c
00000070: de7c c83d 9377 97bd e11b 013e e038 d43c
00000080: d289 b9be 81ea 233c 8fb6 53be aa46 6d3e
00000090: 9f0f 5c3e 1ea1 d9be dc8c c6be c6c7 3f3e
000000a0: 624e 78be c97b 8c3e cc7d 08bd 5023 df3c
000000b0: a4ea 573f 3547 243f 57ac 7c3e 7a2f 613d
000000c0: 050a aa3b c2e1 843e fcf8 d03f 47e1 b8be
000000d0: ce56 c0be acac 263e 98e7 00bd 8c2b e93d
000000e0: a6e6 a73e ae7e 933d b4fb 773e ba4f 6d3e
000000f0: d863 053f 2819 d23e af70 5b3e cc56 3b3e
00000100: fc11 803e 00c0 c8be ea16 ba3e 17aa 7ebe
00000110: d188 17be 6760 b5bb 115a 0f3e 3a20 31be
00000120: e8ba 9ebd 7211 a7bd 60e9 e83e 4935 853e
00000130: 9a8a e53d 4572 743d 9df3 953d a1ba 40be
00000140: fb71 5bbe 8650 1a3e a4ac 5d3e d8d7 4a3e
00000150: 3a9b 31be 8737 ac3c facc 70be 2342 31be
00000160: d245 aa3d 25c3 34be db4b 81be 61ec 833e
00000170: 29de 7e3e 225d 3f3e 7db6 25be 0fa2 f2bd
00000180: c876 60be f465 02be 2103 f3bd bccb 72bf
00000190: 20c0 a9be b432 5abb 6bd1 de3d 857a eabe
000001a0: ea14 4a3e e894 063e b706 b13e 2402 213d
000001b0: d6e0 d3be 4c23 933d 0035 763f 8d4a 2abe
000001c0: db6f 7cbd a8e7 d03e cdd3 e6be a48e 353e
000001d0: f023 e1be efe4 21be df97 233e 37f3 fc3e
000001e0: 6a6e 8f3e 3ebe 5c3e f82f 353e d227 573e
000001f0: 9910 08bf 7501 a9bc d2fe 263e d8e0 c3bd
00000200: 4d6e 533e c156 ec3d eaa6 b33e a360 983f
00000210: 4364 923c 41de 6d3e f1cd 46bd 15fb d13d
00000220: 3c2e adbe efc2 2e3b 0eee 363e 02ea b1bd
00000230: a1d3 ee3e 9c90 123f 9670 45be de4a 92bb
00000240: 13b4 1b3f cfc3 203f 0f2d ca3f d720 6bbe
00000250: bbc8 01bd 22e8 4b3d 413b d5be 3586 a33e
00000260: daf2 9d3c 7da0 0ebe e643 2b3e 06f9 1ebe
00000270: ac97 d33e 6470 163e cf11 c3be 572c 84be
00000280: f573 d7bd bd21 1e3d 667e 83be 51bf 743e
00000290: 108f 92bd a407 023c 12a3 7d3d ad97 8f3e
000002a0: 94dc b3be 0bf4 21bd f176 93be c0b8 23be
000002b0: ee55 a23e 4b28 a63e 459e 7cbe 0d49 91bd
000002c0: 8622 6d3e ebc1 8a3e f6ba 863f 4b74 04be
000002d0: 5a39 6cbe 4d4f 5cbe e90f 50bd 33fc 20be
000002e0: 78a9 753e 1802 083e 0b00 0a3e c5b1 9abe
000002f0: a6af 163f 9e6e edbd 7229 e53d b673 fabd
00000300: dc62 d43c bed6 8abc cbba aabc 3e39 a93e
00000310: 08e9 1ebe 674f bf3d 7c9a 0c3f 83c4 5ebe
00000320: a684 80be 6bee f6be 6012 ecbe f89d 543e
00000330: 7263 833f 99c0 79bd 302b 9f3e c227 3c3b
00000340: 526c c2be caec d43c 65c2 853f f3c9 3ebf
00000350: 52aa dc3e 97d3 3cbd 1313 aabe c222 a8be
00000360: d3e9 b6be ebd0 a0be 80b8 2a3d dc6f f13d
00000370: 4fdc 8e3e f1d9 7e3e f077 1cbe b842 353e
00000380: b2e7 92be c2e3 4dbe e546 ef3c aeb1 42be
00000390: 81ed 2b3d 524a b9bc e61c 003f f717 a8bd
000003a0: 4883 21be 051c 86bb a1dd 033f c014 713e
000003b0: 5670 823e ec93 edbe 0d9d f0be 25cd c7bd
000003c0: 0a28 a7be 8eb9 c23c 270f 243e 0477 1d3f
000003d0: beb6 0c3c 9062 993e 34e5 c3be f5ca 793e
000003e0: 05d8 0abe 6191 c83e e008 46bd 1fa1 693e
000003f0: bcaa 703e 3d14 b5bb d1d5 273d ad5f 33be

convs.3.att_src f4 [1, 2, 16]
0.8630764 0.4712551 -0.23648748 1.1769116 -0.09287641 -0.18033682 -0.31350416 0.5597106
-0.16071488 -0.34260166 -1.2136171 -0.892613 -0.21256863 -0.25565487 0.07388374 -0.3043192
0.11848292 -0.06273333 0.23565267 0.09544315 -0.21681705 0.69781613 -1.1723666 0.14844692
-0.25927165 0.7309657 0.19482367 0.551808 -0.69063616 -0.0674499 1.217932 -0.21721104
00000000: 93f2 5c3f 5948 f13e c629 72be 0aa5 963f
00000010: fd35 bebd 37aa 38be 9e83 a0be 3249 0f3f
00000020: 7192 24be 7c69 afbe ce57 9bbf 4982 64bf
00000030: 97ab 59be 32e5 82be 5c50 973d bacf 9bbe
00000040: 2ca7 f23d 557a 80bd ef4e 713e b377 c33d
00000050: 4a05 5ebe 14a4 323f 1c10 96bf 7802 183e
00000060: 41bf 84be 9120 3b3f db7f 473e 4a43 0d3f
00000070: 88cd 30bf 2c23 8abd 32e5 9b3f 926c 5ebe

convs.3.att_dst f4 [1, 2, 16]
-0.63469374 -0.5844876 0.52091974 -0.81678545 -0.2919705 1.0194638 0.6126119 -0.50966144
-0.0058454596 -0.038762197 0.9331603 1.1443588 -0.17904948 0.26436898 -0.40797654 0.4431648
0.26238587 -0.14648381 -0.6422042 0.025123471 1.0310963 -0.108426884 0.4099483 -0.6648831
-0.5048665 -1.0836147 0.3080063 -0.9463941 1.289077 1.596992 -0.89948153 1.7638872
00000000: 4a7b 22bf fba0 15bf ff5a 053f da18 51bf
00000010: 287d 95be ca7d 823f 22d4 1c3f 2c79 02bf
00000020: 458b bfbb 1cc5 1ebd 98e3 6e3f 597a 923f
00000030: bf58 37be 5f5b 873e 4de2 d0be 7fe6 e23e
00000040: 7157 863e daff 15be 7f67 24bf bdcf cd3c
00000050: f7fa 833f ea0e debd bee4 d13e c735 2abf
00000060: ee3e 01bf e3b3 8abf 00b3 9d3e e246 72bf
00000070: 7a00 a53f 3c6a cc3f 6c44 66bf 0ec7 e13f

convs.3.bias f4 [32]
0.03441191 -0.057793833 -0.090977505 -0.094119966 0.031513933 0.106018096 0.018047912 -0.054761164
0.0049667787 -0.0075236536 -0.039166525 0.07640025 -0.048541956 0.034140967 0.06795519 -0.03651425
-0.02943278 -0.047783837 0.0022587602 0.03035616 -0.046808094 -0.014261747 -0.07952208 0.049866218
0.027430365 -0.06488329 -0.0047254264 -0.076625794 0.06756204 -0.0926969 -0.036012884 0.046285868
00000000: 81f3 0c3d 3ab9 6cbd 6a52 babd f8c1 c0bd
00000010: c114 013d 0420 d93d 37d9 933c 3e4d 60bd
00000020: 5cc0 a23b fb88 f6bb 146d 20bd bc77 9c3d
00000030: eed3 46bd 66d7 0b3d 172c 8b3d f78f 15bd
00000040: 031d f1bc fcb8 43bd b507 143b 7bad f83c
00000050: d8b9 3fbd 1aaa 69bc 79dc a2bd 8540 4c3d
00000060: a5b5 e03c 88e1 84bd c0d7 9abb fced 9cbd
00000070: f85d 8a3d dfd7 bdbd 3f82 13bd 4096 3d3d

convs.3.lin.weight f4 [32, 32]
0.0049601095 0.0114323255 -0.05290762 -0.09790466 0.23075886 0.14215572 -0.2175682 0.30860126
-0.13585243 -0.19604066 0.28518683 0.017770035 -0.48988315 0.018673994 0.13335833 0.14829223
0.0007919172 -0.19685684 -0.1617366 -0.2951116 0.5689544 0.30309516 0.29547897 0.043514214
0.1521479 0.058603648 -0.24224937 -0.007970141 -0.034395315 0.081828736 -0.14454594 0.42072046
0.08425973 0.8779593 0.09145514 -0.83913666 1.0250188 0.9759851 0.8400459 -0.4962723
-0.26758462 -0.093524985 0.23629692 0.1423312 1.5115163 0.47828147 -0.35475624 -0.002305708
-0.05626952 0.34590068 0.0016990742 0.3912926 0.15825075 -0.019244304 0.6677306 0.24301162
0.20528741 0.23894192 -0.6112469 0.0829047 -0.21302237 -0.06837044 0.0065742843 -0.26618102
-0.1557626 0.53231543 -0.380594 0.10357598 -0.06037252 0.6686539 0.3812618 -0.4984668
-0.005016935 0.46504682 0.09880015 0.58450115 0.5111365 -0.2900726 0.21226873 -0.44138214
-0.2919975 -0.116260126 -0.51368475 -0.327765 -0.7637248 0.1919169 0.10674809 -0.24807645
-0.15381204 0.092581995 -0.5776973 0.39056104 0.19962224 -0.1256586 0.08557731 -1.5220443
-0.08231139 0.3822841 0.25197348 -0.01929866 0.33892155 0.13240322 0.13108428 -0.17611589
-0.08605945 0.22536421 0.23660754 -0.2940438 -0.32425365 0.42415345 0.05785549 -0.07100408
-0.10780228 0.36202025 0.08799578 -0.018603895 0.41984892 -0.12781851 0.6082259 -0.23384534
-0.22537029 0.27171504 -0.07205929 0.3012206 -0.14775516 -0.021163762 0.0016126574 0.6284086
0.3766946 -1.3335066 0.078326955 0.76579994 -0.55921763 -0.58957165 -0.69423926 0.0011304293
-0.18400042 -0.20493962 -0.18999204 -0.34759694 -1.0129862 -0.35068923 0.000433249 -0.20185539
0.71258205 -0.18177417 -0.04023653 0.34171146 0.1272649 0.11082499 -0.44427058 -0.39464757
-0.18593793 -0.19265626 0.8824344 -0.2632517 -0.8291943 0.14452243 0.037783187 1.518128
0.080312386 -0.2828302 0.217761 0.43106422 0.17803375 -0.3825391 -0.039056316 0.52661604
-0.13272764 0.19631864 0.53516966 -0.06879134 -0.2731005 -0.034335624 0.10582426 -0.34656483
0.25505146 -0.3041717 -0.16946031 0.039898783 -0.2963997 0.2758594 -0.16289727 -0.24014655
-0.40638405 -0.0033068806 -0.3591231 0.081586935 -0.2496146 0.32776156 0.2594935 -0.64380276
-0.23877709 0.14883676 0.20709288 -0.29041833 -0.16749752 -0.27308357 -0.049181208 0.23515035
0.0045202523 0.09450958 -0.070846684 0.08485008 -0.20776829 -0.18058544 -0.30442205 -0.2602939
0.14450675 0.08968481 -0.17296061 0.08715562 -0.008047183 -0.038401235 0.10832009 -0.11133533
0.15535876 0.14872171 0.18605524 0.012367897 0.20498477 0.10100419 0.25847438 0.04177322
0.22733767 0.2880784 -0.08222792 0.14148845 0.09474552 -0.26597488 0.16089547 0.10803453
-0.07602543 0.21806401 0.24110149 -0.2047872 -0.5651852 0.3981689 0.047349636 0.13411397
-0.4080426 0.3211822 -0.102955975 0.28359625 0.46269146 -0.095032774 0.2643216 -0.20179662
0.119891845 -0.22073425 0.24203978 0.34296793 -0.17548408 -0.062980205 0.08924131 0.5359493
00000000: 6a88 a23b a64e 3b3c a9b5 58bd 3d82 c8bd
00000010: 0d4c 6c3e 4591 113e 33ca 5ebe fc00 9e3e
00000020: e61c 0bbe e2be 48be 0204 923e 7792 913c
00000030: f7d1 fabe 34fa 983c 168f 083e ebd9 173e
00000040: aa98 4f3a d794 49be 479e 25be de18 97be
00000050: ffa6 113f 4a2f 9b3e 0549 973e f63b 323d
00000060: a9cc 1b3e 610a 703d 3810 78be 3295 02bc
00000070: 1ae2 0cbd d395 a73d da03 14be ac68 d73e
00000080: 5e90 ac3d f1c1 603f d54c bb3d a9d1 56bf
00000090: d133 833f 29da 793f 400d 573f 6717 febe
000000a0: da00 89be 078a bfbd d2f7 713e 45bf 113e
000000b0: 5e79 c13f 4fe1 f43e 9ca2 b5be 5c1b 17bb
000000c0: de7a 66bd e519 b13e 78b3 de3a 8157 c83e
000000d0: 7c0c 223e 3ba6 9dbc 65f0 2a3f 0ad8 783e
000000e0: dd36 523e 31ad 743e ad7a 1cbf f0c9 a93d
000000f0: 8922 5abe cd05 8cbd 186d d73b e148 88be
00000100: 3b80 1fbe d345 083f 37dd c2be a51f d43d
00000110: 2d49 77bd e72c 2b3f bf34 c33e 0a37 ffbe
00000120: 1a65 a4bb 9e1a ee3e bc57 ca3d dea1 153f
00000130: d7d9 023f 6584 94be f95c 593e d7fc e1be
00000140: b280 95be ca19 eebd d880 03bf d0d0 a7be
00000150: 7883 43bf dd85 443e be9e da3d c107 7ebe
00000160: e780 1dbe a19b bd3d f8e3 13bf 9ef7 c73e
00000170: c669 4c3e a6ac 00be 2843 af3d 59d2 c2bf
00000180: e092 a8bd beba c33e ab02 813e 3918 9ebc
00000190: 2087 ad3e b694 073e f53a 063e b957 34be
000001a0: f03f b0bd e0c5 663e 3f49 723e e98c 96be
000001b0: 9304 a6be a42a d93e e1f9 6c3d 966a 91bd
000001c0: 71c7 dcbd b85a b93e 2237 b43d 3267 98bc
000001d0: 70f6 d63e dbe2 02be b1b4 1b3f 2775 6fbe
000001e0: 78c7 66be 3c1e 8b3e d293 93bd 9639 9a3e
000001f0: 214d 17be a05f adbc ce5f d33a 63df 203f
00000200: 1dde c03e 58b0 aabf e269 a03d 770b 443f
00000210: e328 0fbf 2bee 16bf aab9 31bf ea2a 943a
00000220: 9b6a 3cbe b1db 51be 468d 42be 3af8 b1be
00000230: 88a9 81bf 8a8d b3be b225 e339 2eb3 4ebe
00000240: c76b 363f 0223 3abe 0fcf 24bd cef4 ae3e
00000250: bb51 023e 36f8 e23d 6f77 e3be 3f0f cabe
00000260: 8366 3ebe af47 45be 39e7 613f edc8 86be
00000270: 1446 54bf b0fd 133e 8bc2 1a3d 0552 c23f
00000280: d27a a43d 1fcf 90be bdfc 5e3e 73b4 dc3e
00000290: 7b4e 363e 2adc c3be 84f9 1fbd 4fd0 063f
000002a0: c1e9 07be c107 493e e100 093f 79e2 8cbd
000002b0: d4d3 8bbe 83a3 0cbd 64ba d83d f270 b1be
000002c0: 1b96 823e 65bc 9bbe 0187 2dbe e86c 233d
000002d0: b4c1 97be 713d 8d3e 8bce 26be fae8 75be
000002e0: 9211 d0be 40b8 58bb fcde b7be 0d17 a73d
000002f0: f89a 7fbe 5dd0 a73e 55dc 843e 42d0 24bf
00000300: fb81 74be aa68 183e 2810 543e b6b1 94be
00000310: 7884 2bbe 9cd1 8bbe 3c72 49bd 41cb 703e
00000320: a01e 943b 3d8e c13d 1118 91bd e1c5 ad3d
00000330: 36c1 54be 64eb 38be 35dd 9bbe 3e45 85be
00000340: 94f9 133e abac b73d 961c 31be a57e b23d
00000350: 55d8 03bc 9d4a 1dbd ecd6 dd3d c703 e4bd
00000360: 5e16 1f3e 814a 183e 4485 3e3e b8a2 4a3c
00000370: 87e7 513e 49db ce3d c156 843e 651a 2b3d
00000380: 35cb 683e 037f 933e 1d67 a8bd 59e2 103e
00000390: f009 c23d dc2d 88be c8c1 243e 3541 dd3d
000003a0: 38b3 9bbd 2c4c 5f3e 4fe3 763e bcb3 51be
000003b0: faaf 10bf cbdc cb3e b1f1 413d 2c55 093e
000003c0: f6ea d0be fe71 a43e 95da d2bd 8733 913e
000003d0: e5e5 ec3e 8ba0 c2bd 2955 873e c6a3 4ebe
000003e0: db89 f53d 2908 62be 47d9 773e 7e99 af3e
000003f0: 19b2 33be c4fb 80bd 26c4 b63d f933 093f

convs.4.att_src f4 [1, 2, 1]
-1.0308096 0.20661673
00000000: 92f1 83bf 5693 533e

convs.4.att_dst f4 [1, 2, 1]
1.1577518 -0.6513649
00000000: 3631 943f dabf 26bf

convs.4.lin.weight f4 [2, 32]
0.23139006 -1.3351679 -0.8435236 0.12485538 1.6317077 0.48350382 0.3679168 0.35474342
0.0015992125 1.0230819 -0.88662606 -0.2318351 0.28589135 0.68505144 -0.9260947 -0.6435982
-0.13577968 -0.77642614 0.018981412 -0.5561616 0.18195808 -0.24066262 0.86560005 1.0843395
-0.035087574 -0.9027547 1.6520718 -0.6171803 -0.9944627 0.56418896 0.25181684 0.8884702
0.16307376 -0.213085 -0.7966757 0.046967644 1.0360562 -0.2861043 -0.45831484 0.3606654
0.33914354 0.16345032 0.009803384 -0.06776364 0.008846689 0.26826668 -0.40371242 -0.6342064
0.3218628 -1.1049033 -0.51310694 0.40818265 -0.54495144 0.23731016 0.50210327 0.4076995
-0.023462478 0.21007435 0.52400875 -0.16657673 -0.5268706 0.5601692 0.3930953 0.16816282
00000000: 84f1 6c3e c8e6 aabf 2af1 57bf 2db4 ff3d
00000010: ccdb d03f d08d f73e 975f bc3e eea0 b53e
00000020: ab9c d13a 59f4 823f edf9 62bf 2e66 6dbe
00000030: 5a60 923e 885f 2f3f 8b14 6dbf dac2 24bf
00000040: d409 0bbe ddc3 46bf e87e 9b3c 9b60 0ebf
00000050: 3853 3a3e 4370 76be f797 5d3f a3cb 8a3f
00000060: fdb7 0fbd ef1a 67bf 1777 d33f 87ff 1dbf
00000070: 1c95 7ebf b06e 103f 23ee 803e c872 633f
00000080: cffc 263e f432 5abe f0f2 4bbf 2561 403d
00000090: 7d9d 843f 437c 92be 3ea8 eabe 23a9 b83e
000000a0: 39a4 ad3e 855f 273e 5f9e 203c aac7 8abd
000000b0: b4f1 103c 405a 893e 65b3 cebe 5a5b 22bf
000000c0: 33cb a43e 796d 8dbf fa5a 03bf 51fd d03e
000000d0: f081 0bbf 6f01 733e d789 003f fdbd d03e
000000e0: 6234 c0bc bb1d 573e 7025 063f 1793 2abe
000000f0: fee0 06bf 4067 0f3f ca43 c93e e032 2c3e

lins.0.weight f4 [32, 9]
-0.9563448 -0.48742247 0.45825356 -0.44484472 0.2127776 0.51805174 0.17655125 0.053160325
-0.7894721 -0.05698547 0.18534899 0.03662466 -0.06342867 -0.20627685 0.054396007 0.013888889
0.24900787 -0.038228232 -0.26183558 -0.94651026 0.586428 -0.31204635 0.67918265 0.30604658
-0.13732313 0.10330563 -2.131748 0.49681127 0.6811513 -1.1490405 0.19456872 -0.3846941
0.20612818 -0.3253099 -0.055604935 0.6928464 -0.48542237 0.051300175 -0.0044985143 -0.19218415
0.08199048 0.45481893 -0.14827 -0.6141555 -0.5880467 -0.08591668 0.14552136 0.05633559
0.41359994 0.05383759 0.24771708 0.3205323 0.13040541 0.5085348 0.03921705 0.06822656
1.1746975 -0.18145603 -0.41814792 0.4191155 -0.32538003 0.17661835 -0.4969555 -0.16111208
-0.27490586 -0.1623621 0.08626824 -0.37203193 -1.1821055 0.15243289 0.16014962 2.5226896
0.2294171 0.4284145 0.3047802 -0.023926245 0.09636991 0.2933891 0.2056622 -0.00400028
-0.2369732 -0.24409041 -0.3627332 0.109275475 0.18116088 0.2085224 0.2750154 0.034274556
0.20019536 -1.6964902 0.023369476 0.09200787 -0.21493706 0.1857186 0.37179184 -0.01636134
-0.10367997 0.15693717 -0.031786885 -0.16054234 -0.06487707 0.33018816 0.35088512 0.0034060923
0.26172322 0.38451147 0.17553489 0.1867558 -0.18644848 0.23781133 -2.2769022 0.28182766
0.01677909 -0.11912368 0.47969544 0.037085254 1.2058533 0.60975826 1.3315539 -0.009527373
-0.48850942 -0.06866152 1.2499751 -0.6129457 0.20681213 -0.36633816 0.35912547 0.56941915
0.4326674 0.040448204 0.035715934 0.64470667 0.32754177 0.13831735 -0.21945117 -0.40578136
0.19629452 0.41604415 -0.13213421 0.026609456 0.8579291 -0.01294253 0.09368223 -0.7522873
-0.6941725 -0.6329255 -0.21176495 -0.06255336 -0.39780605 -0.44406694 -0.49361745 -0.6533259
-0.42204735 0.59864867 0.65178174 -0.23769793 -0.5247528 0.16591395 0.210816 0.42297706
0.031916387 -0.19329283 0.38857916 0.66168594 -0.16399275 0.6536352 0.38387853 0.13897868
0.07967784 0.52645653 0.026719183 0.38431087 0.3360208 -1.0819172 0.5672944 -0.23117565
-0.44593042 0.092663355 -0.11460797 1.3911523 0.35182974 0.38428938 -0.05700414 0.2856618
0.08404819 0.4615732 0.2994142 0.41267318 0.4723696 0.4403733 0.031582125 -0.0513416
-0.18322474 0.22135423 0.07385325 0.3984808 0.58605987 -0.025808532 0.098954365 0.340027
-0.48719484 -0.014342567 0.299488 0.6567986 -0.046032973 -0.078453906 1.4172508 0.25431293
-0.14640938 -0.20633613 0.14168788 0.088430986 -0.06523893 -0.1683242 -0.4689968 -1.270899
-0.5032626 0.20918116 -1.3086433 2.8874245 -1.3144047 -0.23467016 0.14868452 -0.48843494
0.8236228 -0.13208388 -0.30430186 0.21538903 0.05563713 0.43183437 1.4695851 -0.09754273
-0.03926742 0.02596794 0.027515717 0.20192713 -0.30000746 0.12452659 -0.10825747 -0.0017132981
0.06320034 0.13228343 1.0914639 -0.076390624 -0.08203045 0.020990022 -0.22762854 -0.4437139
-0.0038353852 -0.21891508 0.16034564 -0.032307092 -0.1428854 3.119457e-05 -0.3089321 0.05153845
00000000: 03d3 74bf 708f f9be 36a0 ea3e b0c2 e3be
00000010: 5fe2 593e 0a9f 043f dac9 343e a4be 593d
00000020: d81a 4abf 9969 69bd 20cc 3d3e bd03 163d
00000030: e4e6 81bd 3d3a 53be 59ce 5e3d 398e 633c
00000040: ebfb 7e3e 3595 1cbd 500f 86be 7f4e 72bf
00000050: 2520 163f 8ac4 9fbe eade 2d3f 23b2 9c3e
00000060: 6f9e 0cbe e791 d33d 8f6e 08c0 0c5e fe3e
00000070: ee5f 2e3f c213 93bf 063d 473e a0f6 c4be
00000080: 4413 533e 058f a6be 00c2 63bd 625e 313f
00000090: 4889 f8be 2220 523d 4668 93bb eccb 44be
000000a0: a0ea a73d 07de e83e 17d4 17be 4b39 1dbf
000000b0: 3b8a 16bf 16f5 afbd 8d03 153e 26c0 663d
000000c0: 5fc3 d33e ce84 5c3d 8ca9 7d3e cf1c a43e
000000d0: ff88 053e 562f 023f 0fa2 203d 5eba 8b3d
000000e0: 7d5c 963f 9ccf 39be 7c17 d6be 4f96 d63e
000000f0: 3698 a6be 71db 343e f470 febe 91fa 24be
00000100: 76c0 8cbe 4042 26be 67ad b03d f87a bebe
00000110: 3c4f 97bf 5e17 1c3e 43fe 233e bf73 2140
00000120: 51ec 6a3e 2559 db3e 260c 9c3e f900 c4bc
00000130: 965d c53d 1937 963e 1d99 523e c814 83bb
00000140: 1aa9 72be d6f2 79be 2ab8 b9be d2cb df3d
00000150: 3d82 393e e586 553e d2ce 8c3e 7a63 0c3d
00000160: 0300 4d3e 9726 d9bf 5871 bf3c 9f6e bc3d
00000170: 7618 5cbe 042d 3e3e 805b be3e 3808 86bc
00000180: 2a56 d4bd 23b4 203e f732 02bd 3665 24be
00000190: 45de 84bd 6c0e a93e 37a7 b33e bf38 5f3b
000001a0: 9600 863e b0de c43e 6bbf 333e ea3c 3f3e
000001b0: 5aec 3ebe d084 733e c4b8 11c0 b74b 903e
000001c0: 4d74 893c 1ef7 f3bd a49a f53e b5e6 173d
000001d0: 6759 9a3f 1e19 1c3f 5c70 aa3f b318 1cbc
000001e0: e81d fabe 699e 8cbd 2fff 9f3f 02ea 1cbf
000001f0: 8fc6 533e ad90 bbbe 4bdf b73e 74c5 113f
00000200: 9586 dd3e 04ad 253d df4a 123d 7f0b 253f
00000210: 8eb3 a73e 10a3 0d3e cfb7 60be 93c2 cfbe
00000220: 6e01 493e bd03 d53e 314e 07be 13fc d93c
00000230: 3ea1 5b3f e80c 54bc 78dc bf3d e795 40bf
00000240: 4ab5 31bf 6807 22bf e9d8 58be fa1b 80bd
00000250: 3cad cbbe be5c e3be 6dbb fcbe 5e40 27bf
00000260: 9716 d8be 0a41 193f 2bdb 263f 1667 73be
00000270: 3356 06bf 59e5 293e 26e0 573e 7390 d83e
00000280: c2ba 023d 8eee 45be d9f3 c63e 4064 293f
00000290: b7ed 27be a354 273f ba8b c43e 6d50 0e3e
000002a0: 232e a33d dbc5 063f 30e2 da3c 65c4 c43e
000002b0: eb0a ac3e 437c 8abf 353a 113f 4fb9 6cbe
000002c0: fe50 e4be 49c6 bd3d 95b7 eabd 4711 b23f
000002d0: 0723 b43e 94c1 c43e 2c7d 69bd 4342 923e
000002e0: 7521 ac3d 5353 ec3e d14c 993e e649 d33e
000002f0: 6eda f13e 9c78 e13e 425c 013d 924b 52bd
00000300: 449f 3bbe afaa 623e 5f40 973d ad05 cc3e
00000310: 0508 163f 6a6c d3bc 96a8 ca3d 0518 ae3e
00000320: 9a71 f9be 16fd 6abc 7e56 993e f423 283f
00000330: 128d 3cbd 71ac a0bd 7968 b53f 4e35 823e
00000340: 57ec 15be c749 53be a116 113e 4e1b b53d
00000350: fd9b 85bd 2e5d 2cbe 5920 f0be d2ac a2bf
00000360: d1d5 00bf 9633 563e a081 a7bf 90cb 3840
00000370: 6a3e a8bf 604d 70be c140 183e 2514 fabe
00000380: f2d8 523f ff40 07be 74cd 9bbe f18e 5c3e
00000390: c2e3 633d 6519 dd3e 5d1b bc3f 7cc4 c7bd
000003a0: e0d6 20bd b8ba d43c a468 e13c fcc5 4e3e
000003b0: 949a 99be cc07 ff3d 18b6 ddbd bf90 e0ba
000003c0: 2e6f 813d 4f75 073e 17b5 8b3f b072 9cbd
000003d0: 95ff a7bd 44f3 ab3c 7517 69be 782e e3be
000003e0: 165b 7bbb 462b 60be a631 243e 7154 04bd
000003f0: 8d50 12be ead6 0238 592c 9ebe fb19 533d

lins.0.bias f4 [32]
0.9098409 -0.08292473 0.24679098 -0.19492756 0.69672996 0.37228093 0.35416228 -0.53278583
-0.056101978 0.51122737 -0.18966608 0.32196027 0.06218687 0.29400712 -0.07411837 0.8289892
-0.64909106 0.15626842 0.14406998 -0.050202582 0.07865448 0.25541896 0.0774332 -0.083148845
1.0494168 -0.4520705 -0.41383556 0.21734871 0.13160089 -0.56816596 0.48286903 -0.68052673
00000000: 55eb 683f 71d4 a9bd c6b6 7c3e 179b 47be
00000010: e55c 323f 9b9b be3e c254 b53e a764 08bf
00000020: 30cb 65bd ccdf 023f d337 42be fad7 a43e
00000030: a9b7 7e3d 1a88 963e 5fcb 97bd a338 543f
00000040: d52a 26bf d404 203e 1587 133e 39a1 4dbd
00000050: 9a15 a13d 46c6 823e 4c95 9e3d f149 aabd
00000060: 4a53 863f c975 e7be 41e2 d3be a990 5e3e
00000070: 62c2 063e 5373 11bf 9c3a f73e 0037 2ebf

lins.1.weight f4 [32, 32]
-0.01744326 -0.013747202 -0.45537794 0.49854246 0.18052632 0.17044239 -0.027080921 0.0150756445
-0.06775904 -0.33203155 0.10312433 -0.07154933 0.4922775 0.4002513 -0.08412109 -0.027790956
-0.1525453 0.04496253 0.1947992 0.71513367 0.03018756 0.06845143 0.4979246 0.5031995
-0.04264231 -0.26929414 -0.4281173 -0.09673637 0.13430111 0.055530414 0.039158635 -0.09153874
-0.22894454 -0.10067287 -0.26026213 0.40790054 -0.0025510099 0.1256293 0.013274373 0.03299309
0.24820127 -0.20833798 0.10942678 -0.0867492 0.71014845 0.24969095 -0.019934457 -0.041930858
0.0484517 -0.0601416 0.15104204 -0.09307315 0.09143464 0.1627032 -0.1582548 -0.31100902
0.026778266 -0.08659082 0.23156042 -0.16767626 -0.23970886 0.07308878 0.10940417 -0.011330165
0.2961004 -0.013775786 -0.1205928 0.19066228 -0.011623407 0.0047685346 0.26542455 0.057797574
-0.012827458 0.07560583 -0.018219486 -0.2937921 -0.058795482 -0.09537814 -0.16541173 0.20258662
0.19952641 -0.0771495 -0.20806919 -0.12892579 -0.21051474 -0.007862897 0.13612428 0.13446295
0.06354019 0.24285191 0.085464686 0.13121635 0.16941006 0.09520241 -0.18531781 0.1214753
-0.06847501 -0.022434153 0.11370847 0.05598868 -0.11174677 -0.16002877 0.068332165 -0.2708127
-0.14980072 -0.14139856 0.08640014 0.17930247 0.19603191 -0.0025950104 0.08786437 0.01884625
-0.10072695 -0.07671723 -0.12929949 -0.47571784 -0.08642972 -0.08664333 -0.021277163 0.1541435
0.02484014 0.03266131 0.13827425 -0.09345622 0.2099727 0.05027016 -0.012990731 -0.07204187
-0.0021664887 -0.053806152 -0.3087087 -0.109332874 0.017415958 0.11091467 0.08292464 0.110951886
-0.21128714 -0.12494687 0.103569955 0.0034090264 0.08792286 -0.11748636 -0.16219333 0.15685892
0.07248083 0.07554193 -0.06061742 0.24988002 0.030840361 -0.03117746 0.38982087 -0.43786734
0.08293292 0.20394257 -0.05987875 0.013363782 0.14002857 -0.64753836 -0.121700786 -0.1005189
0.23096256 -0.22268438 0.29071906 -0.062474955 0.07908787 0.07207608 0.29235122 0.33075327
-0.02782407 0.72644585 0.1252369 -0.04785546 0.0066085737 -0.05922046 -0.100234166 0.11103711
0.07753061 0.157363 0.10093435 -0.7715228 0.14886124 0.08170544 -0.34637332 0.007336077
-0.14948404 0.03492037 -0.2813058 0.06321412 0.25580493 -0.35533905 0.14797515 -0.047368284
-0.0894331 -0.09774565 0.2338297 -0.15811099 -0.055670403 0.048641652 0.17122498 -0.21843441
0.033516612 0.18426043 0.11408488 -0.21777008 0.14648639 0.088193096 -0.0113101015 0.21524966
-0.07210073 0.105823256 0.033348866 -0.4154357 -0.20421655 0.11200234 -0.13512261 0.39153162
-0.11791935 -0.13154882 -0.20128189 0.08880105 0.33646643 0.8495456 0.060382217 -0.41870326
0.0690998 -0.048014913 -0.18627737 -0.041351907 -0.1691969 -0.096740454 0.08150421 -0.015195422
0.05854796 -0.29496673 0.09426896 -0.15382175 0.105423555 -0.019666022 -0.061254956 -0.3495923
-0.20101202 0.22154342 -0.088689186 -0.25728455 0.20337145 0.028941588 0.031126041 0.1195039
0.057232812 -0.06680204 -0.5769229 0.12150733 0.44487223 -0.18936808 0.057396147 -0.09814787
00000000: 2be5 8ebc f23b 61bc 4c27 e9be f540 ff3e
00000010: e4db 383e 7388 2e3e cfd8 ddbc d6ff 763c
00000020: 40c5 8abd 0a00 aabe d932 d33d 7588 92bd
00000030: cc0b fc3e bded cc3e ae47 acbd dca9 e3bc
00000040: d634 1cbe a12a 383d 7179 473e 0013 373f
00000050: e74b f73c 4330 8c3d f9ef fe3e afd1 003f
00000060: b4a9 2ebd ece0 89be 3132 dbbe b81d c6bd
00000070: 3b86 093e dc73 633d ce64 203d aa78 bbbd
00000080: 7070 6abe 942d cebd 1441 85be 57d8 d03e
00000090: d82e 27bb f8a4 003e c17c 593c c323 073d
000000a0: 7928 7e3e 8d56 55be 261b e03d 91a9 b1bd
000000b0: 4acc 353f fcae 7f3e 964d a3bc b1bf 2bbd
000000c0: 4a75 463d 0a57 76bd c4aa 1a3e 239d bebd
000000d0: 1642 bb3d ab9b 263e 8c0d 22be 933c 9fbe
000000e0: 185e db3c 8756 b1bd 2d1e 6d3e 53b3 2bbe
000000f0: 3d76 75be 92af 953d 4b0f e03d 28a2 39bc
00000100: 799a 973e d6b3 61bc 5cf9 f6bd f93c 433e
00000110: 1a70 3ebc 5e41 9c3b bae5 873e 26bd 6c3d
00000120: 422a 52bc 3bd7 9a3d 0841 95bc eb6b 96be
00000130: 88d3 70bd 9d55 c3bd b161 29be de72 4f3e
00000140: a750 4c3e 8f00 9ebd 1710 55be 1f05 04be
00000150: 2d91 57be 61d3 00bc 2a64 0b3e a8b0 093e
00000160: 5c21 823d 2cae 783e 1c08 af3d 945d 063e
00000170: d579 2d3e 7bf9 c23d f4c3 3dbe 0bc8 f83d
00000180: a03c 8cbd d4c7 b7bc fcdf e83d 6354 653d
00000190: 7edb e4bd 95de 23be bcf1 8b3d f6a7 8abe
000001a0: 5c65 19be c9ca 10be 8ef2 b03d 119b 373e
000001b0: 97bc 483e 0d11 2abb 3cf2 b33d 7363 9a3c
000001c0: ee49 cebd ec1d 9dbd 1667 04be 4a91 f3be
000001d0: 1102 b1bd 0f72 b1bd 724d aebc cbd7 1d3e
000001e0: 8d7d cb3c dec7 053d c497 0d3e fa65 bfbd
000001f0: 1503 573e 15e8 4d3d 13d7 54bc b08a 93bd
00000200: a6fb 0dbb d763 5cbd 110f 9ebe eae9 dfbd
00000210: e9ab 8e3c 3b27 e33d 65d4 a93d be3a e33d
00000220: a85b 58be 25e4 ffbd 7c1c d43d f969 5f3b
00000230: e710 b43d b09c f0bd 0216 26be a09f 203e
00000240: d470 943d bab5 9a3d f949 78bd 8ce0 7f3e
00000250: eda4 fc3c df67 ffbc 9a96 c73e 2630 e0be
00000260: bcd8 a93d 52d6 503e 6c43 75bd c4f3 5a3c
00000270: a663 0f3e 13c5 25bf 433e f9bd dadc cdbd
00000280: 7381 6c3e 6007 64be 21d9 943e bde5 7fbd
00000290: d2f8 a13d a09c 933d 0faf 953e 7e58 a93e
000002a0: 4eef e3bc 5bf8 393f 1a3e 003e 1604 44bd
000002b0: bc8c d83b 2791 72bd 9247 cdbd 6d67 e33d
000002c0: 5ec8 9e3d c423 213e abb6 ce3d 8582 45bf
000002d0: 156f 183e 2f55 a73d d857 b1be 7963 f03b
000002e0: 5812 19be a908 0f3d 5007 90be 6876 813d
000002f0: ddf8 823e 00ef b5be cc86 173e 3f05 42bd
00000300: b328 b7bd df2e c8bd 0e71 6f3e d9e7 21be
00000310: a606 64bd 783c 473d 9a55 2f3e 45ad 5fbe
00000320: b748 093d c4ae 3c3e 55a5 e93d 1fff 5ebe
00000330: 8700 163e 959e b43d 014e 39bc 686a 5c3e
00000340: 8ca9 93bd ddb9 d83d d298 083d fdb3 d4be
00000350: 251e 51be 7c61 e53d 955d 0abe d576 c83e
00000360: b37f f1bd bcb4 06be d71c 4ebe 53dd b53d
00000370: 5445 ac3e d27b 593f 5853 773d 4660 d6be
00000380: 3284 8d3d 49ab 44bd 7fbf 3ebe 9e60 29bd
00000390: f441 2dbe dc1f c6bd aeeb a63d 38f6 78bc
000003a0: fccf 6f3d e105 97be 1610 c13d 7383 1dbe
000003b0: 4ee8 d73d a31a a1bc 7ae6 7abd c3fd b2be
000003c0: 18d6 4dbe 47dc 623e ada2 b5bd cdba 83be
000003d0: 9b40 503e e916 ed3c 0afc fe3c 76be f43d
000003e0: f46c 6a3d 82cf 88bd 38b1 13bf d6d8 f83d
000003f0: 4bc6 e33e b5e9 41be 3918 6b3d c001 c9bd

lins.1.bias f4 [32]
-0.044564772 0.08215945 -0.02610517 -0.2039351 0.019930331 -0.050395604 -0.20397268 -0.08476213
0.038334355 0.05559172 -0.051225066 0.03246235 0.08602762 0.08421714 -0.14641361 0.18179548
0.05892097 0.15922756 -0.10264667 -0.12139794 -0.08093838 -0.078121774 0.1699711 0.08909707
-0.19692717 -0.0067767715 -0.06713053 -0.04235866 -0.056417305 -0.15431523 -0.052101344 -0.034193583
00000000: 8d89 36bd 3743 a83d 82da d5bc 5dd4 50be
00000010: ef44 a33c 9f6b 4ebd 37de 50be c597 adbd
00000020: 7c04 1d3d 25b4 633d 60d1 51bd 3ef7 043d
00000030: 402f b03d 097a ac3d 73ed 15be 9828 3a3e
00000040: 1d57 713d 8d0c 233e 6b38 d2bd 7c9f f8bd
00000050: 05c3 a5bd 4ffe 9fbd e70c 2e3e 8678 b63d
00000060: 47a7 49be ae0f debb bb7b 89bd 4680 2dbd
00000070: d515 67bd d004 1ebe 3868 55bd 920e 0cbd
