Models/9quhiglo_best_model.pth (torch, 421716 bytes, 28 tensors)

convs.0.att_src f4 [1, 2, 64]
0	0x3e5544ff	0.20827101
1	0xbda80442	-0.08203937
2	0xbec097e4	-0.37615883
3	0x3ef5a8d7	0.47980377
4	0x3ebc4a7f	0.36775586
5	0xbf07397e	-0.528221
6	0x3efaf9f7	0.49018833
7	0xbe46913f	-0.19391344
8	0x3ee145d4	0.43998587
9	0x3ebd292f	0.36945483
10	0x3e463351	0.19355513
11	0xbd6fff0c	-0.05859284
12	0xbd1a4430	-0.037662685
13	0x3d96a2e8	0.07355291
14	0xbe2f0f79	-0.17095746
15	0x3d884c00	0.06655121
16	0x3bee2e7b	0.0072687245
17	0xbddd0c01	-0.10793305
18	0x3da4bf0b	0.08044251
19	0x3f0a4593	0.5401241
20	0x3f155d6e	0.5834569
21	0xbbbe23e6	-0.0058026193
22	0xbe269677	-0.16268335
23	0x3ed5f8d4	0.41791403
24	0xbe3c234f	-0.18372844
25	0xbe5adbf8	-0.21372974
26	0x3c9d1798	0.01917629
27	0xbe2ce2b4	-0.16883355
28	0x3c89d3e8	0.016824678
29	0x3d3f8285	0.046755332
30	0x3e1b7f98	0.15185392
31	0x3d946271	0.07245339
32	0x3edc8c31	0.43075708
33	0x3eff563d	0.49870482
34	0xbc232591	-0.009957687
35	0xbcdf12fa	-0.027230728
36	0xbd5ba713	-0.05362613
37	0x3dc9de80	0.09856892
38	0x3d8a6233	0.06757011
39	0x3e911745	0.28338066
40	0xbe1c4145	-0.15259273
41	0x3e651388	0.22370732
42	0xbddad240	-0.10684633
43	0xbe9240d5	-0.28565088
44	0xbca65da3	-0.020308321
45	0xbdb11d24	-0.08648136
46	0xbecc1bdf	-0.39865014
47	0xbe8f9a44	-0.28047383
48	0xbe0af721	-0.13570835
49	0xbd7bc38d	-0.06146579
50	0xbcbb27e4	-0.02284617
51	0x3b77578d	0.0037741393
52	0x3f057967	0.5213837
53	0x3f2a5698	0.6653838
54	0xbce0aa11	-0.027424844
55	0x3dbe5a1d	0.092945315
56	0xbd828f92	-0.0637504
57	0xbe076955	-0.13223775
58	0xbed92c4a	-0.42416602
59	0x3e811d09	0.25217465
60	0xbe07095f	-0.13187169
61	0xbe5016da	-0.20321217
62	0xbe2fb515	-0.17158921
63	0x3f16f531	0.5896788
64	0xbd9f4ae1	-0.07777954
65	0x3ee1d012	0.44104058
66	0x3d74ad1c	0.059735402
67	0xbe30cc67	-0.17265473
68	0x3d153bd9	0.03643403
69	0x3be76877	0.0070620137
70	0x3c749d48	0.014930077
71	0x3e1fecad	0.15617628
72	0x3e7bd15d	0.24591585
73	0xbc53a0b7	-0.012916735
74	0xbe3c640a	-0.18397537
75	0x3d2b8c1c	0.041881666
76	0xbdd6892b	-0.104753815
77	0x3dc7cfac	0.09756407
78	0xbdd28814	-0.10279861
79	0xbcd102d3	-0.025514042
80	0x3e6d23ce	0.2315819
81	0x3d904e4d	0.07046185
82	0xbd8ba6a1	-0.06818891
83	0xbe312847	-0.17300521
84	0x3e764a43	0.24051766
85	0x3ef2b877	0.4740636
86	0xbec052e9	-0.37563255
87	0xbe9afefa	-0.30272657
88	0xbdcf8153	-0.101320885
89	0xbea6bffb	-0.32568344
90	0xbdfb285e	-0.12263559
91	0x3d60d0bf	0.054886576
92	0x3de6d0c9	0.11270291
93	0xbf5c8fc5	-0.86156875
94	0x3ead6e49	0.33873203
95	0xbf2d1449	-0.6760908
96	0xbe367659	-0.17818584
97	0x3eeb5d1b	0.4596947
98	0xbe603e2c	-0.21898717
99	0xbeaef826	-0.34173697
100	0xbeaf7e60	-0.34276104
101	0x3e848ca1	0.2588854
102	0x3e6726ea	0.22573438
103	0xbe03b601	-0.12862398
104	0xbecb3e14	-0.396958
105	0x3e26654c	0.16249579
106	0xbeec4a14	-0.46150267
107	0xbce60f74	-0.02808354
108	0xbe92b95e	-0.2865705
109	0xbe81f4db	-0.25382122
110	0x3eb0df11	0.34545186
111	0x3d5064f8	0.05087754
112	0xbd63a7c4	-0.055579916
113	0x3e8e7f5b	0.2783154
114	0x3c77810a	0.015106449
115	0xbc833936	-0.016018491
116	0x3e9940af	0.29932162
117	0x3e819510	0.25309038
118	0x3e02e1b3	0.1278141
119	0x3e294398	0.16529691
120	0x3e0a252c	0.13490742
121	0x3efe30ba	0.4964655
122	0x3d17bd1a	0.037045576
123	0xbec3eaac	-0.38264978
124	0x3f1e3aa4	0.6180823
125	0xbe63a0aa	-0.22229257
126	0xbe01edb9	-0.1268834
127	0xbe658db4	-0.22417337

convs.0.att_dst f4 [1, 2, 64]
0	0x3d7eb25e	0.062181823
1	0x3eaa9cf7	0.3332288
2	0xbe80b9f3	-0.25141868
3	0xbe97ab9a	-0.2962311
4	0x3a9506d3	0.0011369832
5	0xbeaf0d7d	-0.34189978
6	0x3e7183e0	0.23585463
7	0xbc0bfd3c	-0.0085442625
8	0x3ea49514	0.32144988
9	0x3de096dd	0.10966275
10	0x3e8ad44b	0.27115092
11	0xbe41a6a4	-0.18911225
12	0x3e5c3b78	0.2150706
13	0xbe61cf81	-0.22051813
14	0x3d2159da	0.03939233
15	0xbd6a1e69	-0.057157908
16	0x3ddd4093	0.10803332
17	0x3da766bd	0.08173893
18	0xbdff5676	-0.12467663
19	0xbe25b488	-0.16182148
20	0x3d92ec25	0.07173947
21	0xbe073b82	-0.13206294
22	0x3eb1e07e	0.34741586
23	0x3e52a4e8	0.20570719
24	0x3e74c56e	0.23903438
25	0x3c420a49	0.0118432725
26	0x3d6c7f52	0.05773861
27	0xbe06808c	-0.13134974
28	0x3de95b98	0.11394423
29	0x3e1b11e4	0.15143543
30	0xbd5d49dc	-0.054025516
31	0xbd2c15dc	-0.042013034
32	0xbe8e61e4	-0.2780906
33	0xbe61d11f	-0.2205243
34	0x3cb5ac70	0.022176951
35	0x3e29e351	0.1659062
36	0xbe630b4f	-0.22172283
37	0x3d64fc62	0.055904754
38	0x3d7228e1	0.059121016
39	0x3da4a54e	0.08039342
40	0x3d134ae4	0.035960093
41	0xbd998459	-0.074959464
42	0xbd9918a6	-0.074754044
43	0xbea37396	-0.31924123
44	0x3b03a3a6	0.0020086556
45	0xbd8e7ab9	-0.06957001
46	0x3d9674ab	0.073464714
47	0xbcf6e858	-0.030140087
48	0xbe1f4520	-0.15553713
49	0x3e555372	0.20832613
50	0x3ea3560a	0.3190158
51	0xbddc2153	-0.107485436
52	0xbc9b5c49	-0.018964903
53	0x3e7aca56	0.24491248
54	0x3eb62e5f	0.35582253
55	0x3e4fbccd	0.20286866
56	0xbd278752	-0.040900536
57	0xbd8a339e	-0.067481264
58	0xbd35d35b	-0.044391017
59	0x3e529297	0.20563732
60	0xbdd9a408	-0.106269896
61	0xbe43007a	-0.1904315
62	0xbe204707	-0.15652095
63	0xbdaa22f4	-0.08307448
64	0xbeacd171	-0.3375354
65	0xbdc4ff7f	-0.096190445
66	0xbd9fc611	-0.0780145
67	0x3d299d76	0.041409932
68	0xbe0a69a7	-0.13516866
69	0x3e1c81c6	0.1528388
70	0x3b6268cd	0.003454733
71	0xbd9970d4	-0.074922234
72	0x3e8d30a5	0.27576175
73	0x3d0a8ac5	0.033823747
74	0xbc773628	-0.015088595
75	0xbe0b9ec3	-0.13634782
76	0xbaeac60f	-0.0017911809
77	0xbea06612	-0.31327873
78	0x3d89bd8d	0.06725607
79	0xbd8f4747	-0.06996017
80	0x3ea433f5	0.3207089
81	0x3e5b965f	0.21444081
82	0xb967b0ac	-0.00022095692
83	0xbdbf476f	-0.09339797
84	0xbc91d80d	-0.017803216
85	0xbd2a14cb	-0.041523736
86	0xbdaeb9b9	-0.085315175
87	0x3d88cd81	0.06679822
88	0xbdf751ca	-0.12076147
89	0xbe645747	-0.22298919
90	0x3e03d40b	0.12873857
91	0xbccc596a	-0.02494498
92	0xbcea0628	-0.028567389
93	0x3e121080	0.14264107
94	0x3d96e52b	0.07367929
95	0xbd5723e8	-0.052524477
96	0x3e0867c8	0.1332084
97	0x3e9c640f	0.3054509
98	0x3e1a26d5	0.15053876
99	0x3e800051	0.2500024
100	0x3ed2485c	0.4107083
101	0x3ecd3d15	0.40085664
102	0x3ed8314c	0.4222511
103	0xbdcb4f32	-0.09927215
104	0x3e5d9158	0.21637475
105	0xbda8c8c4	-0.08241418
106	0xbed2fc51	-0.41208127
107	0x3eb11110	0.3458333
108	0x3e8bafa4	0.2728244
109	0xbd3f93d6	-0.046771847
110	0x3de056b9	0.10954041
111	0xbdddbf3e	-0.10827492
112	0xbd90c6e3	-0.07069185
113	0x3ded1d24	0.11577824
114	0x3cc0ae66	0.02352066
115	0xbe1eef80	-0.1552105
116	0x3c60befd	0.01371741
117	0x3e1f5408	0.15559399
118	0x3eb8ceeb	0.36095366
119	0x3e80cfb2	0.2515846
120	0x3e609233	0.2193077
121	0x3e77eaf0	0.24210715
122	0x3eb0b9e1	0.34516814
123	0xbeae163c	-0.34001338
124	0x3e22e7ef	0.15908788
125	0x3dea9efe	0.114561066
126	0x3e8e3ccd	0.27780762
127	0x3e851452	0.25992066

convs.0.bias f4 [128]
0	0x3d6ca99b	0.057778936
1	0xbcaad2af	-0.020852415
2	0xbd67892c	-0.0565273
3	0xbd4065ad	-0.046971966
4	0x00000000	0.0
5	0x3cdd1d30	0.026991457
6	0xbe188039	-0.14892663
7	0x00000000	0.0
8	0xbd33f62c	-0.04393594
9	0xbda2857a	-0.07935615
10	0x00000000	0.0
11	0xbd769b46	-0.060206674
12	0xbd793b07	-0.06084731
13	0xbd42038b	-0.04736666
14	0xbd6a54f6	-0.05720993
15	0x00000000	0.0
16	0xbd758731	-0.05994338
17	0xbdd75368	-0.10513955
18	0x00000000	0.0
19	0xbbdd08a9	-0.006745417
20	0xbd230e10	-0.039808333
21	0x3f8646f5	1.0490404
22	0x00000000	0.0
23	0x00000000	0.0
24	0x3c357ed1	0.011077599
25	0xbd75faf5	-0.060053784
26	0xbda23903	-0.0792103
27	0x3e02a1d4	0.12757045
28	0xbd209f14	-0.03921421
29	0xbd60c67c	-0.05487679
30	0x00000000	0.0
31	0x3e381e7e	0.17980382
32	0x00000000	0.0
33	0xbd75fb30	-0.060054004
34	0x3bd9e7ca	0.006649946
35	0xbd98c382	-0.07459165
36	0xbd8ca88b	-0.068680845
37	0xbd69586f	-0.056969102
38	0xbdbd0a92	-0.09230532
39	0x00000000	0.0
40	0xbdc280e2	-0.09497239
41	0xbd93616b	-0.071963154
42	0xbe628f83	-0.22125058
43	0xbe518468	-0.20460665
44	0x00000000	0.0
45	0x3df5c7e5	0.120010175
46	0xbda4b1c1	-0.08041716
47	0xbe7c9b81	-0.24668695
48	0xbc9466b2	-0.018115375
49	0x3ed0b716	0.40764683
50	0xbd8a583e	-0.06755112
51	0xbd9fba2c	-0.07799181
52	0xbcf435fc	-0.029810898
53	0x00000000	0.0
54	0x3e5ac275	0.21363242
55	0x00000000	0.0
56	0xbb3ac1cc	-0.002849686
57	0x3e65c284	0.22437483
58	0xbe06987f	-0.1314411
59	0xbdd93084	-0.10604957
60	0x3e2e6afe	0.17033002
61	0x3e35a9d8	0.17740571
62	0xbd3fa7d5	-0.046790916
63	0xbda40a37	-0.08009761
64	0xbcde8159	-0.027161287
65	0x3e925d37	0.28586742
66	0xbd59dd79	-0.05318973
67	0x3caf171a	0.02137332
68	0xbd92dd7f	-0.07171153
69	0xbcc16da9	-0.02361186
70	0x00000000	0.0
71	0x00000000	0.0
72	0x00000000	0.0
73	0xbd910fb5	-0.07083074
74	0xbce045e4	-0.027377076
75	0xbd87bba2	-0.06627585
76	0xbcad05fc	-0.021121018
77	0xbd44a197	-0.048005667
78	0xbc23cc2e	-0.009997411
79	0x3b32521f	0.0027209593
80	0xbdac5659	-0.08414907
81	0xbd0a91a9	-0.03383032
82	0x00000000	0.0
83	0xbda8702b	-0.08224519
84	0xbdb9d86d	-0.09074483
85	0xbd71939e	-0.05897867
86	0xbd6d910d	-0.05799966
87	0xbccb48c6	-0.024814975
88	0xbd957cb8	-0.07299179
89	0xbd3ec131	-0.04657096
90	0xbd05fe4e	-0.032713227
91	0xbdd84dfd	-0.1056175
92	0x00000000	0.0
93	0xbdb9fe80	-0.09081745
94	0x00000000	0.0
95	0xbd97a573	-0.07404604
96	0xbdb876ea	-0.09007056
97	0xbd8f0e5b	-0.0698516
98	0xbd68c79a	-0.05683098
99	0xbd9ca318	-0.07648295
100	0x3e97c22b	0.29640326
101	0xbd4070ea	-0.046982683
102	0xbd3d97ed	-0.046287466
103	0xbdca8f75	-0.098906435
104	0xbdb71f77	-0.08941548
105	0xbd245071	-0.040115777
106	0xbda079ce	-0.078357324
107	0xbdd68715	-0.104749836
108	0xbdc7ed30	-0.09762037
109	0xbd18f827	-0.03734603
110	0xbcd7bc04	-0.02633477
111	0xbd75d332	-0.060015865
112	0xbdc48509	-0.09595687
113	0xbd8b2ba9	-0.06795437
114	0x3ca1405c	0.01968401
115	0xbd364e93	-0.044508528
116	0x3d1dbb38	0.038508624
117	0xbd1ee8df	-0.038796302
118	0x3e0e4e00	0.13896942
119	0x3ed8a739	0.4231508
120	0xbdb0ae36	-0.08626978
121	0xbd61e53d	-0.05515026
122	0xbd0da496	-0.03458079
123	0xbc8a49cd	-0.016880894
124	0xbd9f59f8	-0.07780832
125	0xbd9f2ce9	-0.07772238
126	0xbdad5d66	-0.0846508
127	0x3d07d921	0.033166055

convs.0.lin.weight f4 [128, 8]
0	0x3acc569a	0.0015589774
1	0x3e6d9b2f	0.23203729
2	0xbe9a22e9	-0.3010476
3	0x3ddcd1cd	0.10782204
4	0x3e8dc1a7	0.27686808
5	0x3cf9f270	0.030511111
6	0x3e81f4b5	0.2538201
7	0xbd0cfd56	-0.034421287
8	0x3d0e5e1a	0.03475771
9	0x3da03776	0.07823078
10	0x3e03c564	0.12868267
11	0x3d8191eb	0.0632666
12	0xbd292700	-0.04129696
13	0x3d51490c	0.051095054
14	0x3e3a50d9	0.18194903
15	0xbe5babe2	-0.21452287
16	0xbd20ace1	-0.03922737
17	0xbd894cdc	-0.06704113
18	0x3e9510a4	0.29114258
19	0xbd00bce1	-0.03143013
20	0x3e091c4c	0.133897
21	0xbdb699ab	-0.089160286
22	0x3d5853ed	0.052814413
23	0xbd3962b4	-0.045260146
24	0xbe63e359	-0.22254695
25	0x3dd43650	0.10361922
26	0xbd836211	-0.06415189
27	0xbe748e8e	-0.23882505
28	0xbda17361	-0.07883335
29	0xbdc3a9d3	-0.09553876
30	0x3c58a2da	0.013222421
31	0xbdbad429	-0.091224976
32	0xbe8a0c0e	-0.26962322
33	0xbdbc8280	-0.092045784
34	0xbe98cafa	-0.2984236
35	0xbebfe392	-0.3747831
36	0xbf603f09	-0.87596184
37	0xbe1d018d	-0.15332623
38	0xbdf27532	-0.118387595
39	0xbe85737e	-0.26064676
40	0x3d4bd343	0.04976202
41	0x3e1ded7e	0.15422627
42	0x3e459568	0.19295275
43	0x3e80c03b	0.2514666
44	0x3e90bb33	0.28267822
45	0xbd6bd109	-0.0575724
46	0x3e37726a	0.17914739
47	0xbda845f3	-0.08216467
48	0xbd88e4a1	-0.066842325
49	0xbe395db0	-0.18102145
50	0xbe5146ae	-0.20437118
51	0xbd44d75d	-0.04805695
52	0xbe4634b7	-0.19356047
53	0xbd14916b	-0.036271494
54	0x3d4c6981	0.049905304
55	0xbdfc90cb	-0.123323046
56	0x3e9ea0fd	0.309822
57	0xbbc3855d	-0.005966826
58	0x3e35d708	0.17757809
59	0xbe65b537	-0.22432409
60	0x3f3dd926	0.7415947
61	0xbef0f6aa	-0.4706319
62	0xbe33f6a0	-0.17574549
63	0xbe6a07a3	-0.22854476
64	0xbea263ae	-0.31716675
65	0x3dfebff9	0.1243896
66	0xbea7c48a	-0.32767135
67	0xbded32a9	-0.11581928
68	0xbf5f73a4	-0.8728583
69	0xbe3239a2	-0.17404798
70	0xbde4f056	-0.11178653
71	0xbd2bb757	-0.041922893
72	0xbe2004c9	-0.15626825
73	0xbe64437a	-0.22291365
74	0xbe3c1a16	-0.18369326
75	0xbe1880d2	-0.14892891
76	0xbd87796a	-0.06614955
77	0x3c674ae9	0.014116981
78	0xbe8741e8	-0.2641747
79	0x3d4bd9f4	0.049768403
80	0xbd88e115	-0.06683556
81	0xbe4d6577	-0.20058237
82	0xbe681c9a	-0.2266716
83	0xbee88121	-0.45411018
84	0xbed55bbb	-0.41671547
85	0xbe1cb6d4	-0.15304118
86	0xbdcdacfc	-0.1004276
87	0xbe746dbb	-0.23869984
88	0xbe5211c6	-0.20514593
89	0x3dfae09f	0.12249874
90	0x3dbbff8e	0.091796026
91	0xbe5cfef8	-0.21581638
92	0xbdb7fc80	-0.089837074
93	0xbe3e07e1	-0.18557693
94	0xbe0e6a5d	-0.13907762
95	0x3dd919bc	0.106006116
96	0xbdc26b91	-0.09493173
97	0xbe6316ad	-0.22176619
98	0x3e104303	0.14088063
99	0x3ddf9a58	0.109181106
100	0x3de15f9f	0.110045664
101	0xbd2ce4b5	-0.0422103
102	0xbe04d60a	-0.12972274
103	0x3cf7cc37	0.030248744
104	0x3c9d65cf	0.019213585
105	0xbcbd3ca0	-0.023100197
106	0xbe2ccd99	-0.16875304
107	0x3e1e0451	0.15431334
108	0xbe28ce32	-0.16484907
109	0xbd50120e	-0.05079847
110	0xbdb616ae	-0.088910446
111	0x3d89ed6d	0.067347385
112	0xbe1dfe96	-0.15429148
113	0xbd25d5a9	-0.040486965
114	0xbc9595fa	-0.018259991
115	0x3df971fd	0.12179945
116	0x3d39c360	0.04535234
117	0xbd135f2d	-0.03597944
118	0xbe1667e3	-0.14688067
119	0x3d3f45a3	0.04669727
120	0x3c55fa44	0.013060156
121	0x3e5bb1ba	0.21454516
122	0xbe3f744c	-0.18696707
123	0x3c84fc75	0.016233662
124	0xbe4c3c28	-0.19944823
125	0x3e8e3da8	0.27781415
126	0x3e701a85	0.23447616
127	0xbdc95799	-0.09831161
128	0x3df485ba	0.11939569
129	0xbe87485f	-0.26422402
130	0xbd324213	-0.043520045
131	0xbd85a0af	-0.065247886
132	0x3bc2bf4d	0.005943215
133	0xbdcfff3d	-0.10156105
134	0x3dabea86	0.08394341
135	0xbdb7078e	-0.08936988
136	0xbc6ae069	-0.01433573
137	0xbe00a2f9	-0.12562169
138	0x3de8cf35	0.113676466
139	0xbdd46af6	-0.10371964
140	0xbe85a36b	-0.2610124
141	0xbd15db5a	-0.036586143
142	0xbe39e9e8	-0.18155634
143	0x3de92d86	0.11385636
144	0xbdb9f2dc	-0.09079525
145	0x3ce0edda	0.027457166
146	0xbda5099c	-0.080584735
147	0xbe29e7d8	-0.16592348
148	0xbe820d98	-0.25400996
149	0x3e2390dc	0.15973228
150	0x3d1f6812	0.03891761
151	0xbddfff6d	-0.109373905
152	0xbee2e8cb	-0.44318232
153	0x3dd5dd2c	0.10442576
154	0xbeb9a602	-0.36259466
155	0xbeb7bb48	-0.35885072
156	0xbf9b4975	-1.2131792
157	0x3cb688b8	0.02228199
158	0x3d90b6f2	0.07066144
159	0x3dbec6f0	0.09315288
160	0xbe84c910	-0.2593465
161	0x3d28e75e	0.041236274
162	0xbe78979c	-0.24276584
163	0xbe862d33	-0.2620636
164	0x3c88c81f	0.016696988
165	0x3e20e86e	0.15713665
166	0xbe251a94	-0.1612342
167	0xbd3a724a	-0.04551915
168	0x3e9c0e7d	0.30479804
169	0x3e0b4e7b	0.13604157
170	0xbe96f626	-0.2948467
171	0xbe64fa8f	-0.22361206
172	0x3e2b224d	0.16712303
173	0x3d29734a	0.041369714
174	0x3ca92c1d	0.020650918
175	0x3c3eaae5	0.011637424
176	0xbcaf1781	-0.021373512
177	0xbe247115	-0.16058762
178	0x3e85e80a	0.26153594
179	0x3e8883eb	0.26663145
180	0x3e5f7f10	0.21825814
181	0x3d74ffe2	0.05981434
182	0xbdef8038	-0.11694378
183	0xbdd00a91	-0.101582654
184	0xbe83e5ed	-0.25761357
185	0xbdf4d7cd	-0.11955223
186	0xbea03471	-0.3129001
187	0xbeda0c79	-0.4258764
188	0xbf1ad94d	-0.60487825
189	0xbc47d43e	-0.012196599
190	0xbe5d70a9	-0.21625008
191	0xbe4f18bd	-0.2022428
192	0x3d14fa37	0.036371436
193	0x3b481839	0.0030532016
194	0xbd8c1ef8	-0.06841844
195	0x3e5b0098	0.21386945
196	0x3af43190	0.0018630493
197	0xbd83a45a	-0.06427832
198	0xba247d24	-0.0006274751
199	0xbe910ff4	-0.28332484
200	0x3dce84ab	0.10083898
201	0xbd9d2d3d	-0.07674644
202	0x3e67c112	0.22632244
203	0x3e0e857f	0.13918112
204	0x3f0d5979	0.5521465
205	0xbd09455c	-0.033513412
206	0xbe91b58d	-0.28458825
207	0x3d06b38b	0.03288607
208	0xbd06ae1a	-0.03288088
209	0xbdcad800	-0.0990448
210	0xbd4885e3	-0.04895581
211	0xbd8ff608	-0.070293486
212	0xbd07c7a6	-0.033149384
213	0xbdb1cbaa	-0.08681424
214	0xbdec41ae	-0.11535965
215	0xbdcf7b5a	-0.10130949
216	0x3e98ab33	0.29818115
217	0xbd1beeb4	-0.038069442
218	0xbd671d5e	-0.05642449
219	0x3da50267	0.08057099
220	0xbdfd866e	-0.12379156
221	0x3deeed05	0.11666302
222	0x3e174a4a	0.14774433
223	0xbe09d071	-0.1345842
224	0x3d69cebf	0.057081934
225	0x3e07e040	0.13269138
226	0xbe07a10e	-0.13245031
227	0xbdf4510d	-0.11929522
228	0x3dca3329	0.09873039
229	0xbdf582d8	-0.11987847
230	0x3b69b6c8	0.0035661925
231	0xbe35b67f	-0.17745398
232	0xbe47ee9e	-0.19524619
233	0xbd6a2468	-0.057163626
234	0xbe4ad76e	-0.19808742
235	0x3d4c27db	0.049842697
236	0xbdfc83b9	-0.123298116
237	0x3d6f5ef7	0.058440175
238	0xbe436bca	-0.19084087
239	0x3db25063	0.08706739
240	0xbe1f15ae	-0.15535614
241	0x3d1bb54f	0.038014706
242	0x3d907b35	0.0705475
243	0xbdc0dcbe	-0.09417103
244	0xbf12d09f	-0.5734958
245	0xbd9115e9	-0.07084257
246	0xbe0a6dc4	-0.13518435
247	0xbe241f3b	-0.16027538
248	0xbeed86f4	-0.46392024
249	0x3e27cc13	0.16386442
250	0x3e6eaeeb	0.23308913
251	0x3e954e50	0.2916131
252	0x3dccb7a1	0.09995962
253	0x3ce8c365	0.028413484
254	0xbc75b39f	-0.014996438
255	0x3e0dbb00	0.13840866

convs.1.att_src f4 [1, 2, 64]
0	0xbe3dfa53	-0.18552522
1	0xbde4f617	-0.111797504
2	0x3ec14bc8	0.3775313
3	0x3e889584	0.2667657
4	0xbe092a35	-0.13395007
5	0x3e2b8272	0.1674898
6	0xbe871357	-0.26381943
7	0x3dd40ea6	0.103543565
8	0xbdbd87ae	-0.092543945
9	0x3e83450d	0.2563862
10	0xbe1d0517	-0.15333973
11	0xbe77aa4f	-0.24186061
12	0x3e06ba83	0.13157086
13	0xbdf31acc	-0.118703455
14	0xbe221843	-0.15829568
15	0xbe0e4100	-0.13891983
16	0xbe694bfb	-0.2278289
17	0xbe878769	-0.26470497
18	0xbddc11a9	-0.10745556
19	0x3da9ec7b	0.08297058
20	0x3ed294f5	0.4112927
21	0xbdfd22db	-0.12360164
22	0xbe38da7a	-0.18052092
23	0xbc0f7a68	-0.008757211
24	0xbea8ce2f	-0.32969806
25	0x3a8f8c1b	0.0010951789
26	0x3e7e0c01	0.24809267
27	0xbe5d4550	-0.21608472
28	0xbba426f2	-0.0050095255
29	0x3ee61f0a	0.44945556
30	0xbe68a093	-0.22717504
31	0x3de03945	0.10948423
32	0xbe7a913b	-0.24469464
33	0x3b6c84a2	0.0036089798
34	0xbe355fa3	-0.17712264
35	0x3c4ec471	0.0126200775
36	0x3eb1a4fa	0.3469618
37	0xbdd077fe	-0.10179137
38	0xbe7fbd0f	-0.24974464
39	0xbe897112	-0.26844078
40	0x3e4b8ff5	0.19879134
41	0xbd11cff9	-0.03559873
42	0xbc7f81d2	-0.015594916
43	0xbe85d07a	-0.26135617
44	0xbe975d61	-0.2956343
45	0xbd2aac0b	-0.04166798
46	0x3f315454	0.692693
47	0xbbc11e14	-0.005893478
48	0x3e2daef8	0.16961277
49	0xbe10ac61	-0.14128257
50	0x3e3348ab	0.1750819
51	0xbe34a4d5	-0.17641003
52	0xbdd04294	-0.10168949
53	0x3eb5dccc	0.35520017
54	0x3e0f66c0	0.1400404
55	0x3d868e63	0.06570127
56	0x3e1e245a	0.15443555
57	0x3dcf59a6	0.10124521
58	0x3deb20e0	0.1148088
59	0x3db6681a	0.089065745
60	0xbd3e0968	-0.04639569
61	0x3e93958e	0.2882504
62	0xbd43ad90	-0.047772944
63	0x3d00995a	0.031396247
64	0xbdaa1c18	-0.0830614
65	0xbca0e2d0	-0.019639403
66	0xbe4f6485	-0.20253189
67	0x3eb9ffb3	0.36327896
68	0x3ec4d38c	0.38442647
69	0x3e088277	0.13331018
70	0x3ebd5292	0.3697706
71	0x3e4afdbf	0.19823359
72	0xbdf75c73	-0.1207818
73	0x3e62ad12	0.22136334
74	0x3e0ced73	0.13762455
75	0x3e88efb7	0.26745388
76	0xbe5a95e4	-0.21346241
77	0x3e5d8995	0.21634515
78	0xbe80e369	-0.251735
79	0x3e05326d	0.13007517
80	0xbe6e7935	-0.23288424
81	0xbd675773	-0.056479882
82	0xbe26c662	-0.16286615
83	0x3dcda81b	0.10041829
84	0x3d9caf7f	0.07650661
85	0xbdafdab0	-0.08586633
86	0x3d90ee26	0.07076673
87	0x3d3c70ff	0.0460062
88	0xbebeb401	-0.37246707
89	0xbd86a8fe	-0.065752015
90	0x3e62c74d	0.2214634
91	0xbe007ab3	-0.12546806
92	0x3cbfe1a2	0.02342302
93	0xbd795c6d	-0.06087916
94	0x3d951201	0.072788246
95	0xbe427bb0	-0.18992496
96	0x3ed9be97	0.4252822
97	0xbd688129	-0.0567638
98	0x3e0f33fb	0.13984673
99	0xbe7ff9f9	-0.24997701
100	0xbefcd977	-0.49384663
101	0xbe5ce183	-0.21570401
102	0x3b29a806	0.0025887503
103	0xbe4928fc	-0.1964454
104	0xbd8bc282	-0.06824209
105	0xbf286991	-0.6578608
106	0x3d0490f9	0.03236482
107	0x3dae0343	0.08496716
108	0x3e2af756	0.16695914
109	0x3e714450	0.23561215
110	0x3dc27089	0.09494121
111	0x3ea4d234	0.32191622
112	0x3e693eab	0.22777812
113	0x3d8b6586	0.068064734
114	0xbe1414d7	-0.14461075
115	0xbde347a1	-0.110976465
116	0x3cdcd41f	0.026956616
117	0x3e090562	0.1338096
118	0xbe78d7a7	-0.24301015
119	0xbe12fcda	-0.14354268
120	0xbd4cb6b6	-0.049978934
121	0xbe4ed76d	-0.20199366
122	0x3e3a8a33	0.18216781
123	0x3e65627b	0.22400849
124	0xbe00573d	-0.12533279
125	0xbba9a0ed	-0.0051766546
126	0xbdd6dcc4	-0.104913265
127	0xbe901f64	-0.2814895

convs.1.att_dst f4 [1, 2, 64]
0	0x3eb1d146	0.34729975
1	0x3bcc9830	0.006243728
2	0xbddf62cd	-0.10907517
3	0x3dd73122	0.10507418
4	0xbd06aa26	-0.03287711
5	0xbe27e8e6	-0.16397437
6	0xbea6e094	-0.32593215
7	0x3d8a7ff7	0.067626886
8	0x3e5009f0	0.20316291
9	0x3e86369c	0.2621354
10	0x3ebd541d	0.36978236
11	0xbe289ff8	-0.16467273
12	0x3d5ed136	0.054398738
13	0x3e6ed32e	0.23322746
14	0x3e935b4a	0.28780586
15	0x3ed1d6cb	0.40984187
16	0xbe20560e	-0.15657827
17	0x3ddb8a1a	0.107197
18	0x3c7f5026	0.015583074
19	0xbdbcdb7b	-0.0922155
20	0xbe078167	-0.13232957
21	0x3e096360	0.13416815
22	0x3d3690de	0.04457175
23	0x3ea86896	0.32892293
24	0xbe082983	-0.13297085
25	0x3e8942d0	0.26808786
26	0xbcc1144f	-0.023569254
27	0x3e4c340c	0.1994173
28	0x3e1d675b	0.15371458
29	0x3eb58f4a	0.35460883
30	0x3dfec5c7	0.12440067
31	0x3d5597e7	0.05214682
32	0xbd6485b2	-0.055791564
33	0xbc71422c	-0.014725249
34	0xbdf04ae4	-0.11733034
35	0xbd752dfa	-0.0598583
36	0x3eba7488	0.3641703
37	0x3ece3415	0.4027411
38	0xbe8a43de	-0.27004904
39	0xbe0ca9b6	-0.13736615
40	0x3dafad60	0.085779905
41	0xbd8f8049	-0.0700689
42	0x3ecdd298	0.40199733
43	0xbc0fbd5a	-0.008773172
44	0xbe694211	-0.22779109
45	0x3dc65cff	0.09685706
46	0xbc45b6da	-0.012067521
47	0x3d80d3fd	0.062904336
48	0xbe0bad3d	-0.13640304
49	0x3e04c2a8	0.1296488
50	0x3e2415f8	0.16024005
51	0xbe969043	-0.29406938
52	0xbdff5721	-0.124677904
53	0xbdac15c7	-0.08402591
54	0xbeb0cdc5	-0.3453199
55	0x3e2b8d7f	0.16753195
56	0x3de36888	0.11103922
57	0x3e2f73a9	0.17133965
58	0x3dbccb4d	0.09218464
59	0xbe19ff79	-0.15038861
60	0x3e83978f	0.25701568
61	0x3e7b5903	0.24545674
62	0x3e8e77a7	0.27825662
63	0xbea1b64a	-0.31584388
64	0x3e6a4503	0.22877888
65	0xbd8d17db	-0.06889316
66	0xbe2fbf02	-0.17162707
67	0x3db83ecd	0.08996353
68	0xbd34951a	-0.044087507
69	0x3cff9074	0.03119681
70	0x3e1cca02	0.15311435
71	0x3e451953	0.19247942
72	0xbe061abe	-0.13096139
73	0x3dff6bde	0.12471746
74	0x3e38b299	0.1803688
75	0x3c80b198	0.015709683
76	0xbe39e316	-0.18153033
77	0x3d95c1f8	0.07312387
78	0xbe9dd992	-0.30830055
79	0xbc4aeb25	-0.012385164
80	0x3eb6250c	0.3557514
81	0xbe8cda4b	-0.27510294
82	0xbc36f84e	-0.011167599
83	0xbd8a3b74	-0.06749621
84	0xbe4c545a	-0.19954053
85	0xbe203541	-0.15645315
86	0xbdce2a44	-0.10066655
87	0x3c892286	0.016740095
88	0xbe969c5e	-0.29416174
89	0x3e4378f8	0.19089115
90	0xbe0df61e	-0.13863418
91	0x3e18de63	0.14928584
92	0xbdb0f414	-0.08640304
93	0xbe4a380b	-0.19747941
94	0x3dbe01d9	0.09277696
95	0x3dced339	0.10098881
96	0x3e4cdbef	0.20005773
97	0xbe2d4e8c	-0.16924495
98	0xbe7d129a	-0.24714127
99	0x3e23b3b7	0.15986525
100	0x3e1ff947	0.15622436
101	0x3e4f8637	0.20266043
102	0xbdbdfedf	-0.092771284
103	0xbe395629	-0.18099274
104	0x3eb78a1e	0.35847563
105	0x3e7689ab	0.24075954
106	0x3e1de6fb	0.15420143
107	0xbe9f6ff5	-0.31140104
108	0x3d420261	0.04736555
109	0x3e17bdb1	0.14818455
110	0x3e24b47f	0.16084479
111	0xbdacbec8	-0.08434826
112	0xbe90ce42	-0.28282362
113	0x3e282985	0.16422088
114	0x3e5f6ffc	0.21820062
115	0x3eacb68d	0.33733025
116	0xbe70b946	-0.23508176
117	0xbe029586	-0.12752351
118	0xbea42dc8	-0.32066178
119	0x3ea94f5a	0.33068353
120	0x3eae72ae	0.3407187
121	0x3c29050e	0.010316147
122	0xbe7f6c51	-0.24943663
123	0x3e442553	0.19154863
124	0x3e7f817c	0.24951738
125	0x3cddaecb	0.027060887
126	0xbea137aa	-0.3148778
127	0x3e0d89cd	0.13822098

convs.1.bias f4 [128]
0	0x3ce9ea08	0.028553978
1	0xbd9d42b7	-0.076787405
2	0xbdb2614e	-0.08709966
3	0xbd1dd53d	-0.038533438
4	0x3d29e73b	0.041480284
5	0xbd776cee	-0.060406618
6	0xbd76041d	-0.060062516
7	0xbd81caa5	-0.063374795
8	0x3e1dd9cb	0.15415113
9	0xbd48944c	-0.048969552
10	0x3ec73c3f	0.38913152
11	0xbd5ec63c	-0.05438827
12	0xbdadace6	-0.084802434
13	0xbd0532c9	-0.032519136
14	0xbd75fbe8	-0.06005469
15	0xbd52cb4a	-0.051463403
16	0xbc980bc4	-0.018560298
17	0xbd4401df	-0.047853347
18	0xbd645dff	-0.055753704
19	0xbd75fd4c	-0.060056016
20	0xbd75fad4	-0.06005366
21	0xbe11e574	-0.14247686
22	0xbd45bd89	-0.048276458
23	0xbd657cdd	-0.056027282
24	0xbd76126d	-0.060076166
25	0xbd760088	-0.0600591
26	0xbcf6f006	-0.030143749
27	0xbd8d9450	-0.06913054
28	0xbd4c64ae	-0.049900703
29	0xbd32c15d	-0.043641437
30	0xbd75fc25	-0.060054917
31	0xbd48384e	-0.04888182
32	0xbd760eac	-0.060072586
33	0xbd536902	-0.051613815
34	0xbd7fe808	-0.06247714
35	0xbd75fc33	-0.06005497
36	0x00000000	0.0
37	0xbd8778b8	-0.06614822
38	0xbd439826	-0.047752522
39	0xbd7358d3	-0.05941088
40	0xbdc89434	-0.097938925
41	0xbdb0edfa	-0.086391404
42	0xbd75fc02	-0.060054787
43	0xbd62f0c7	-0.055405404
44	0xbdabdcb3	-0.083917044
45	0xbcc4c261	-0.024018468
46	0xbdf9b417	-0.121925525
47	0xbd75fc31	-0.06005496
48	0xbd6aa904	-0.057290092
49	0xbd7f0b1b	-0.06226645
50	0xbd75fc44	-0.060055032
51	0xbd3930fd	-0.045212734
52	0xbd63b142	-0.055588968
53	0x3d780fd2	0.060561962
54	0xbd75fc38	-0.060054988
55	0xbdab63b5	-0.08368627
56	0xbd75fc40	-0.060055017
57	0xbd3dd832	-0.046348758
58	0xbd2baae2	-0.041911013
59	0xbd5520df	-0.0520333
60	0xbd1fd9c1	-0.039026026
61	0xbd75fc3e	-0.06005501
62	0x00000000	0.0
63	0xbd75fd51	-0.060056034
64	0x3d598438	0.05310461
65	0xbd900376	-0.0703191
66	0xbcd4c56c	-0.025973044
67	0x3ccc9950	0.024975449
68	0xbe450967	-0.19241868
69	0x3da2cb43	0.07948925
70	0xbdcb118b	-0.099154554
71	0xbd75fc3c	-0.060055003
72	0xbd75fc39	-0.06005499
73	0xbe150803	-0.14553837
74	0x3c337bc0	0.010954797
75	0xbd75fc26	-0.06005492
76	0xbda1d4ba	-0.079019025
77	0xbd75f872	-0.06005139
78	0xbd8f4f1d	-0.069975115
79	0x3c5dbc73	0.013533699
80	0xbd53f352	-0.05174572
81	0xbcd78ce4	-0.0263123
82	0xbd4e167c	-0.05031441
83	0x3d9b75d7	0.075908355
84	0xbd75fc3a	-0.060054995
85	0xbd025ef3	-0.031828832
86	0xbd19526f	-0.03743213
87	0xbd3a5d11	-0.04549891
88	0xbd605d15	-0.05477627
89	0xbd53ee0a	-0.051740684
90	0xbd762091	-0.06008965
91	0xbd570888	-0.05249837
92	0xbbffc144	-0.0078050215
93	0xbd14c3ce	-0.036319546
94	0xbd783fc6	-0.060607694
95	0xbe2b6665	-0.16738279
96	0x3e5effa0	0.217772
97	0xbd790f6c	-0.060805723
98	0xbd3181c7	-0.043336656
99	0xbd5b556d	-0.053548265
100	0xbd76039a	-0.06006203
101	0x3e20c8a6	0.15701541
102	0xbd4f41f0	-0.050599992
103	0xbd11cb36	-0.035594188
104	0xbd760084	-0.060059085
105	0xbd3a8ecc	-0.045546338
106	0xbd750e58	-0.059828132
107	0xbd9304be	-0.07178639
108	0xbd75fc41	-0.06005502
109	0xbe48626f	-0.195688
110	0xbd382ac3	-0.044962656
111	0xbe6aab30	-0.22916865
112	0xbd75fc37	-0.060054984
113	0xbd75fc3e	-0.06005501
114	0xbd760305	-0.060061473
115	0xbd75fcbd	-0.060055483
116	0xbd0bb69f	-0.034109708
117	0xbd75fc40	-0.060055017
118	0xbd309f4b	-0.043120664
119	0xbd75fc31	-0.06005496
120	0xbd75fc3b	-0.060055
121	0xbd770422	-0.060306676
122	0xbd8adb17	-0.06780069
123	0xbd75fb53	-0.060054135
124	0xbd75fc39	-0.06005499
125	0xbd75fc40	-0.060055017
126	0xbd42fdf2	-0.047605462
127	0xbd565c38	-0.05233404

convs.1.lin.weight f4 [128, 128]
0	0xbdd62fc7	-0.104583316
1	0xbe1b6129	-0.15173782
2	0xbe559000	-0.20855713
3	0xbc8ef5a7	-0.01745112
4	0x3dd819f0	0.10551822
5	0x3e3ea877	0.18618952
6	0xbe989b9a	-0.29806215
7	0x3da523fa	0.080635026
8	0xbd0bb897	-0.034111585
9	0xbdbba5a4	-0.09162453
10	0xbdb7b53d	-0.08970115
11	0x3e590d0c	0.21196383
12	0xbc95bd47	-0.018278731
13	0xbd7299a4	-0.059228554
14	0xbef8a7b4	-0.48565447
15	0x3df893bd	0.12137554
16	0x3d7eebd5	0.062236626
17	0xbdb6fabb	-0.08934542
18	0xbd865f31	-0.06561125
19	0xbdbaf2ca	-0.091283396
20	0x3e0db6d9	0.13839282
21	0xbf48fa87	-0.78507274
22	0xbdce1c00	-0.10063934
23	0xbd4a15ef	-0.049337324
24	0x3d52df0c	0.051482245
25	0x3dbd7e44	0.09252599
26	0x3d398f4b	0.04530267
27	0x3ca72b1e	0.020406302
28	0x3d3aedf0	0.04563707
29	0x3e0793df	0.13240002
30	0x3c1c6b44	0.0095470585
31	0xbf31b6af	-0.6941938
32	0xbe1be852	-0.15225342
33	0xbd81c2b2	-0.06335963
34	0xbeaf1973	-0.34199104
35	0x3d9383ea	0.07202895
36	0xbcbfcd68	-0.023413375
37	0x3daa2b53	0.08309045
38	0xbd92c2a7	-0.07166033
39	0x3df1d4d6	0.11808173
40	0xbdaf39f8	-0.085559785
41	0x3dc95893	0.09831347
42	0xbe1a637c	-0.15077013
43	0x3dfce716	0.12348764
44	0x3dd01f50	0.101622224
45	0x3d634c62	0.055492766
46	0xbd2514fd	-0.04030322
47	0x3e5d53c2	0.21613982
48	0x3e74eff8	0.23919666
49	0xbe640d59	-0.22270717
50	0xbd83a25e	-0.064274535
51	0xbe9cd0c5	-0.3062803
52	0xbe28042d	-0.16407843
53	0xbdc163e4	-0.09442881
54	0x3daab271	0.08334816
55	0xbda929bf	-0.082599156
56	0xbe2021de	-0.1563792
57	0x3f9e1e39	1.2352973
58	0x3e6515eb	0.22371642
59	0xbe228398	-0.15870512
60	0xbdbb47fc	-0.09144589
61	0xbf7b70ab	-0.9821879
62	0xbe0ffb28	-0.14060652
63	0x3db46480	0.08808231
64	0x3f120f93	0.57055014
65	0x3e72b912	0.23703411
66	0x3dc53f0e	0.09631167
67	0x3d6c13ae	0.057635956
68	0x3c807b60	0.01568383
69	0xbfbb881e	-1.4650915
70	0xbd940750	-0.07227957
71	0xbde830a6	-0.11337404
72	0x3d19c3db	0.037540298
73	0xbe5f1854	-0.21786624
74	0xbc612775	-0.013742317
75	0xbe8962af	-0.26833102
76	0xbc96a02c	-0.018386923
77	0x3e5bb16d	0.21454401
78	0xbd836152	-0.06415047
79	0x3df47095	0.11935536
80	0xbcfd8a8b	-0.030949851
81	0xbda03167	-0.07821923
82	0xbd892cee	-0.06698023
83	0xbe2a8efd	-0.16656108
84	0xbd42dfc9	-0.0475767
85	0xbe9a2d09	-0.30112484
86	0xbd89692a	-0.067095116
87	0x3de428b6	0.111405775
88	0xbe4481fa	-0.19190207
89	0xbdfcc90c	-0.12343034
90	0x3e0fb09b	0.14032213
91	0xbd90f1a5	-0.0707734
92	0xbd43bc16	-0.047786795
93	0x3e904952	0.2818094
94	0x3d8e2e12	0.06942381
95	0xbe01e907	-0.12686549
96	0xbe0d889e	-0.13821647
97	0xbe4b71c9	-0.19867624
98	0xbf0777fe	-0.5291747
99	0x3d7f72d1	0.062365357
100	0x3cd8ce55	0.026465574
101	0xbbf0621a	-0.0073359134
102	0x3d16e3f4	0.036838487
103	0xbd131578	-0.035909146
104	0x3b8503ca	0.0040592896
105	0xbe0d534f	-0.13801311
106	0xbdc21045	-0.094757594
107	0xbe1beafb	-0.15226357
108	0xbe6b03d6	-0.22950682
109	0xbe3505cf	-0.17677997
110	0x3d892bc0	0.06697798
111	0xbdf9cdc0	-0.12197447
112	0xbeabae1f	-0.3353128
113	0xbdf50670	-0.119641185
114	0xbdeb1014	-0.11477676
115	0x3e504065	0.20337065
116	0x3db6e7ce	0.08930932
117	0xbe751243	-0.23932748
118	0x3ea11236	0.31459206
119	0xbeadbe52	-0.33934265
120	0x3e2d7a7d	0.16941257
121	0xbe324766	-0.17410049
122	0xbe96d5ad	-0.29459897
123	0xbe8d35b0	-0.27580023
124	0xbe185d57	-0.14879356
125	0xba994fd3	-0.0011696763
126	0xbd33833e	-0.043826334
127	0x3f4720d3	0.7778446
128	0xbb85f66e	-0.0040882146
129	0xbe1888a1	-0.1489587
130	0xbd735670	-0.059408605
131	0xbe0338c9	-0.1281463
132	0x3df32a6f	0.11873328
133	0x3d7b2061	0.061310176
134	0xbe2b74d9	-0.16743793
135	0x3bbc37c3	0.005743952
136	0xbdd0cd65	-0.10195426
137	0xbd35e0b2	-0.04440374
138	0x3d8bc1f2	0.068241015
139	0xbe028607	-0.1274644
140	0xbc9408a0	-0.018070519
141	0x3e08c087	0.13354693
142	0xbdca8371	-0.09888352
143	0xbd1bb46f	-0.03801387
144	0xbe2f23f5	-0.1710356
145	0xbde26187	-0.11053758
146	0xbc882ab1	-0.01662192
147	0x3da18640	0.07886934
148	0xbcc32a4d	-0.023823882
149	0x3bada361	0.0052990173
150	0x3dc13660	0.09434199
151	0x3c442ad4	0.011973102
152	0xbd8b5292	-0.068028584
153	0xbdbc2dad	-0.091883995
154	0xbe5180ea	-0.20459333
155	0xbe5a8061	-0.21338035
156	0xbdde5c66	-0.10857467
157	0xbd13a61b	-0.036047082
158	0xbda1193d	-0.07866142
159	0xbe2a2bdb	-0.16618292
160	0xbd68f6ab	-0.056875866
161	0xbd9195be	-0.07108639
162	0xbe08f2e3	-0.13373904
163	0xbb6ef2da	-0.0036460669
164	0x3d6a9334	0.05726929
165	0xbcbae4e5	-0.022814224
166	0xbddb97d4	-0.10722318
167	0x3d9ff9da	0.07811327
168	0x3d1c2ba5	0.03812756
169	0xbbc748c6	-0.0060816733
170	0xbdd0f000	-0.10202026
171	0xbca70ea7	-0.020392729
172	0xbd6e9a42	-0.05825258
173	0xbccc337a	-0.02492689
174	0x3d9ec348	0.07752091
175	0xbe246f02	-0.16057971
176	0x3b86971b	0.0041073686
177	0xbe421ce6	-0.18956336
178	0x3d2f009f	0.0427252
179	0xbdbb5fe6	-0.091491506
180	0x3c9b3bb9	0.018949376
181	0xbcb75753	-0.022380507
182	0xbc09d416	-0.008412382
183	0xbde85d4c	-0.1134592
184	0x3c4248e9	0.011858203
185	0xbca064eb	-0.019579371
186	0xbeb0b86c	-0.34515703
187	0xbdda85ad	-0.10670028
188	0xbdff978f	-0.124800794
189	0xbd18293c	-0.0371487
190	0x3d9d00fd	0.07666204
191	0xbdae1c4e	-0.085014924
192	0xbda74408	-0.08167273
193	0x3d21f434	0.03953953
194	0xbda6d714	-0.08146492
195	0xbd496032	-0.049164005
196	0xbcd3f64c	-0.02587428
197	0xbdf7eedb	-0.12106105
198	0xbe01f688	-0.126917
199	0x3e14f5b6	0.14546856
200	0x3d97a135	0.07403795
201	0xbdcac20a	-0.09900291
202	0xbd19cee4	-0.037550822
203	0x3bc3460e	0.005959279
204	0xbe094237	-0.13404165
205	0x3cf1327c	0.029443018
206	0x3d6c0380	0.057620525
207	0xbd939878	-0.072068155
208	0xbd98cdcd	-0.074611284
209	0xbe48c859	-0.19607677
210	0x3d2ecbe9	0.042674933
211	0xbe2972a6	-0.16547641
212	0xbe32d205	-0.17462929
213	0xbe5f0b30	-0.21781611
214	0x3df2d0d7	0.11856239
215	0xbdb11715	-0.08646981
216	0x3cc25c70	0.023725718
217	0xbc84d671	-0.016215535
218	0x3d8f4b94	0.06996837
219	0x3d3edfbb	0.046600085
220	0x3d0b317a	0.03398273
221	0xbe2527dd	-0.16128488
222	0x3df6a656	0.12043445
223	0xbcdd57c1	-0.027019383
224	0x3d10d3da	0.035358287
225	0xbdac8c80	-0.08425236
226	0x3d231639	0.039816115
227	0x3dcf23e6	0.10114269
228	0xbdc37ad6	-0.095449135
229	0xbe2871bf	-0.1644964
230	0xbe04b735	-0.12960513
231	0xbda016e2	-0.078168646
232	0xbe0a630f	-0.1351435
233	0x3d7ec765	0.062201876
234	0xbe268175	-0.16260321
235	0xbdfee990	-0.12446892
236	0x3d7660db	0.060150962
237	0xbd8959f1	-0.06706608
238	0xbd925bd2	-0.071464196
239	0xbdd0a213	-0.10187163
240	0xbdc08df2	-0.09402074
241	0xbe06a2c5	-0.13148029
242	0xbe57de97	-0.21081005
243	0x3d7dc765	0.061957736
244	0x3d1f0049	0.03881863
245	0x3d1809a0	0.037118554
246	0xbda271f1	-0.07931889
247	0xbe470e43	-0.19439034
248	0x3c66f81c	0.01409724
249	0xbcaeb3b1	-0.021325918
250	0x3d97def3	0.07415571
251	0x3cd47d0e	0.025938537
252	0x3a3e39ad	0.0007256519
253	0x3d3adc42	0.04562021
254	0xbc73a970	-0.01487194
255	0xbb4abf7b	-0.0030936885

convs.2.att_src f4 [1, 2, 64]
0	0x3cb7dd55	0.022444407
1	0x3d3ac5de	0.045598857
2	0x3caae3f1	0.020860644
3	0x3dc9cea4	0.09853867
4	0xbe7c4614	-0.24636108
5	0x3c8778b3	0.016537046
6	0xbcfd7182	-0.030937914
7	0x3d9077c2	0.07054092
8	0x3c8fbf6b	0.01754733
9	0xbdc9bcd6	-0.09850471
10	0xbd22e2ba	-0.039767005
11	0x3bd15e48	0.006389413
12	0x3e6cc5d8	0.23122346
13	0x3e1964f3	0.14979915
14	0xbe6a177c	-0.22860521
15	0xbcb14981	-0.021641495
16	0xb9c7e574	-0.00038127194
17	0x3c423df1	0.011855588
18	0x3d7f85e5	0.06238355
19	0xbe4684dd	-0.19386621
20	0xbe614dee	-0.22002384
21	0xbe66e569	-0.2254845
22	0x3e3a464d	0.1819088
23	0x3e42f58b	0.1903898
24	0x3e89f07c	0.26941288
25	0xbbf6c98e	-0.0075313514
26	0x3ca4b2a8	0.020104721
27	0x3e330ae2	0.1748462
28	0x3dc354e0	0.09537673
29	0x3d2f8706	0.042853378
30	0x3ddf3396	0.10898511
31	0xbe207807	-0.15670787
32	0xbd2751a3	-0.04084934
33	0x3d932fe4	0.07186869
34	0xbe23836c	-0.15968102
35	0x3d537520	0.05162537
36	0xbc350448	-0.011048384
37	0x3c155f11	0.009116904
38	0x3dca92f4	0.0989131
39	0xbce7ba48	-0.028287068
40	0xbd0407ea	-0.03223411
41	0x3df918b0	0.12162912
42	0x3d7d9c33	0.06191654
43	0x3e912af7	0.28353092
44	0xbcc55824	-0.02408988
45	0xbd577f2d	-0.05261152
46	0xbbcb1d6a	-0.006198575
47	0xbd1dc76b	-0.038520258
48	0xbd5b88fe	-0.053597443
49	0x3af0d569	0.0018374148
50	0x3c06420e	0.00819446
51	0xbc86b399	-0.01644306
52	0x3ddb87b1	0.107192405
53	0xbe475ae1	-0.19468261
54	0xbd3199a1	-0.043359403
55	0xbe1ee3ee	-0.15516636
56	0xbe9f7518	-0.31144023
57	0x3d8047fc	0.0626373
58	0x3c9aec39	0.018911468
59	0x3d290e00	0.041273117
60	0x3c51955a	0.012791956
61	0x3c9d75b9	0.019221174
62	0x3a877b94	0.0010336512
63	0xbaf69b06	-0.0018814511
64	0xbd099155	-0.033585865
65	0xbc89ee85	-0.016837368
66	0x3e1b4ec0	0.1516676
67	0x3c85b0bf	0.01631963
68	0xbcafa441	-0.021440627
69	0xbcad702b	-0.02117165
70	0x3ddb73eb	0.10715469
71	0xbab62c29	-0.0013898659
72	0xbc15c5d2	-0.009141402
73	0xbdaafb7b	-0.08348747
74	0xbb719851	-0.003686447
75	0x3e099103	0.13434224
76	0x3e352bd0	0.17692494
77	0x3bda8c2a	0.006669541
78	0xbe0eb2f6	-0.13935456
79	0x3ddac478	0.10682005
80	0x3b4be124	0.0031109536
81	0xbdcfe683	-0.101513885
82	0xbe0e2768	-0.1388222
83	0x3da4688a	0.08027752
84	0xbe909507	-0.282387
85	0x3be402b8	0.006958332
86	0xbe10793d	-0.14108749
87	0xbd6d4605	-0.057928104
88	0x3c6e3e46	0.014541214
89	0x3ace56d6	0.0015742432
90	0x3e0b3eab	0.13598125
91	0x3d2e61ac	0.042573616
92	0x3cd5da06	0.026104938
93	0xbe71b36c	-0.236036
94	0xbe7183c7	-0.23585425
95	0xbe1c5352	-0.15266159
96	0xbe366826	-0.17813167
97	0x3c99fb5a	0.018796612
98	0xbb48dbe9	-0.0030648655
99	0xbe6c6193	-0.23084097
100	0x3da59251	0.08084548
101	0xbe9e6a4f	-0.30940482
102	0x3cfa2fcc	0.03054037
103	0xbe8e2332	-0.27761227
104	0xbdaf8cdf	-0.08571791
105	0xbe3b6dc1	-0.18303587
106	0xbdf73b6a	-0.12071879
107	0xbd36f2ef	-0.044665273
108	0x3de08b68	0.1096409
109	0xbe056398	-0.13026273
110	0xbce8d238	-0.028420553
111	0xbe5adedb	-0.21374075
112	0xbbb0f7b7	-0.0054006237
113	0xbe0e77c2	-0.13912871
114	0x3cabac78	0.020956263
115	0xbe3e0ece	-0.18560335
116	0x3df90bd2	0.12160458
117	0xbcc8ad58	-0.02449672
118	0xbe1c3d19	-0.15257682
119	0x3cdf73b4	0.027276851
120	0x3beb0b21	0.0071729575
121	0xbddd91d8	-0.10818833
122	0xbd8fa7f9	-0.0701446
123	0x3be5fa9f	0.0070184018
124	0x3ea5d346	0.3238775
125	0x3d5ff9ec	0.054681703
126	0xbe24fbec	-0.16111726
127	0x3d5bf366	0.05369892

convs.2.att_dst f4 [1, 2, 64]
0	0xbe89dd2c	-0.26926553
1	0x3db4e2aa	0.08832295
2	0x3e4de411	0.20106532
3	0x3e2e3d24	0.17015511
4	0xbe9fb963	-0.31196126
5	0xbef04273	-0.46925697
6	0xbe810100	-0.25196075
7	0x3d918797	0.0710594
8	0xbec4228c	-0.38307607
9	0x3e9968c1	0.29962733
10	0xbd97ba7e	-0.074086174
11	0x3dd1c955	0.10243479
12	0xbd7a9153	-0.06117375
13	0x3db3bd3d	0.08776329
14	0xbee50e00	-0.44737244
15	0xbe70cdf3	-0.23516063
16	0xbd841e7b	-0.06451126
17	0xbc23f5d0	-0.010007337
18	0xbea079cf	-0.31342933
19	0xbd8a4df7	-0.06753152
20	0xbe138c4c	-0.14408988
21	0xbe41020b	-0.18848436
22	0x3dadd15b	0.08487197
23	0xbdd8718f	-0.105685346
24	0x3e604baf	0.21903871
25	0x3ea551aa	0.32288867
26	0xbce50281	-0.027955296
27	0x3e06544f	0.13118099
28	0xbe5c5a9d	-0.21518941
29	0x3e55819b	0.20850222
30	0xbd64e5ce	-0.05588322
31	0xbe1d48ee	-0.15359852
32	0x3dcc27b4	0.0996851
33	0xbe3c59aa	-0.18393579
34	0xbe93619e	-0.28785414
35	0xbd3206c5	-0.043463487
36	0xbd900c4f	-0.07033598
37	0xbe15ebf0	-0.14640784
38	0xbe03f065	-0.12884672
39	0xbd9e3821	-0.077255495
40	0xbdf3b52e	-0.11899792
41	0xbe45e181	-0.19324304
42	0xbe354711	-0.17702891
43	0xbf047a4f	-0.5174913
44	0xbd2b59db	-0.04183374
45	0xbe5def84	-0.21673399
46	0x3d87c03b	0.06628462
47	0x3f49f920	0.7889576
48	0xbe3681f4	-0.1782301
49	0x3e1dbb46	0.1540347
50	0xbd34b808	-0.04412082
51	0xbe070a74	-0.13187581
52	0x3cba7d36	0.022764783
53	0xbdb2fe99	-0.08739967
54	0x3e574d87	0.21025668
55	0x3e1f30c0	0.1554594
56	0x3e5c32d4	0.21503764
57	0xbe17f2d5	-0.14838727
58	0xbe5af230	-0.2138145
59	0xbd8f2c6b	-0.06990894
60	0xbdd20b8f	-0.10256111
61	0x3d28dbcf	0.04122525
62	0xbd6dccab	-0.058056515
63	0xbe13f20e	-0.14447805
64	0xbe002fb0	-0.12518191
65	0xbd4dfadb	-0.050288063
66	0xbeb05c00	-0.3444519
67	0xbe957a60	-0.29194927
68	0xbe48351f	-0.19551514
69	0xbe90a855	-0.28253427
70	0x3e1a82e7	0.15088998
71	0xbe772988	-0.24136937
72	0x3d300a26	0.04297843
73	0xbdea92af	-0.11453759
74	0xbd070754	-0.032965973
75	0x3bbe7366	0.0058120964
76	0xbe0f1fc9	-0.13976969
77	0xbd7c4328	-0.061587483
78	0x3d75b67b	0.05998848
79	0xbe06e7c6	-0.13174352
80	0xbec728fc	-0.38898456
81	0xbe9d7b8b	-0.30758318
82	0xbd9ad4b7	-0.075601034
83	0x3e49fc99	0.19725265
84	0x3e226994	0.15860587
85	0xbc806255	-0.015671888
86	0xbd8eb8f2	-0.06968869
87	0x3e7f0b06	0.24906549
88	0x3b890e7a	0.004182634
89	0x3d1385e4	0.03601636
90	0xbe926828	-0.2859509
91	0xbefcb0d1	-0.4935365
92	0xbd8f2acd	-0.069905855
93	0xbe3f8388	-0.18702519
94	0xbe331428	-0.17488158
95	0x3e4c65ed	0.19960757
96	0xbe79507c	-0.24347109
97	0xbe401127	-0.18756543
98	0xbe0be90e	-0.13663122
99	0x3e8b7954	0.27241004
100	0xbd737864	-0.059440985
101	0xbecb81cb	-0.39747462
102	0xbedaa647	-0.42704985
103	0xbea9718e	-0.33094448
104	0xbd412316	-0.0471526
105	0xbde04ef7	-0.10952561
106	0x3e518354	0.20460254
107	0x3e4740d3	0.19458322
108	0xbd296220	-0.041353345
109	0xbe896682	-0.2683602
110	0x3dc26033	0.09491005
111	0xbe83a74e	-0.2571358
112	0xbf1b184b	-0.60583943
113	0x3e938795	0.28814378
114	0x3e30b61c	0.17256969
115	0xbe88bcf8	-0.26706672
116	0x3c69c6e8	0.014268614
117	0x3dbb1324	0.0913451
118	0xbe90103d	-0.2813739
119	0x3e8e2b70	0.27767515
120	0xbe9f5f0b	-0.311272
121	0xbeb6c938	-0.35700393
122	0xbe9c88db	-0.30573162
123	0x3e20651f	0.15663575
124	0xbdce1ec7	-0.10064464
125	0xbe975fc1	-0.29565242
126	0xbe701a56	-0.23447546
127	0xbeca426a	-0.39503795

convs.2.bias f4 [128]
0	0xbd0890be	-0.033341162
1	0xbd7647c8	-0.06012705
2	0xbd932fd7	-0.07186859
3	0xbd399511	-0.045308176
4	0xbc84e833	-0.016224002
5	0xbd89ffee	-0.06738268
6	0xbd7fa27f	-0.062410828
7	0xbda5bc3d	-0.08092544
8	0xbdbf6f0c	-0.093473524
9	0xbdce370f	-0.10069095
10	0xbd8fbbc4	-0.07018235
11	0xbd7cf044	-0.061752573
12	0xbd8a7f45	-0.06762556
13	0xbe52aaf8	-0.20573032
14	0xbd81d89d	-0.06340144
15	0xbd71bf4b	-0.05902032
16	0xbdce63cd	-0.10077629
17	0xbe2caf65	-0.16863783
18	0x3ea7b019	0.3275154
19	0xbd867a87	-0.06566339
20	0xbd6d474c	-0.057929322
21	0x3c30ce44	0.010791365
22	0xbd705e66	-0.058683775
23	0xbd761669	-0.060079966
24	0xbded3765	-0.11582831
25	0xbe18b337	-0.14912115
26	0xbd7a6815	-0.061134417
27	0xbd76b30f	-0.060229357
28	0xbd35f93d	-0.044427145
29	0xbd8968be	-0.06709431
30	0xbd764edb	-0.060133796
31	0xbd399975	-0.045312364
32	0xbd22c3a8	-0.039737374
33	0xbd2de413	-0.042453837
34	0xbd189601	-0.03725243
35	0xbc4ecd6c	-0.012622219
36	0xbdb91230	-0.09036672
37	0xbda002d2	-0.07813038
38	0xbdd15f8f	-0.102233045
39	0xbd2601ce	-0.040529065
40	0xbd762d8a	-0.060102023
41	0xbd152707	-0.036414173
42	0xbd49c51e	-0.04926025
43	0xbd767843	-0.060173284
44	0x3d9fd920	0.07805085
45	0xbdd43693	-0.10361972
46	0xbccf6f31	-0.025321575
47	0xbe8d56e2	-0.2760535
48	0x3d36cbc6	0.044627927
49	0x3cb45e08	0.022017494
50	0xbd958f1b	-0.07302686
51	0xbd958c25	-0.07302121
52	0xbd2250d8	-0.03962788
53	0xbd665048	-0.056228906
54	0xbd3bbfb0	-0.045837104
55	0x3e9e5227	0.30922052
56	0xbd1e7823	-0.03868879
57	0xbd8f982f	-0.070114486
58	0xbd19d0b2	-0.037552543
59	0xbd795439	-0.060871337
60	0xbd6e38a4	-0.058159485
61	0xbd0a9631	-0.03383464
62	0xbdba7c26	-0.09105711
63	0xbd8ee56c	-0.069773525
64	0xbd64c351	-0.05585033
65	0xbc4497c4	-0.011999074
66	0xbd82176e	-0.06352125
67	0xbd9391c4	-0.07205537
68	0xbd7895d2	-0.060689755
69	0xbd78b7c6	-0.060722135
70	0xbd3498a8	-0.044090897
71	0xbd762b69	-0.060099993
72	0xbd63e00b	-0.055633586
73	0x3d271e46	0.040800355
74	0xbd2377e2	-0.03990925
75	0x3e9808d0	0.29694223
76	0xbda8c58d	-0.08240805
77	0xbcb78ba5	-0.022405455
78	0xbcbff88f	-0.023433952
79	0x3e77a346	0.24183378
80	0xbd6a4aec	-0.057200357
81	0xbd203d04	-0.03912069
82	0xbd64be7f	-0.055845734
83	0xbc938a79	-0.018010365
84	0xbd1de620	-0.038549542
85	0xbce336b1	-0.02773604
86	0xbdabc824	-0.08387783
87	0xbd762fc0	-0.06010413
88	0xbd024451	-0.031803433
89	0xbe922aac	-0.2854818
90	0xbd769648	-0.060201913
91	0xbd75fc37	-0.060054984
92	0xbd851918	-0.06498927
93	0xbd19294d	-0.037392903
94	0xbda79b98	-0.08183974
95	0xbd6773b5	-0.05650683
96	0xbda7970b	-0.08183106
97	0xbdc7cfb2	-0.097564116
98	0xbdc91fb5	-0.09820501
99	0x3e018d9b	0.12651674
100	0xbddf1de5	-0.10894374
101	0xbca7637c	-0.02043318
102	0xbdc591cd	-0.0964695
103	0xbf111082	-0.56665814
104	0xbd1823dd	-0.037143577
105	0xbd767e0f	-0.060178813
106	0xbce4b9ab	-0.027920565
107	0x3bfdbe75	0.0077436515
108	0xbd3fb550	-0.046803772
109	0xbdb127e9	-0.086501904
110	0xbd1cc316	-0.038271986
111	0xbdc3c1d1	-0.09558452
112	0xbd772cb0	-0.06034535
113	0xbede29b8	-0.43391204
114	0xbc680a40	-0.0141626
115	0x3d881447	0.066444926
116	0xbd78b594	-0.06072004
117	0xbe579889	-0.21054281
118	0xbd21ad72	-0.03947205
119	0xbd91688c	-0.07100019
120	0xbcd19cc7	-0.025587453
121	0xbcfe8c3a	-0.031072725
122	0xbd8c18e6	-0.068406865
123	0xbd971df6	-0.073787615
124	0xbe1cad33	-0.15300445
125	0xbd46d726	-0.048545025
126	0xbd0dc488	-0.034611255
127	0xbd66ac09	-0.05631641
