Models/ewi02kvy_best_model.pth (torch, 277234 bytes, 11 tensors)

gnn.convs.0.bias f4 [128]
00000000: b341 63be 9d58 24be 0000 0000 b607 88be
00000010: 9d52 173f 9f4d 07be 0a52 c5bf e544 0abf
00000020: 0000 0000 0000 0000 f6f5 c03e 4fd4 a03e
00000030: 4b5d 98bd f682 3e3f 3b7d 16bf a572 093e
00000040: ef33 0cbf 2ae1 79bd 5614 a13e 0000 0000
00000050: 8b22 9bbd 0000 0000 0000 0000 0000 0000
00000060: fcec 1ebe 4d80 2cbd 0000 0000 187d cabe
00000070: dd5e 62bd 7076 46bd 978f 04bd 313b 63bd
00000080: 0000 0000 9250 76bd 8e73 b33d 0000 0000
00000090: 2c11 df3e 4562 a4be 9493 61be 0000 0000
000000a0: 7b3e 3bbd 0000 0000 4b22 7cbf 9416 243e
000000b0: 0e16 193f 0000 0000 0000 0000 5f72 86bf
000000c0: d913 8bbd 0000 0000 0000 0000 0000 0000
000000d0: 0000 0000 272f e63e e900 e33e 64b4 73bd
000000e0: 7a17 03bf 0000 0000 0000 0000 73a3 b2bd
000000f0: 0000 0000 0000 0000 528f 0dbe a22e 85bd
00000100: e43b 7ebd 546b 05bd 1457 f8be 0000 0000
00000110: d639 a8bd 1020 77bd 5dac 82be d947 e7bd
00000120: b538 243d 6f13 5ebd 0000 0000 0000 0000
00000130: 0000 0000 673c 3bbd e1a4 72bd 0000 0000
00000140: 2946 71bd 9339 913f bff5 043f 6c46 61bd
00000150: 0aca 03be c8b2 d53c c336 52bd 761d a6bd
00000160: 9de2 c03e 33a0 94bd 76bc fc3f 1a90 17bd
00000170: 23f7 6ebc 0000 0000 f27f f0bc ab9c 08bd
00000180: 0000 0000 0000 0000 f27b 933a 4d87 053d
00000190: 8432 c13e 8f54 b1bf 0000 0000 b9c9 ca3e
000001a0: 0000 0000 da31 013e 0000 0000 d262 8fbd
000001b0: 1d8c a1bd a744 b43f 0000 0000 35bc ce3d
000001c0: fd06 eabc 8b66 6bbd cfd6 77be f53d d8be
000001d0: f6bc 233e 4d87 85bd 0000 0000 bdff 493e
000001e0: 0000 0000 0000 0000 76be 243d 0000 0000
000001f0: 4995 76bf b977 993c 0cf8 c0bd 4984 75bd
-0.22193031 -0.16049428 0.0 -0.26568383 0.5911043 -0.13213204 -1.5415661 -0.54011375
0.0 0.0 0.37687653 0.3141198 -0.07439669 0.7441858 -0.58784837 0.1342264
-0.54766744 -0.06100575 0.31460828 0.0 -0.07574948 0.0 0.0 0.0
-0.1552009 -0.042114545 0.0 -0.39548564 -0.05526625 -0.048452795 -0.0323635 -0.05547637
0.0 -0.06013543 0.08762275 0.0 0.4356779 -0.32106224 -0.22028953 0.0
-0.045713883 0.0 -0.98489827 0.16024238 0.5979928 0.0 0.0 -1.0503653
-0.06790895 0.0 0.0 0.0 0.0 0.4495785 0.44336632 -0.059498206
-0.512077 0.0 0.0 -0.08722582 0.0 0.0 -0.13824204 -0.06503035
-0.062068835 -0.03257306 -0.48503935 0.0 -0.08214156 -0.06033331 -0.25522128 -0.11293001
0.040093143 -0.054217752 0.0 0.0 0.0 -0.0457119 -0.059239272 0.0
-0.0589048 1.1345695 0.5193748 -0.0549988 -0.1287004 0.026086226 -0.051321756 -0.08111088
0.37672892 -0.07257118 1.9745014 -0.03700266 -0.014585289 0.0 -0.029357884 -0.033352535
0.0 0.0 0.0011252149 0.032599736 0.37733853 -1.385393 0.0 0.39607027
0.0 0.12616673 0.0 -0.0700127 -0.078880526 1.4083451 0.0 0.100944914
-0.028567785 -0.05747084 -0.24203037 -0.4223477 0.15990052 -0.06519947 0.0 0.19726463
0.0 0.0 0.0402207 0.0 -0.9632154 0.018733846 -0.09422311 -0.05994061

gnn.convs.0.lin.weight f4 [128, 9]
00000000: e059 353e 5cce c0be 1d28 bbbe c485 adbe
00000010: 2cf1 af3c e5bb a6be d018 a8bc 4b1c afbe
00000020: f009 24be 73f3 77be 57b6 6f3e 51ce 663e
00000030: 8451 4e3e 1372 f1bc 5835 81be e3cf 963d
00000040: 5846 593d ce6b 97bf ca6a a93b 2c6d b7bd
00000050: 2d7c 5abd f5a3 a53d af17 0cbd 46d4 2cbe
00000060: a247 4dbe d25f 343d d765 31be 40b7 82be
00000070: a5df 8c3c 5161 ab3d ed7b 723e 7230 023e
00000080: b012 cdba dbc5 f13d 8386 973e c9bc 25c0
00000090: 91d5 5e3e f2f4 1e3f 652f 4bbb 3331 9bbd
000000a0: d4fa 16be 3412 aa3e c0c9 b4bd e972 abbe
000000b0: 131c 433f e729 e13c dd30 e2be 8a52 77bc
000000c0: a077 84bc c21e b3bd eaec 49bd 9332 af3d
000000d0: 2c32 85be beb2 9b3f 2499 b9be 9f90 a1be
000000e0: 3c09 803f a0c4 923f e6c7 323e 368e 9dbd
000000f0: 3e34 023e 26b8 0c40 db6d 71c0 ee5c 8bbe
00000100: 3799 8a3d 0fa0 8b3e 1ba1 ed3e 6e06 003e
00000110: f57a 93bd 9750 f23d a0eb 393f c09c 24c0
00000120: ce52 9a3c 6b29 88bc e6fd 2b3d b843 bcbd
00000130: e08e 483c 3c77 823d a6c2 41be 2bb9 bd3d
00000140: 30e5 c1bc 9a03 20be 7a1c b3bd e98e e7bd
00000150: 172f c63c 52d2 1dbe c01f 0fbe 795b 1bbe
00000160: 7650 b73d a3f1 213e b303 423d 4a5f 9ebd
00000170: cc55 c3bd 0664 9ebd 5626 bebc 0fca bebe
00000180: 2bec 3c3c 6247 80bd ea23 2f40 8cba 59be
00000190: ede9 acbc 2c56 963d 0255 293e 1489 04be
000001a0: 116e fe3d cc07 a23d 2a32 913e a482 0d3f
000001b0: 8d0c ecbd 8c24 84be 2efb dcbd 3754 3d3e
000001c0: 359d 4cbd b098 ccbd 99ac fd3d 0ef9 0b3c
000001d0: 84f0 363f bd0e 83be 3ad6 5c3d fc0f 44be
000001e0: 45bb 86be 4147 c1be 3bf0 063f 7bc7 633e
000001f0: 51f4 2e3f 1085 65bf 6353 25bf e878 963f
00000200: 1f92 9d3e a623 4e3e ebbf c93d f0eb 673f
00000210: c731 0f3e 6b33 a83f 542c 08c0 f5c5 993e
00000220: 5cb3 86be e30d 92bd 5b68 f43c 3386 bfbe
00000230: 130d e03c 5e6d ae3d d2b0 70be 47c9 ed3f
00000240: 4bdc 6abe 11d6 6f3e 84e4 0f3e bcb9 363e
00000250: bda8 b23e 01de 0c3f d1f6 6cbd a5c3 a73e
00000260: 9af9 24c0 dba0 1bbe c693 59bd 2e11 67be
00000270: 4795 cfbd 12d7 b73c e5f2 c5bd c166 4abd
00000280: de61 82be 69c6 8bbe e0b9 223e af1b ba3d
00000290: fae6 b0be b264 97be ba86 a8be 72ca 183e
000002a0: a5b2 ee3d 0385 36be b172 5dbf cbe2 f7bd
000002b0: 14f1 37be 86c6 2abe edf1 003e 350b 98bd
000002c0: e2b8 063d ec73 efbc e1b3 29be 9136 af3d
000002d0: 5e3e 5bbe f8a0 9c3d 6e90 17be 9606 10be
000002e0: bb95 4dbe 61d0 5cbd 52b8 4dbd 91a4 763b
000002f0: 1158 aabb 7202 0fbe dfc7 173e 3bdb 193d
00000300: be1a 283e cfc8 393e 2c08 24bd ac38 47be
00000310: 5914 dabc df1a aebc 5939 8dba 9a8e 013e
00000320: 34c5 b63d b60c f63d b1a0 1ebe 6362 4a3e
00000330: e15f 54be 1184 c93d b8b8 09be aa20 cdbd
00000340: 1610 4e3e dad6 4f3d 8c2d fcbd a8bf d2bd
00000350: 6268 91bd e9a8 21be 78e2 a9bd 3155 3abd
00000360: 9cad af3d 90d5 55be aefc c13d 1c93 893c
00000370: 6299 67be f3b8 b7be ca7b 133e 2116 4fbe
00000380: 8199 8a3f 4ca1 58bd 51b1 f93d ed85 1abe
00000390: 39f8 45bd 6958 05be a1bd c43d 1114 0abe
000003a0: b439 0e3e 54d0 9a3d f59d 35be 36c8 d9bd
000003b0: 9e33 14be b7a6 993d 0b62 00bd 2350 61bd
000003c0: 762f 12be 574a 39be ba7e 4e3e 99e5 54bf
000003d0: 83bb 2dbf 641a 3f3f c3fc 383f 8881 013f
000003e0: bd8a 6a3e 9d22 873e 5ec8 983f a201 42c0
000003f0: 2890 2bbe c8b9 cc3d 9884 2dbe 37f0 5b3c
0.17710066 -0.3765744 -0.36554042 -0.33891118 0.021477304 -0.32565227 -0.020519644 -0.34201273
-0.16019416 -0.24213962 0.23409401 0.22539641 0.20148283 -0.02947334 -0.2523601 0.0736387
0.0530456 -1.1829774 0.005170201 -0.0895637 -0.05334108 0.08087913 -0.034202274 -0.16877851
-0.20046857 0.044036694 -0.17324005 -0.25530434 0.017196486 0.08368171 0.23680086 0.12713793
-0.0015645828 0.11805316 0.29594812 -2.5896475 0.21761157 0.62092507 -0.003100359 -0.075777434
-0.14744121 0.33217013 -0.08827543 -0.33486107 0.7621471 0.0274858 -0.44177905 -0.015095362
-0.016170323 -0.08746101 -0.049298204 0.08554568 -0.2601484 1.2163923 -0.3624965 -0.3155565
1.0002818 1.1466255 0.17459068 -0.0769314 0.12715241 2.1987395 -3.77233 -0.27219337
0.06767505 0.27270553 0.46411976 0.12502453 -0.072011866 0.118317775 0.7262516 -2.5720673
0.018838312 -0.016621312 0.041990183 -0.09192604 0.012241095 0.063703984 -0.18921909 0.092638336
-0.023668855 -0.15626374 -0.08745666 -0.11306555 0.024192376 -0.15412262 -0.13976955 -0.15171613
0.089508936 0.15814833 0.04736681 -0.07733019 -0.09537849 -0.07733922 -0.02321164 -0.37263533
0.011530916 -0.06263615 2.736567 -0.21262568 -0.021107638 0.07340655 0.16536334 -0.12942916
0.12423337 0.079116434 0.28358585 0.55277467 -0.11525831 -0.25809133 -0.10790096 0.18489157
-0.04995461 -0.0999006 0.12386436 0.008543266 0.7146075 -0.25597182 0.05391524 -0.19146723
-0.2631475 -0.37749675 0.5271031 0.22244065 0.6834155 -0.8965616 -0.64580363 1.1755648
0.30775544 0.20130786 0.098510586 0.9059439 0.13983832 1.3140692 -2.1277056 0.30033842
-0.26308715 -0.07131555 0.029834917 -0.37407073 0.027349984 0.08516954 -0.23504952 1.857705
-0.22935598 0.23421504 0.14052016 0.1784429 0.34894362 0.5502625 -0.05785257 0.32766452
-2.5777345 -0.1519808 -0.053119443 -0.22565147 -0.10135894 0.02244142 -0.09665469 -0.0494144
-0.25465292 -0.27299812 0.15891218 0.090873115 -0.3455122 -0.29569012 -0.32915288 0.14920977
0.116551675 -0.17824177 -0.8650313 -0.12103804 -0.17963058 -0.16677293 0.12592287 -0.074240126
0.03289116 -0.02923008 -0.16572525 0.085553296 -0.2141051 0.0764789 -0.1480119 -0.14065012
-0.20076649 -0.053909663 -0.05022461 0.003763471 -0.0051984866 -0.13965777 0.14822339 0.03756259
0.16416451 0.18143009 -0.040046856 -0.19455212 -0.02662103 -0.021253048 -0.0010774537 0.12652054
0.08924332 0.12014143 -0.15490986 0.19764094 -0.207397 0.09839643 -0.13449371 -0.10015996
0.20123324 0.050742008 -0.12313375 -0.10290462 -0.070999876 -0.1578709 -0.082951486 -0.0454914
0.08578035 -0.20882249 0.09472023 0.01679378 -0.22617105 -0.35883293 0.1440269 -0.20223285
1.0828096 -0.0528882 0.121920235 -0.15090151 -0.048332427 -0.13022007 0.09606481 -0.13484217
0.138892 0.07559267 -0.17736037 -0.1063389 -0.14472815 0.075025015 -0.0313435 -0.055008065
-0.14275917 -0.18094765 0.2016553 -0.8316284 -0.67864245 0.74649644 0.72260684 0.50588274
0.22904487 0.26393595 1.1936147 -3.0313497 -0.1675421 0.099963725 -0.16945112 0.013423971

gnn.convs.1.bias f4 [128]
00000000: 0444 223c 9beb 8ebd 7d15 8ebd 676f 1ebd
00000010: f52a 74bd 7af9 94bc add2 43bd 95a7 aebd
00000020: ba94 a7bd df3e c1bc bca7 29bd bc39 033d
00000030: 0000 0000 fcfc 5dbd b2f8 75bd b73b 65bd
00000040: 0d27 3abe 795e 78bd 38f8 44bd 4ba5 1cbd
00000050: 108f 83bd 24a9 44bd 2906 3d3f f866 2abd
00000060: 8c34 39be abf7 a8bd 1b12 29bd 6939 40bd
00000070: 00e2 75bd 548d 09be ff5a ae3e 3095 93bd
00000080: 1d51 0cbd a450 69be 01d9 76bd d5f9 75bd
00000090: c01b 64bd c8f1 b1bd 4971 c2bb fdcd 52bd
000000a0: f173 3ebd 1dc6 6dbd 021e 52bd 5817 e8bc
000000b0: ddc2 75bc a8d6 5dbd d9a0 a9bd a8fb 75bd
000000c0: 7704 a0bd bf58 13be 08ae 2fbd 1fed 81bc
000000d0: 87df 32bd 1bf6 75bd d808 b0bd 4f70 f23c
000000e0: baef 75bd 5e1f 27bd 6674 98bd 3ae2 0bbd
000000f0: d9fb 75bd 8ef4 3abd abf8 75bd 1b31 4dbd
00000100: a07b c4bd 60bd 21bd eaf9 75bd 552b 22bf
00000110: 8134 93bd ff5b 50bd bdc4 7ebd b901 8dbd
00000120: 4c47 a6bd 0f31 23bd 0dfc 75bd 8481 fbbd
00000130: 2ac0 b6bd 3792 e0ba e5de b2bd 0000 0000
00000140: 6983 55bd adfa 75bd 2586 71bd 6662 36bd
00000150: 82a2 c93c 8d26 9abd 2fe6 5dbe a180 48bd
00000160: d8ec e4bc e52d 65bd 97a0 3fbd 5d34 1b40
00000170: 61c3 3bbd 9b45 8bbc fdf5 75bd 7a55 8bbd
00000180: 384b f53f 0183 60bd 9682 20bd 91ab 10bd
00000190: 63cb 85bd 15fc 75bd 670a 83bd f8b8 d2bd
000001a0: 0000 0000 7f64 81bd eff8 75bd 9fbf 1cbd
000001b0: deb8 42bd af8d 87bd 4a4c 30bd 7ca3 8bbd
000001c0: 36de d2bd 668c a0bd 49e4 b33e bb93 71bd
000001d0: 3d87 ea3e 9afb 75bd e6fa 75bd 6d0c e6bd
000001e0: 8d96 83bd 6ae0 52bd 1119 39bd feb3 c2bd
000001f0: d257 89bd c9e1 b6be 1471 3fbd a5c5 73bd
0.0099039115 -0.06978532 -0.06937692 -0.03868046 -0.05961128 -0.018185366 -0.047808338 -0.085280575
-0.08182664 -0.02358955 -0.04141973 0.03203748 0.0 -0.054196343 -0.060051627 -0.05596515
-0.18178959 -0.06063697 -0.048088282 -0.038243573 -0.064237714 -0.048012868 0.73837525 -0.041602105
-0.18086451 -0.08250364 -0.041277032 -0.04692975 -0.060029984 -0.13432819 0.340538 -0.0720619
-0.034257043 -0.22784668 -0.060265545 -0.06005271 -0.055690527 -0.08688694 -0.005933915 -0.051465977
-0.04649729 -0.058050264 -0.05129815 -0.028331444 -0.015000072 -0.05415979 -0.082826324 -0.06005445
-0.078133516 -0.14389323 -0.04289058 -0.015860138 -0.043670204 -0.060049158 -0.08595437 0.029594569
-0.060043074 -0.0408014 -0.07444076 -0.034151293 -0.060054634 -0.04564338 -0.0600516 -0.05009566
-0.09593892 -0.039487243 -0.06005279 -0.6334737 -0.07187749 -0.050868984 -0.062199343 -0.06885094
-0.081190675 -0.039841708 -0.060054827 -0.122805625 -0.08923371 -0.0017133419 -0.0873392 0.0
-0.052127276 -0.060053516 -0.05896582 -0.044527434 0.024613623 -0.07526884 -0.2166984 -0.048950795
-0.027944967 -0.05595197 -0.04678401 2.425071 -0.045840625 -0.017000964 -0.060049046 -0.06803413
1.916358 -0.054812435 -0.039187036 -0.03531987 -0.065329336 -0.060054857 -0.063984685 -0.10289186
0.0 -0.06317996 -0.060051855 -0.03826868 -0.047539584 -0.06618821 -0.043041505 -0.068182915
-0.102962896 -0.07839279 0.35135105 -0.058978777 0.45806304 -0.0600544 -0.06005373 -0.11232839
-0.064252 -0.05148355 -0.04518992 -0.09506987 -0.067062035 -0.35719135 -0.0467387 -0.05951466

gnn.convs.1.lin.weight f4 [128, 128]
00000000: a098 dd3c c2c9 99bd a0dc 0e3d 90d0 b03c
00000010: df05 84bd 31c0 52bd ce08 fbbd 8d6b 96be
00000020: 0270 13be 8803 73bb 208d b1bd 60c9 ccbf
00000030: bbbf c0bd 3634 aabd d37a 653d d967 843b
00000040: 074b da3e 233c 403e 9d20 2bbe 4d75 4bbd
00000050: 7f63 fbbd 10b1 c7bd c62c 993d e5df 8bbd
00000060: 507a 51be 0b24 40bd 0646 9abd 7109 8a3e
00000070: 0b8d 233e d193 85bd 7a8c 473e bacb 09be
00000080: 8330 98bb 7378 7ebd cd17 8ebe 1310 c0bc
00000090: 0c5e 513c b4fa 3a3c 85c4 82be 8743 e3bd
000000a0: fb30 9f3c 8a4d a5bb a5e4 b23e c67b 803c
000000b0: cc05 04bf 9216 8fbd 1c44 aebd 3c6e a4be
000000c0: 8065 04be c113 7ebc 0b37 073d 0143 d03d
000000d0: 814d 983d c3d0 84bd 4eba d4bc d6e1 1bbe
000000e0: 2bc4 31be 0aa7 eabd 9264 1a3e 9b35 91bd
000000f0: 037d 2a3d d593 fc3c 2ef3 c33d 2206 66bd
00000100: 7035 e63d 48f3 d2bd 8665 02be a16f 033e
00000110: f0fc f53c f77b f8bd 869d 09bc 71f3 d8bd
00000120: d342 cc3d 891a 18be d3d7 2dbd 9b82 913d
00000130: edb5 4dbd 552d 67be 4fa8 993d fb04 6bbd
00000140: afe9 8cbd 3f2b efbe 4b58 483e da27 e33c
00000150: d937 163e 680d 5cbd 3d70 2fbe 0164 f83d
00000160: 257e 763e 586c 083d 95e0 123d 010a acbc
00000170: 14a4 b93c dca8 d33d 5fe0 df3c d948 6f3d
00000180: cb66 f13a 4edf a9bd 1344 22be 180e 88be
00000190: 4698 c4bc 23c9 99be b46b 823d 0831 293e
000001a0: 485b c43d effb a1bc e151 c9ba 299c 2a3e
000001b0: 11c1 b13d c280 cbbe 3e25 fabc 28e4 95bd
000001c0: 95fd 543b 4ec4 66bd 2885 223e 60e2 25bc
000001d0: 80ca 373e eaf8 0bbe 57c5 963d a2bf 2bbe
000001e0: 7302 c5bd 34b5 c3bd 86d2 583e 09e6 ca3d
000001f0: b08a 9e3e 31b4 85be 1ccb fabd daf3 0cbe
00000200: 0adb 4a3c 5493 363b edb2 8cbd a067 b3bd
00000210: 52b4 723d 853a 57bc 37c3 14bd 498f 77bc
00000220: 69b4 0fbd 0a6d 723d c377 38be 3b55 1ebe
00000230: ace1 a13d 40f4 13bd b8f7 97bc d0ae abbd
00000240: 0e0f babd 6f41 113e a02a 633c 7d1c cf3d
00000250: 9aa5 22be 3906 03be 8a6b b03d 408a ebbc
00000260: 6d22 9ebd 4f02 f93d 7a68 c43d bbd0 873d
00000270: 4b2b 86bd 271b a73c 0c49 f2bd 34b3 8e3d
00000280: fd3f 1abe 225b 153e 6d79 1bbe c789 843d
00000290: 11a0 723c 614e bdbd 5cc9 943d 25ee 243d
000002a0: 0784 833d 3efd 8fbd 7114 a5bc d9cf 19bd
000002b0: 2e8b 673c 54d8 d4bd f156 b33d fd0f a6bc
000002c0: 459f 02be 1990 42bd d793 10be 6733 02be
000002d0: 9caf 01be e406 bb3d b837 d5bd 9547 003d
000002e0: 16b1 3abe 780b d73d aad6 f03d f6f4 323c
000002f0: 2acd ab3c d422 efbd f1bf 99bd 500a 80bd
00000300: 3592 55be dcfb 68bc 4689 2bbe e2d2 f03d
00000310: f627 e2bd 5b90 11be 830c 3cbd dbba 16bd
00000320: 03d1 47be 2189 95bc 80fa ac3d 0920 29bd
00000330: 3cfa febd c47f b53c d07f 0bbe 6a19 05be
00000340: 1267 ae3d 8db2 943d 5a08 a7bd 69d6 14be
00000350: 1171 cabd 55cc 16be 7abb 883d 6a35 693d
00000360: 37e8 26bd b15a 2cbe 65c8 b03a 3a9b 15be
00000370: f04d 6ebd 2652 d3bd 5c0a 25bd 2675 0bbe
00000380: c1d6 023e 1778 56bc 2d82 6d3d 20ee ffbd
00000390: 715a 35be d6bf 7c3d f7fa d1bd 9555 2bbd
000003a0: 9db9 8cbd d8a6 863d dcc0 5bbd 0c1d e93d
000003b0: e593 f1bd deb7 523d f087 75bd d2f5 fd3c
000003c0: 8d52 623d cab5 71ba c87c 14be 74d3 363d
000003d0: 623f 4ebe 404f f0bd 2a34 f0bd 124d 37be
000003e0: 7066 90bd eb5b 013d 705b b0bd 3ab5 7abc
000003f0: dddf c53c 73cd 973d ea40 2e3d afe2 92bd
0.027050316 -0.075091854 0.034878373 0.021583825 -0.06446432 -0.05145282 -0.12257539 -0.2937893
-0.14398196 -0.0037080962 -0.086694956 -1.5998955 -0.0941157 -0.0831074 0.056025337 0.0040407
0.42635366 0.1877294 -0.1671166 -0.049672414 -0.12274837 -0.09750569 0.07479243 -0.06829814
-0.20456815 -0.046909373 -0.07532887 0.26960328 0.15971772 -0.06522334 0.19487181 -0.13456622
-0.004644455 -0.062126588 -0.27752534 -0.023445165 0.01277877 0.011412311 -0.25540558 -0.11096864
0.019432535 -0.005044644 0.34940067 0.01568402 -0.51571345 -0.06986727 -0.085090846 -0.32115352
-0.12929344 -0.015507639 0.033011477 0.1016903 0.07436658 -0.06485131 -0.025967743 -0.15222868
-0.17359988 -0.114576414 0.15077427 -0.070903026 0.041623127 0.03083221 0.09567867 -0.056158192
0.11240661 -0.103003085 -0.1273404 0.12835552 0.030027837 -0.121330194 -0.008399373 -0.10593308
0.09973683 -0.14853872 -0.042442154 0.07104989 -0.050222326 -0.22575887 0.075028054 -0.057377797
-0.06880509 -0.46712682 0.19564931 0.027728964 0.14669742 -0.053723723 -0.1713266 0.12128449
0.24071558 0.03330645 0.03585871 -0.021000864 0.022661246 0.10334942 0.027328668 0.058419082
0.0018417476 -0.08294545 -0.15846281 -0.26573253 -0.02399839 -0.30036268 0.06368199 0.1652261
0.09587723 -0.019773452 -0.0015359485 0.16661133 0.086794026 -0.39746672 -0.030535337 -0.07318908
0.003249978 -0.056339554 0.15871108 -0.010124773 0.17948341 -0.13669172 0.07361858 -0.16772321
-0.09619608 -0.09556046 0.21174058 0.09907157 0.30965185 -0.26114038 -0.12245771 -0.13764897
0.012381325 0.002785881 -0.06870065 -0.08759999 0.059253998 -0.013136511 -0.036318984 -0.015109845
-0.035084162 0.05918602 -0.18014435 -0.154622 0.079043716 -0.036121607 -0.018550739 -0.08382952
-0.09084903 0.14185117 0.013865143 0.101128556 -0.15883484 -0.12795343 0.086142614 -0.028752446
-0.0772141 0.121586435 0.0959024 0.06631609 -0.06551226 0.02039869 -0.11830339 0.06967774
-0.15063472 0.14585546 -0.15183039 0.064715914 0.014808671 -0.09243465 0.07264969 0.040266175
0.064216666 -0.07030724 -0.020151349 -0.037551735 0.014132304 -0.10392824 0.08756817 -0.020271296
-0.12756069 -0.047500703 -0.14118896 -0.12714921 -0.12664646 0.09132174 -0.10411018 0.031318266
-0.18231615 0.10500234 0.11759694 0.010922661 0.020971853 -0.11676565 -0.07507313 -0.06251967
-0.20856555 -0.014220204 -0.16751584 0.11758973 -0.11042778 -0.14215223 -0.04591037 -0.036799293
-0.19513325 -0.018253865 0.084462166 -0.041290317 -0.12450072 0.02215565 -0.13622975 -0.12997976
0.08515753 0.07260618 -0.0815589 -0.14534916 -0.09884847 -0.14726384 0.06676383 0.056935705
-0.0407488 -0.16831471 0.0013487457 -0.14609995 -0.058179796 -0.10318403 -0.040293083 -0.13618907
0.12777235 -0.013090155 0.057985473 -0.124965906 -0.17710282 0.061706387 -0.10252946 -0.041829664
-0.068713404 0.06574792 -0.053650722 0.113824934 -0.11795787 0.05144488 -0.059944093 0.031001005
0.055254508 -0.0009220509 -0.14500725 0.04463525 -0.20141366 -0.11733866 -0.117286995 -0.17900494
-0.070507884 0.0315818 -0.0861119 -0.015301997 0.024154598 0.07412233 0.042542376 -0.07172143

gnn.convs.2.bias f4 [128]
00000000: 0441 36be 689d 6ebd 5359 41bd ecf8 55bf
00000010: adf9 75bd b4d4 cabf 1ff9 783c a5b2 99bd
00000020: 73ac 2dbe 1933 993d c29b 8ebe b824 40bd
00000030: b7e7 73be d627 3dbd 7372 04be a96a e6be
00000040: 57b3 adbd c9ff 61be 29ab eabd acd8 9cbe
00000050: 8c9f bcbb 473f 5bbd eac7 a7be a580 cabd
00000060: d314 74bd 6598 3fbd a3b2 96bd 6995 943d
00000070: a3e5 053e 29e5 b63e 6ea4 a2bd f808 76bd
00000080: 1065 50be 48d9 943e 660a dfbd ada8 2c3d
00000090: 73df 583c ae95 a8be 2ada b6bc dd9d 5dbd
000000a0: 584f 99bf 0ea2 2ebe d2df 11bd d65a 483d
000000b0: 88d4 76bd 7136 23bd 146f 03be e7fb 75bd
000000c0: 3ef8 20bc 821b 4dbd 5942 07be 5214 15bd
000000d0: 28e9 f1bc d5f1 6ebd 19ef a9bd 7b21 883e
000000e0: d0f5 13bf fa67 bcbd 5a63 08c0 0000 0000
000000f0: b372 84bf 0575 33be 7868 6bbe cdf1 39bf
00000100: b0c7 4bbd 9fc7 663e caac 09be 9df2 98be
00000110: 8c79 9dbf 71d1 44bd e579 bcbc 541b adbd
00000120: 43c1 39bf acd2 18bd 2091 b2bd f7e5 01c0
00000130: 3e63 bd3e d90a adbd 9218 e9bd 2403 cdbd
00000140: 73dc 49be b505 df3f 1a6f 9bbe 7ca5 7cbd
00000150: 3129 9cbc 7daf 95bd 526f 33be 9681 9abd
00000160: dad4 95bd 9a36 90be b514 43bd 48e2 4abe
00000170: f713 00bc 875c c3bd 1a5e a4be a9b5 06bc
00000180: 6512 ee3d 7c7a 79bd 2dd7 16bf 10a1 8f3c
00000190: 4873 613e b935 77be 1b82 41bd 193f 7ebd
000001a0: d078 403e 4492 97be 9825 7bbf 0911 1ac0
000001b0: c761 5fbd 8b25 dcbd 99d4 a5be 847f 313d
000001c0: c992 ccbf 405a 423d 1ef5 44bd c00c 63bd
000001d0: 46c9 a7bd 525e 36be aefb 75bd bdde 17be
000001e0: 8aaa 60bd ab07 91bd 0000 0000 5828 97bb
000001f0: b59c 9bbd 0d57 9bbd 44b3 043f 809d d4bf
-0.17798239 -0.058255583 -0.047204327 -0.8358295 -0.060052563 -1.5846162 0.015196114 -0.07504777
-0.16960315 0.07480449 -0.2785321 -0.046910018 -0.23818861 -0.04618057 -0.12934284 -0.4500325
-0.08481472 -0.2207023 -0.114584275 -0.30634058 -0.005756324 -0.053527143 -0.3276971 -0.09887818
-0.059590172 -0.046776194 -0.07358291 0.0725506 0.1307588 0.3572171 -0.07941519 -0.060067147
-0.20351052 0.29072022 -0.10890655 0.04215305 0.013236868 -0.32926697 -0.022320826 -0.05410563
-1.1977339 -0.17054006 -0.035613842 0.048914753 -0.06026128 -0.03984684 -0.12835342 -0.060054686
-0.009824811 -0.05007506 -0.13208903 -0.036396332 -0.029530123 -0.058336098 -0.082975574 0.26588044
-0.57796955 -0.091995195 -2.131064 0.0 -1.0347503 -0.17525108 -0.2298907 -0.72634584
-0.049750984 0.22537087 -0.1344482 -0.298726 -1.2302718 -0.0480513 -0.023007343 -0.08452478
-0.7256052 -0.037310287 -0.08719087 -2.029661 0.36989778 -0.08449335 -0.113816395 -0.10010365
-0.19713001 1.7423617 -0.303582 -0.061681256 -0.01906261 -0.07308862 -0.17522934 -0.07544248
-0.07315989 -0.28166658 -0.04762717 -0.19812882 -0.00781726 -0.095391326 -0.32103044 -0.008222022
0.11624602 -0.060907826 -0.5892208 0.017532855 0.22016633 -0.24141587 -0.04724322 -0.062071893
0.18796086 -0.2960378 -0.9810424 -2.4072897 -0.054536607 -0.10749348 -0.32388762 0.0433345
-1.5982295 0.04744935 -0.048085324 -0.05543208 -0.08192687 -0.17809418 -0.060054474 -0.14831062
-0.05485014 -0.07081541 0.0 -0.0046129636 -0.07598249 -0.07584963 0.5183604 -1.6610565

gnn.convs.2.lin.weight f4 [128, 128]
00000000: 5c99 ea3d 96f9 0b3d c61f 103e ab27 c63d
00000010: 2b9f ad3d f131 37be 41c3 56bd afa6 b1bd
00000020: e767 4e3e 8366 c5bd 8e29 22be c679 6e3d
00000030: c8ad 963d d93f 013e 94ac 633d e457 84bd
00000040: dd2c efbd e2d3 4d3d ae82 5f3d 4e1e 06bc
00000050: 124b 063e f8fe 293d 8ecf 123e 5278 943d
00000060: 733c edbd 8b93 c13d d70b 94bd 185f cd3d
00000070: 8df6 a1bc 7ff1 1bbe 7cee a9bc 456d e63d
00000080: 516f 093d 6314 b6be 65c7 5dbd 5f79 bcbd
00000090: 010f 313e b0c9 803e 50f6 043e e837 13bd
000000a0: 2fb9 8bbd 5b86 a83d 0bf2 63bc d6ae 06bd
000000b0: 358d 0d3e 62e6 403e b8dc fa3c a339 d4bd
000000c0: d61a df3d 91d3 ef3d 143d f93c 96d9 29be
000000d0: f8b9 533e fa56 dd3b 277b b83d e2dc 62be
000000e0: 73e0 0abe c7e5 28bd 3f2d a53d a17d 78bd
000000f0: e860 23bd b8fb cf3d bda5 89bd b590 eb3d
00000100: 2d31 363d ba45 db3c d6b5 1b3e e1eb f0bd
00000110: b5fa 11be 6a2c 573e 44eb 1b3e 0029 3fbd
00000120: fd14 163e 8cd0 2d3d 6e3c 3cbd 55a3 08bd
00000130: af69 933c c0f1 823b e51b 653d d812 b6bd
00000140: 6d4a 1bbb 24a1 1cbe 6aee b63c e487 283e
00000150: 91cb 1ebe 214f b9ba 5943 5b3d 5dc0 8cbd
00000160: fa6c cd3d b06e 583e fd0c 323d c384 07bd
00000170: 15aa 823d dfa5 b33c c2f6 12be 414c 88bd
00000180: e576 99bb 6513 2e3a 2ee2 47bd 3763 f93d
00000190: 6dbb 143e 5eef d7bd 613b e1bd aba2 193e
000001a0: 64ee 193e ea4f e23d ae94 113c faf9 e8bc
000001b0: 7639 143e 7eda f7bd a340 90bd 017e 80bd
000001c0: 61e8 db3d bc04 8cbc 6a1d 38be 6800 b4bc
000001d0: 5f18 d13d 0934 03bd 7cad 06be 7c69 4a3e
000001e0: 3a8f fd3d 84a3 a4bc c762 453e 8523 8b3d
000001f0: 3436 c23c 8e9f c6be 115a 243e 9eb5 99bd
00000200: 3508 2ebc 03e2 11be d544 3c3d 8218 4d3c
00000210: 2ad1 cfbd f257 16be 1c62 bb3d 1298 9a3d
00000220: 27b3 64bd 8681 013e afb2 dcbd b787 e6bd
00000230: 88da 953c 911a 9e3d c5f8 71bd 9bf6 16be
00000240: 895a 123d ca32 87b9 b96a 58be f88e f33d
00000250: 1771 2bbd b139 f53c 4625 4e3c f8b0 653d
00000260: c673 383d 0536 9e3c bc88 9abd f9ff 06be
00000270: 8d59 09be 2169 c7bc b4e5 ffbd 15f3 003d
00000280: 7107 45be 557d e93d c0ce 58be 579f 0abb
00000290: 8688 913d 1488 1c3e db9e b3bc 5343 1b3e
000002a0: 3d64 d3bc f1a8 6b3d 0276 95bd 9749 91bd
000002b0: e20a 19be 3b34 2a3c 90e0 3ebb f39a 9bbc
000002c0: 5e6c 843d c11d 1dbd 1707 74bb 4560 2abe
000002d0: d895 c0bc e570 42bb 6c21 9b3a b3a4 9abd
000002e0: d32d fb3c 46cb ef3c 7752 813d 3fbc 053d
000002f0: 787b a23d 3d4e a73c 745c f1bd 4db9 0db9
00000300: 208a 013d 2016 e1bc 37c0 4cbe 2ae0 10be
00000310: dae1 a8bd 2d2e 46bc fc3f 01be 743f 86bd
00000320: 95fe 633c c5a5 f6bd 66c6 87bd 07b6 f43d
00000330: 3253 1cbe 554b f33b 7618 8f3d 5d5e 48bd
00000340: fa34 febc 5dbb 12be 3ab3 603d 42de 30be
00000350: fc43 b83b cd8f 453d 9bb3 bd3d cb7e e2bd
00000360: 170a 053d 2531 49be 7b4d 9f3d 209c fd3c
00000370: ee1d dcbd a74f 10be 52d8 6bbd 1e86 4dbe
00000380: e5fb e6bd d2aa 4fbe 264a 1bbe caf2 083e
00000390: a798 41bc 2a53 ebbd d8ed f5bd 0b3b ea3d
000003a0: 6135 583d 4319 783d 1c39 473c 2108 063d
000003b0: 9a9c 1bbe a129 2cbe 18a8 0d3e 963f 53be
000003c0: d894 aa3d ae96 1dbd 3ce1 00be 2913 4bbe
000003d0: a164 edbd 6f1e f3bd fe0c 06be 2d81 1cbd
000003e0: c2f9 1fbe af68 6cbd 91eb 6abd 894e 8d3c
000003f0: 4aff 22be defc e4bd 8d69 2dbe 0403 dabd
0.11455032 0.03417357 0.1407462 0.09675535 0.084776245 -0.17890145 -0.052432302 -0.086743705
0.20156823 -0.09638693 -0.15836164 0.0582216 0.07357365 0.12622012 0.055584505 -0.06462076
-0.11678479 0.050250895 0.054567985 -0.008185936 0.13114575 0.041502923 0.14336988 0.07249512
-0.115837954 0.0945197 -0.07228821 0.10027903 -0.019770885 -0.15228842 -0.020743601 0.1125131
0.033553425 -0.3556243 -0.054145236 -0.09202837 0.1729088 0.25153875 0.12984586 -0.03594199
-0.0682243 0.08228751 -0.013912688 -0.03288158 0.13823397 0.18837884 0.030622825 -0.10362556
0.108937904 0.11710275 0.030424632 -0.16586909 0.2067641 0.006754753 0.090078644 -0.22154573
-0.13562183 -0.041234758 0.08065271 -0.060666684 -0.03988734 0.101554334 -0.06721065 0.1150221
0.04448049 0.026766647 0.15206084 -0.1176374 -0.14255793 0.21013036 0.15226465 -0.04666996
0.14656444 0.042435214 -0.045956068 -0.03335889 0.01799473 0.003996104 0.055934805 -0.08890313
-0.0023695484 -0.15295845 0.022330482 0.16458088 -0.15507342 -0.0014137962 0.053531025 -0.06872628
0.10030551 0.21135974 0.043469418 -0.033085596 0.06380097 0.02192968 -0.14351943 -0.06655169
-0.004683363 0.0006640463 -0.048799686 0.12177127 0.14524622 -0.105437025 -0.10997654 0.15003459
0.15032345 0.11050399 0.008885546 -0.02843951 0.14475045 -0.12102221 -0.070435785 -0.06274033
0.10737682 -0.017092101 -0.1797997 -0.02197285 0.102097265 -0.032032046 -0.13152117 0.19766802
0.12380834 -0.020097502 0.19275962 0.06793884 0.023707487 -0.38793606 0.16049983 -0.07505344
-0.010622074 -0.14246373 0.04596408 0.01251805 -0.10147317 -0.14681986 0.09149572 0.07548536
-0.055834915 0.12647066 -0.10776269 -0.11256354 0.01829268 0.07719911 -0.059075136 -0.1474251
0.035730872 -0.00025787047 -0.21134461 0.118925035 -0.041855898 0.029934736 0.012582129 0.056076974
0.045032285 0.019312868 -0.07545611 -0.13183583 -0.13413067 -0.024342122 -0.12494984 0.03148182
-0.1924112 0.11400858 -0.21172619 -0.0021152103 0.07106118 0.15286285 -0.021926334 0.15162401
-0.025804633 0.057534162 -0.07297899 -0.07094114 -0.14945558 0.010388429 -0.002912555 -0.018994784
0.06465982 -0.038358454 -0.0037235671 -0.16638286 -0.023508951 -0.0029669341 0.0011835522 -0.07550945
0.0306615 0.029271733 0.06314557 0.03265023 0.07933706 0.02042305 -0.11785212 -0.00013515838
0.031625867 -0.02747637 -0.19995199 -0.14148012 -0.08246203 -0.01209597 -0.12622064 -0.065550715
0.013915678 -0.12043337 -0.066296384 0.119487815 -0.15266111 0.0074247518 0.069870874 -0.048918117
-0.03103112 -0.14329286 0.054858424 -0.17272285 0.0056233387 0.048232842 0.09262773 -0.1105934
0.032480326 -0.19647653 0.0777845 0.030958235 -0.10747896 -0.14092885 -0.057579346 -0.20070693
-0.11278514 -0.20280007 -0.15165004 0.13373867 -0.01181618 -0.11490472 -0.12008256 0.11437043
0.05278528 0.060570966 0.012159612 0.032722596 -0.15196458 -0.16812755 0.13833654 -0.20629725
0.08329171 -0.038473777 -0.1258592 -0.19831528 -0.11591459 -0.11871039 -0.13090894 -0.03820913
-0.15622619 -0.05771702 -0.05735356 0.017249363 -0.15917698 -0.11181043 -0.16934796 -0.106451064

gnn.convs.3.bias f4 [128]
00000000: 2181 afbd acf0 75bd 13ea 04be e5e6 3bbd
00000010: b4ce 213d d422 78bd 0b2b ed3c a409 8b3c
00000020: 5e6b 9fbd e2fb 20be 081e b2be 1c17 8ebd
00000030: 4177 85be 2341 2bbd 7d60 a1bd f692 76bd
00000040: 2b7f 8cbd 87f1 043e 2840 11be 4dd8 9bbc
00000050: 9e8b 8abc 38ae c2bd d7d8 6abd b390 73bd
00000060: d6e4 80bd 0bed 24bd 6716 76bd 8370 39bd
00000070: c084 7fbd aaca abbd c3fb 75bd 0d7a a1bd
00000080: 4335 c6bd c045 503e 5882 b13e 72bd 0dbd
00000090: f918 76bd 0bdf 67bd 628c a6bd 6ffc 483e
000000a0: c970 ce3c 2e42 74bd 4901 87bc 795d 8a3e
000000b0: 4f68 513c 671a 2abe ac80 48bd 6c15 c7bd
000000c0: 38fd 78bd 49e2 1ebd 51d5 1e3d 52a8 003f
000000d0: d23b 8cbd ba37 83bd 1502 9cbd 7f5f 043c
000000e0: 3676 3ebd 06fc 75bd b020 c1bd b617 fdbd
000000f0: 9ac2 3cbd 7430 6ebd b897 8e40 a973 4ebd
00000100: 52d3 89bd da31 65bd 903a 25bd 4e37 5abd
00000110: 5e0a 80be 88ef c3bd 9346 b5bd c274 503d
00000120: ffc4 43be dead 40bd f2df b33c 42ae 5bbd
00000130: cb01 683e 2109 61bd 08b1 63bd 5dcd a7bd
00000140: 11af 6bbd 4ab1 73bd c5bd 9fbd 2cfb 75bd
00000150: fcee ed3b d504 85bd 2caa 0b3e 3267 ea3b
00000160: 4414 b5bd 0ba8 3e40 02b3 6abd d3e8 c7bd
00000170: d3fb 75bd 0ee9 8cbd 725e 193d d92b 82bd
00000180: 6f12 8bbd 4908 89bd 088f 36bd f32f d0bd
00000190: 6bb8 63bd 988d 9fbd 00e3 e4be 66ec 103d
000001a0: 5a5b 0dbe b073 40bd 9e47 aebc 05fa ac3f
000001b0: f2e6 88bd a425 76bd 4919 02be eb02 80bd
000001c0: 90ac 5bbc a361 ccbe 9c1b 76bd 94fa 75bd
000001d0: 6459 8ebd 3922 683e 443d 59bd 38d8 fb3e
000001e0: ef69 0ebd e408 af3b befb 75bd 58f3 83bc
000001f0: 910b b33f 462e 73bd 07c6 9a3f e479 c4be
-0.08569551 -0.060043976 -0.12979917 -0.045874495 0.039503768 -0.06058009 0.028951189 0.01697237
-0.077841505 -0.15721086 -0.34788537 -0.069380015 -0.26067546 -0.041810166 -0.07879732 -0.060198747
-0.06860193 0.1298276 -0.1418463 -0.019024039 -0.016912278 -0.09505886 -0.0573357 -0.059464168
-0.06293647 -0.040265124 -0.06007996 -0.045273315 -0.06238246 -0.083882645 -0.06005455 -0.078846075
-0.096781276 0.20339108 0.34669757 -0.034604497 -0.06008241 -0.056609195 -0.08132245 0.19627546
0.025200265 -0.059633426 -0.016480105 0.2702444 0.012781217 -0.16611634 -0.048950836 -0.09720883
-0.060788363 -0.03879002 0.038777653 0.50256836 -0.06847347 -0.064071134 -0.076175846 0.008079409
-0.046499453 -0.0600548 -0.09430063 -0.12358038 -0.046084024 -0.058151677 4.4560204 -0.05040327
-0.06729759 -0.055955745 -0.040339053 -0.0532754 -0.2500791 -0.09567171 -0.088513516 0.0508926
-0.19118117 -0.047040813 0.021957371 -0.053632982 0.22656934 -0.054940347 -0.055588752 -0.08193467
-0.057540003 -0.059495248 -0.077998675 -0.06005399 0.007261155 -0.06495062 0.13639134 0.007153415
-0.08841756 2.9790065 -0.05729962 -0.097612046 -0.06005461 -0.06880389 0.037443586 -0.063560195
-0.06790625 -0.066910334 -0.04457 -0.101653956 -0.055595797 -0.07790679 -0.44704437 0.035381697
-0.13804379 -0.04698533 -0.021274384 1.35138 -0.06684674 -0.06009449 -0.12704958 -0.062505566
-0.013407841 -0.3991824 -0.060084924 -0.060053423 -0.06950644 0.22669305 -0.053036943 0.491884
-0.034768995 0.005341636 -0.060054533 -0.016107246 1.3987905 -0.0593703 1.2091683 -0.38374245

gnn.convs.3.lin.weight f4 [128, 128]
00000000: 2ba5 2fbe f9cf 9fbd caa7 a4bd a2a2 a8bd
00000010: 33a0 393d 0da0 4abe 0263 efbd 4169 a6bd
00000020: b344 7d3d b7a2 9fbc c129 0cbc 4e87 b8bd
00000030: 687e 3cbd 5e2e 013d ea2d 02bd 5512 b7be
00000040: dad1 5ebd 1d33 8bbe 54bf a23c bceb 61be
00000050: 67a4 03bc 28f0 743d b128 c7bb bc58 8dbd
00000060: 607d 87bd 7f92 9cbd a6a2 bd3d aacc e6bd
00000070: 5cc3 21be aa7e e9bd 1926 a23d 492a 00be
00000080: e003 aabd 3501 7ebe 95c7 abbe de0d acbd
00000090: d4d1 3dbe 68b2 3dbe e7ab 0bbd 3457 07bd
000000a0: d6a1 06be 287a 0bbe c930 75bd b7fc 48be
000000b0: f2a4 e63c c81b a93d 52da c53c d229 bbbc
000000c0: cbfd 72bd 339f 5dbe a203 7dbd c44c 053a
000000d0: 7d2e a6bd 0bcb 4cbe 29e2 0cbd 39cc 3fbc
000000e0: 2f0b 733c 2389 e73d e737 84be 321c d63c
000000f0: 808e 30be 29cd 4ebd 9bda c8bd 1603 74be
00000100: 4c45 28bd 8760 3a3d 71b9 afbd 20dd 20be
00000110: 4ada fc3c 2bd4 08be d5c8 2eba 9e40 ae3d
00000120: f8ab 8fbd 4457 febd 2984 1a3d 4228 8abd
00000130: 1aed aabd 92d0 d8bd b83e 55be e5f6 493d
00000140: af86 20be 0d0b 65be 77ef 69bc fea3 98bd
00000150: eaff 543d b10a 40be 24ea 73be 48d3 c1bd
00000160: ec2c b4bd 5b0f 2ebe 22be 22be b136 f5bd
00000170: ee9d abbc 1e1d e23d 9f48 32be 241f 683d
00000180: cfec 91be 6a1f 28bd c4b2 4bbe f8d7 0b3d
00000190: 16b8 9fbe 1470 abbe 4ec8 b0bd dcf4 ce3d
000001a0: e667 2cbe 2133 5abe 470e 99be 1f55 1cbe
000001b0: 8708 26be c7c8 133e 6b8a 97be fdb8 d43c
000001c0: aa59 38be 97cc 40bc 1f4d e2bc b656 643d
000001d0: be60 24bd 0b2b e53d 49e2 e83d 9b88 8bbe
000001e0: 095e 48be b0d3 7ebe e635 06be 2e1c 0bbd
000001f0: bee6 e2bd 23cc a73d 2ec9 bcbe 48d1 87be
00000200: c2f1 eabd 8021 16be 1174 53be 468c b2bd
00000210: 8c9f 17be e6fa 8e3d 14e9 d7bb 2382 ee3c
00000220: 32c3 2ebe e509 1d3d 5649 e93d 8a08 8c3d
00000230: 81e4 3bbe d7a9 49be 73fe c03c 3f47 f03c
00000240: d172 3bbd 3714 fabc 34cf 22bd 205c c2bd
00000250: 8c4d 0cbe 3436 57be 2a7b a1bc 1446 bebd
00000260: cecd 42bd e567 26bd 21d9 ae3b 76f2 01be
00000270: d744 253d a9a3 9cbd 97d8 cebd ddfd 0cbe
00000280: a707 39be e00a 643d 48e5 123e faab b6bd
00000290: 4d2b 17bd 801d 45bd ae86 1f3d 82ef c7bc
000002a0: 5c31 e93d 7bde 21be 2520 9bbd cdca cabc
000002b0: 48fe 19bd 1c5e 22be 5e97 19bc 9b44 48be
000002c0: 2b9d 55bd 69ad 2fbe 3efa 413d 4c2b e03c
000002d0: 1327 193e 4483 62bd dbc4 95bc 06fd 22be
000002e0: 2e2f 16be 0079 37bd 972d bf3d 003c 87bd
000002f0: 68b3 f6bd 94df 0fbc 31d8 19be bc68 3bbe
00000300: 272d c33c d659 5a3b 3024 a6bd b3fa c1bd
00000310: 6689 03bd 00b6 3ebe c8c8 af3d 7c05 60bd
00000320: 1371 1e3c bd2a a8bd d86e 1abd 2471 03be
00000330: 4e5e f2bd 53be 11bd 95b4 833c 6848 963d
00000340: 5523 43be 9d52 cebd 322a 08be e034 09bd
00000350: 83b2 15be aede 3b3d b921 fe3c 5bcc e3bd
00000360: 9829 dabb f336 0bbd 383e d83c 9f76 983d
00000370: 8d7b 7ebd 28ca fcbd 5311 8e3d 7483 d1bc
00000380: 4563 923d a7ad 42be 90b2 a5bd dffd a03d
00000390: 1dba 73bd 386e 12be 41ad 053e e221 f53d
000003a0: c1b3 3dbe 63c8 a3bd 7be2 51be 3977 fabb
000003b0: 1ac7 033d 9912 ebbd fc8e dabd 7d9f e73d
000003c0: 6e49 cb3d 8396 fc3c 89bd e53c 6507 6abb
000003d0: 5ca1 c0bd fc34 27bd f30f 4b3c 6fa9 5f3d
000003e0: 52fe febd 3b10 08be c4aa a8bd 8b0b 073d
000003f0: 2ae7 82bd 7862 c93d 3073 a03b 5fcc 173e
-0.1715285 -0.078033395 -0.08039816 -0.08234145 0.045318794 -0.19787617 -0.11688806 -0.08125544
0.061833095 -0.019486768 -0.008554877 -0.09010182 -0.046018988 0.03153836 -0.03178207 -0.35756174
-0.05439935 -0.27187434 0.019866623 -0.22062582 -0.008034802 0.059799343 -0.006077849 -0.0690169
-0.0661571 -0.076451294 0.09259538 -0.11269505 -0.1579718 -0.114011124 0.07917423 -0.1251613
-0.0830152 -0.24805148 -0.33550707 -0.084010825 -0.18537074 -0.18525088 -0.034099486 -0.033042148
-0.13147673 -0.13620818 -0.05986098 -0.19627653 0.028154824 0.08257252 0.024151955 -0.02284709
-0.059324067 -0.21642761 -0.061771043 0.00050849863 -0.08114336 -0.1999933 -0.03439537 -0.011706405
0.014834209 0.11305454 -0.258239 0.026136491 -0.1724186 -0.050488625 -0.09807321 -0.23829302
-0.04108171 0.045502212 -0.08580292 -0.15709352 0.030865807 -0.13362186 -0.00066674995 0.085084185
-0.07015222 -0.12418988 0.037723694 -0.0674596 -0.08346005 -0.10586657 -0.20824707 0.049307723
-0.15676378 -0.22367497 -0.014278284 -0.07453154 0.05200187 -0.18754078 -0.23819786 -0.09464127
-0.08797631 -0.16998045 -0.15892842 -0.11973322 -0.02094933 0.1104071 -0.17410515 0.056670323
-0.28500983 -0.041045584 -0.19892412 0.03414151 -0.31195134 -0.33483946 -0.08631955 0.10105297
-0.16836509 -0.21308567 -0.29893705 -0.15266846 -0.1621419 0.14432059 -0.29597792 0.025967116
-0.18002954 -0.011767528 -0.027624665 0.055746756 -0.040131323 0.111898504 0.113712855 -0.2725266
-0.19567122 -0.2488544 -0.13106498 -0.03396242 -0.11079167 0.08193233 -0.36872238 -0.26526856
-0.11471893 -0.14661217 -0.20649745 -0.08718161 -0.14806956 0.06981449 -0.0065890644 0.029114788
-0.17066649 0.038339514 0.11390941 0.06837566 -0.18348886 -0.19693695 0.02355883 0.029330848
-0.045763794 -0.030527217 -0.039748386 -0.09490228 -0.13701457 -0.2101677 -0.01971205 -0.0929071
-0.047559552 -0.040626425 0.0053359424 -0.12690148 0.040348854 -0.07648403 -0.10099905 -0.13768716
-0.18069325 0.055674434 0.14345276 -0.08919521 -0.03690653 -0.048123837 0.0389468 -0.024406198
0.11386368 -0.15807526 -0.075744905 -0.024754906 -0.037596017 -0.15856212 -0.009374468 -0.19557421
-0.05215184 -0.17155994 0.04735779 0.027364396 0.14956312 -0.055300966 -0.018282345 -0.15916833
-0.14666435 -0.04479313 0.093348674 -0.06603241 -0.12045938 -0.0087813325 -0.15023877 -0.18301672
0.023825241 0.0033317707 -0.08112371 -0.09471645 -0.032113455 -0.18624115 0.08583218 -0.05469273
0.009670514 -0.08211277 -0.037703365 -0.12836128 -0.118343934 -0.035581898 0.01607732 0.07338029
-0.19056447 -0.10074351 -0.13297346 -0.03349769 -0.14618878 0.04586666 0.03102194 -0.11122962
-0.0066577904 -0.03398795 0.026396856 0.074445 -0.062129546 -0.12343246 0.06936898 -0.025575377
0.071478404 -0.19011556 -0.08090699 0.07860922 -0.059503663 -0.14299858 0.13054372 0.11969353
-0.18525602 -0.07997205 -0.20496552 -0.007643607 0.0321723 -0.114781566 -0.10671803 0.11309717
0.09926115 0.030833488 0.028044479 -0.0035709974 -0.09405777 -0.040822014 0.012393939 0.054604944
-0.124508515 -0.13287441 -0.08235696 0.032969993 -0.06391747 0.098332345 0.004896544 0.14824055

gnn.convs.4.bias f4 [128]
00000000: 2576 36be 3b27 1a3f 8512 93bd 199a 40bf
00000010: 7064 9bbe 7d33 aabd 0748 40bd f6b7 5b3d
00000020: 2688 8bbd 76b5 fabe 76df 8fbd 559e 72bd
00000030: 7e4f 72be 7b6a 79bd 78c5 7ebd 2dcc 28be
00000040: 15df adbd c7c3 19bd 8cb2 76bd 0a83 80bd
00000050: 6e3d e5bd eb7a 3bbf c683 94bd 938e 8cbd
00000060: 208e 823d b34e 72bd 22f5 6bbe 068d 99be
00000070: 4b17 6fbd cad8 76bd 93ee 2dbe 28e2 3abe
00000080: 94f0 0bbd bcbb a2bd 7f94 c1bd 7a3c 05be
00000090: 1d64 92bd 6ac0 07bf 934e e2bd 251f a6bd
000000a0: 7967 11bf 2322 76bd fea0 b2bd 732b 17be
000000b0: eb80 8abd f6ae e3be 7827 babd 0b7d d7bc
000000c0: c518 78bd ccc5 9fbe 145d 62bd 9b75 c6bc
000000d0: 3dfd 963e 091c 5c3e fa8b 4dbd 0a60 6abc
000000e0: e212 0fbe dbc0 62bd 52d2 fbbe 344f c5be
000000f0: f26f 6cbe 0d2d 01be 2dd6 88bd 52e9 91bf
00000100: c88a 22bd 601b edbb c2f6 1d3e 0cc5 083d
00000110: dccb 60be 79c9 8cbd cc84 ce3c 9a04 76bd
00000120: da82 e9be 95dd 81bd 3d27 37be 28ff 0fbd
00000130: f57f 05bf 71b6 54bd 5b84 07bd 7d5f 67be
00000140: 5b8f 25be 3fe0 3cbc 98db 0ebf 9ef5 34bd
00000150: d825 debe 33ed d9be 06c9 cbbd c7d7 59bd
00000160: 69db 66bd 2847 4c3d ee93 323e f386 f13d
00000170: 8bb6 8abd 55f8 a8be ba4e 60be 9ef6 66be
00000180: 1f6d 53bd 32fb 92bd 3d83 b4bd 366c 423c
00000190: f745 32be 0f6d f6be 6cda 453e e78a a8be
000001a0: bc12 46bc 6c77 dcbe d242 c1bd 9701 30be
000001b0: cd65 dbbd 8010 aebd 7ca4 e83d 1d36 7fbc
000001c0: 3366 77bd de7c 54bd a28b 4bbd f2cb b7bf
000001d0: b622 58bd 5835 76bd 6409 7dbd 522c 5ebe
000001e0: da82 1abd be7c 48bd 409c 0bbd e27e c3bd
000001f0: 79dd 99bd 0e02 b43b d305 7abd c5b7 223d
-0.17818506 0.6021611 -0.07181267 -0.75235134 -0.30350065 -0.08310602 -0.04694369 0.053642236
-0.06813078 -0.4896657 -0.07025044 -0.05923303 -0.23663136 -0.060892563 -0.06220004 -0.16484137
-0.08489815 -0.037540223 -0.06022887 -0.06274994 -0.111933574 -0.7323443 -0.07251696 -0.068631314
0.063747644 -0.059157085 -0.2304273 -0.29990405 -0.058371823 -0.06026534 -0.1698554 -0.18250334
-0.03416498 -0.07945964 -0.094521515 -0.13011351 -0.07148001 -0.53027976 -0.11050143 -0.08111409
-0.5679851 -0.06009115 -0.08722113 -0.14762668 -0.067628704 -0.44469422 -0.09089559 -0.026304742
-0.060570497 -0.31205595 -0.055264547 -0.024226 0.2949008 0.2149507 -0.05018232 -0.014305124
-0.13972047 -0.055359703 -0.491839 -0.3853699 -0.23089579 -0.12614842 -0.06681476 -1.1399329
-0.039683133 -0.0072359294 0.15426162 0.033391044 -0.21952766 -0.06874365 0.025209807 -0.060062982
-0.45607644 -0.063410915 -0.17886062 -0.035155445 -0.5214837 -0.051931802 -0.03308521 -0.2259502
-0.16167967 -0.011528074 -0.55803823 -0.04417955 -0.43388247 -0.4256378 -0.099504516 -0.053184297
-0.05636159 0.049872547 0.17439243 0.11793318 -0.067730986 -0.33001962 -0.21905032 -0.22555014
-0.051617738 -0.07176818 -0.08814094 0.01186662 -0.17409502 -0.4813008 0.19321603 -0.32918474
-0.012089428 -0.43059862 -0.09436573 -0.17188106 -0.10712776 -0.08499241 0.11359498 -0.015576866
-0.0604002 -0.051876895 -0.04969371 -1.4359114 -0.052767478 -0.060109466 -0.061776534 -0.21696594
-0.037722446 -0.04894709 -0.03408456 -0.09545685 -0.07512946 0.005493409 -0.06104071 0.039726038

gnn.convs.4.lin.weight f4 [128, 128]
00000000: 1d45 123e f8df ae3d 460b 6cbb 67ef 5ebd
00000010: 2b7b b4bb ef3e 32bd f11d 9ebd c51f 4f3e
00000020: 25e5 38be 3c17 bf3c 7f68 f1bd 5866 8a3d
00000030: 06bc c03d 74eb e4bc 847d 92bd bcd8 a8bd
00000040: 5a83 c6bd de33 c3bd 48b1 a7bc 8d1a 8d3d
00000050: b250 d4bc a2c7 1fbe ab6c 523e 7fde 2c3b
00000060: cc28 603d 077f c13d 67f7 8b3c cbcb 96bc
00000070: 26ab 843d 09fb e8ba 8401 0d3e 7d05 e13d
00000080: ca16 c9bd 7f9e 7e3d a150 82be af12 01be
00000090: 2d75 9bbd 8f9d e33d 67b1 5b3e 5d2d cabd
000000a0: 263f 833d dddb 99bd bd9a 0a3e a957 37be
000000b0: 9337 7ebd da05 9f3d d9ed 053d ebf4 01be
000000c0: c572 993a 742f ef3c 881f 1cbe f68f c23d
000000d0: e386 813d 5dd5 9ebd 8d8c 3cbe ba4f d53b
000000e0: 353a 9b3b 5811 fa3d 857f 3bbc 3bbc ecbd
000000f0: a631 313d d99e c73c 1f16 cbbe 3e80 41bd
00000100: 6350 003e 9e1d 82bd f4f9 923d 2137 093e
00000110: 7eab eebc f29c b63d d5f7 b1bd d4d5 bd3d
00000120: e8cd 1ebe 39f7 6dbd 5689 32be bb24 d6bd
00000130: 1461 3cbe 3613 313e 2610 51be c958 2bbe
00000140: 5734 31bd 5365 db3c 1449 e73d aef0 a7bd
00000150: bf2e eabd b857 43bd 718d df3d 76d5 503e
00000160: 044d f53d 41c9 a63d 535e 06bd bd9c 453e
00000170: 91db b03d a511 babd 6310 47be a147 ccbd
00000180: 14ef 1f3e 6fee 36be 0dd0 253c fdfe 193c
00000190: a5a6 8bbd e432 2a3d 4d53 e83d fa43 453d
000001a0: d6e8 4a3c 5d6d 14bd a9db 2d3d becc e6bd
000001b0: af56 bdbd 2348 273e f6ee c8bd 433e 42be
000001c0: efed 60bd 4570 873d dec8 4fbd aec3 b1bd
000001d0: b155 fb3d d0a4 a1bc 7cbc 093e 437e 0dbe
000001e0: 78f5 263d 9b5d be3d 7034 8dbd d9b6 e0bd
000001f0: 7012 bcbe ed62 1ebd af90 213e f695 0abe
00000200: df49 18be 1440 dabd ed0d 993e 49ff d53d
00000210: 873d 163e 73b1 77bd e0a9 313e 1b76 153d
00000220: f44f 8dbd 4166 33bd c4a5 d43d e230 8b3d
00000230: 37e6 3f3e ee3a ab3d cf94 86bd 0f2a 8d3d
00000240: 06aa a23d 40e9 84be 5b87 c53d 0ee7 1b3e
00000250: d432 e63d cec5 833d 388e 45bd a1f1 3a3e
00000260: e47f 3abd 5cf7 5d3d d2af 4bbd c353 ef3a
00000270: 6fe2 1a3d b355 94bd f5f1 953b e765 ad3c
00000280: a59d 123e 1d3c 28bd e406 2bbf 402a 11bd
00000290: b893 853d d46e 8dbd 453f 8fbd 5d32 8fbd
000002a0: 2950 eb3d bbef 283d fa2c 183e ac9b 063e
000002b0: 602b ac3d 2d95 d53e a820 203e e98b 02bc
000002c0: 59cf 143d 9360 3cbd d5f9 843d 7f6d 46be
000002d0: de5a ecbd ab37 26be 2519 ad3d f811 b5bd
000002e0: 1f1c 96bd c3f9 c3bc 4e75 5abe 4b61 e73d
000002f0: 4aa3 323c eab5 513d a57c bc3e 176d 1b3e
00000300: 0d30 313e ae18 7ebd 6d24 0f3e c7b2 f0bd
00000310: 10d0 abbf be93 163e 1f9b 213e 655b 1d3d
00000320: e444 8abf 7f26 573e b040 bcbe 44d5 0c3e
00000330: 56d9 22be 3663 e03d 7863 1f3e 4f4b 223c
00000340: b712 8c3d d33c 8c3d 57ae 933b 5f32 50bd
00000350: 91a0 2fbe ccc2 7c3d 0148 313e 08dd c23c
00000360: addf 34bd 6eab 833e b8ee 543d 247c fd3c
00000370: 7905 f0bd 3624 993e b03c b6bc be29 bb3d
00000380: 5cd2 31bd df33 a53d 8140 823d c363 0b3e
00000390: a954 d33c 4261 b53d b49c 53be a952 e2bc
000003a0: bf44 103e 62f2 a03c 3167 84bd 5da7 283d
000003b0: f92b 223d b88e f03d f5da 6ebc 4ef6 b53b
000003c0: 27bd db3d 62c2 92bf f769 0c3e 99e1 8cbc
000003d0: 465e f83b 0cb9 08be f99d b2bd ba55 8fbe
000003e0: fd68 eb3a 3ae6 c73d 0f95 d03d 9787 3c3e
000003f0: 98fb 5dbe ab80 c73d b8de 67bc 83d8 a7bc
0.14284177 0.085388124 -0.0036017462 -0.05442753 -0.005507847 -0.04351705 -0.077205546 0.20226963
-0.18056162 0.023326509 -0.11787509 0.06757802 0.094108626 -0.027944304 -0.071528465 -0.08244464
-0.09693022 -0.09531377 -0.020470276 0.0688983 -0.025917385 -0.15603498 0.20549266 0.0026377735
0.054726407 0.09448057 0.017085744 -0.018407723 0.064779565 -0.001777501 0.1377011 0.10987375
-0.098188 0.062162872 -0.2545214 -0.12604783 -0.07590709 0.11114036 0.21454392 -0.098719336
0.06408529 -0.07512639 0.1353559 -0.17904533 -0.06206472 0.07764788 0.032697532 -0.12691085
0.0011707178 0.029197432 -0.15246403 0.095001146 0.06324556 -0.077555396 -0.18412991 0.0065097483
0.0047371634 0.12210339 -0.011443977 -0.115593396 0.04326024 0.024367737 -0.39665315 -0.047241442
0.12530665 -0.06353305 0.07176581 0.13399936 -0.029134508 0.08916654 -0.08689848 0.092693
-0.15508235 -0.058097098 -0.17435202 -0.104562245 -0.18396407 0.17292485 -0.20416316 -0.16733088
-0.043262806 0.026781714 0.112932354 -0.08200203 -0.11434697 -0.047691077 0.1091565 0.20393929
0.1197758 0.08143855 -0.0328048 0.19298072 0.08635629 -0.09085397 -0.19439845 -0.099746
0.15618545 -0.17864393 0.010120404 0.009399173 -0.06818894 0.04155244 0.11344013 0.04816053
0.012384614 -0.03623711 0.042445812 -0.1126952 -0.09245049 0.16336112 -0.09811203 -0.18969063
-0.05491441 0.066132106 -0.05072867 -0.08679901 0.12272204 -0.019731909 0.13450807 -0.13817696
0.04076144 0.092951976 -0.06894767 -0.109723754 -0.36732817 -0.03866856 0.15777849 -0.13533768
-0.1487193 -0.10656753 0.29893437 0.104490824 0.14671908 -0.060471963 0.17349958 0.036489587
-0.069000155 -0.04379869 0.1038318 0.06796433 0.18740164 0.08360849 -0.06571352 0.06892788
0.07942586 -0.25959206 0.09644958 0.15224859 0.112401634 0.064342126 -0.048231333 0.18256237
-0.045532122 0.05419098 -0.049728222 0.0018259216 0.0378136 -0.07242908 0.0045759627 0.021166755
0.14317949 -0.041072953 -0.6680739 -0.035440683 0.06522316 -0.069059044 -0.069944896 -0.06992028
0.11489899 0.04124425 0.14860907 0.13145322 0.084067106 0.41715375 0.15637457 -0.0079679275
0.036330555 -0.045990538 0.06492964 -0.19377707 -0.11540769 -0.16232173 0.084520616 -0.08841318
-0.073295824 -0.023922807 -0.2133381 0.11297854 0.010903189 0.051198877 0.36813846 0.15178333
0.17303486 -0.062035255 0.13978739 -0.11752849 -1.3422871 0.14704797 0.1578183 0.03841724
-1.0802274 0.21010779 -0.36768103 0.1375323 -0.1590322 0.10956423 0.15565288 0.00990565
0.06839507 0.06847539 0.004506867 -0.050829288 -0.17151095 0.06170921 0.17312624 0.023787037
-0.044158626 0.25716728 0.051985472 0.030942984 -0.11719794 0.2991044 -0.022245735 0.09138821
-0.043413505 0.08066534 0.063599594 0.13612275 0.025797205 0.08856441 -0.20665246 -0.027627306
0.14088725 0.019646827 -0.06464995 0.041175235 0.039592717 0.117459714 -0.014578571 0.0055530434
0.10729437 -1.1465571 0.13712297 -0.017197417 0.0075795976 -0.1335184 -0.08721537 -0.27995092
0.0017960366 0.09760709 0.10184681 0.18411098 -0.21678007 0.09741338 -0.014152221 -0.020488983
