Models/j6uyohw8_best_model.pth (torch, 43359 bytes, 16 tensors)

gnn.convs.0.lin_l.weight f4 [32, 9]
-0.35805258 0.05561684 -0.32140678 -0.2949203 0.26037908 0.20280269 -0.31535065 0.45376685
-0.096573204 -0.22596903 -0.24144442 -0.59826314 0.7741542 0.06772726 -0.24165182 -0.13160019
-0.15729441 -0.67636853 0.10814574 -0.26662472 0.02322782 -0.040269926 0.42339915 -0.325343
-0.1817431 -0.48092568 -2.987212 -0.14107649 0.1416 0.02409053 -0.5182079 -0.48077533
-0.37188262 -0.087031335 -0.092445694 0.05585153 -0.08314559 0.29161143 -0.15352066 -1.0422977
-0.40646583 0.08489264 0.27309135 -0.1881471 0.4826019 -0.166078 0.11092599 -0.035868872
0.20134148 0.15120305 0.18107495 -0.2170999 -0.22575727 1.761052 0.3252188 0.56713367
-0.40744394 0.30720404 -0.12211298 0.98778814 0.029357087 -0.3541167 1.2434013 -0.36781952
-0.49822778 0.26139146 -1.0693362 -0.14638202 -0.26651162 0.19962168 0.09110102 1.0484836
0.29717588 -0.26806584 0.0838875 -0.122329414 -0.4168374 -0.30142355 -0.075588346 -0.58983546
1.3778905 -0.079681635 -0.2063468 0.2340508 -0.34170902 0.31340468 -0.15494893 -0.08614121
0.071868196 -0.006135469 -0.30708927 -0.23200165 -0.39222416 0.048729647 -0.21375613 -0.15521458
0.08851854 -0.106873326 0.22863239 -0.26412556 -0.45992082 0.453308 -0.04950107 -0.1232376
-0.1777002 0.12937436 0.3722033 -0.39286804 0.18379577 0.12609382 0.13326813 -0.041760806
-0.12105628 -0.16264232 -0.044297904 0.22778186 0.089428514 0.34457034 0.32183903 0.9237363
-1.1419605 -0.033508357 0.0756128 -0.0010096991 -0.10781137 1.286883 0.20975696 -0.24105614
-0.033541102 0.20364304 -0.090966396 -0.4319967 -0.18386832 0.18716326 0.5370607 -0.12045101
-0.04365881 0.38647613 -0.09574522 0.31479052 -0.40597183 0.2419212 -0.056870326 0.5941451
0.16525988 0.014453622 0.46642143 0.30556855 -0.09967925 -0.18482263 -0.056719486 0.40747273
0.57381415 0.33487502 0.8534192 0.67623115 -0.38266855 -0.3736877 0.68578625 0.15261376
-0.019373717 1.6026549 -0.31677714 -0.032251425 0.046858653 -0.32611647 -0.29964894 -0.18700504
-0.16738105 -0.11947776 -0.33663055 -0.24079543 0.2909445 -0.7527623 1.8585421 0.1347107
-0.1318823 -0.41271085 0.37110364 -0.3276287 -0.2502764 -0.14743406 -0.3315786 -0.029432971
-0.16637108 0.1954182 -0.061731968 -0.3067492 -0.050984398 0.056369595 -0.25450546 0.15322666
-0.048039213 0.3133671 0.096634135 0.12967238 -0.41749695 -0.71584797 0.19130857 -0.2760259
0.12251141 0.10284467 0.071193986 0.14321631 0.11354992 0.16240603 0.62973994 -0.048257202
-0.22733963 0.099879846 0.026737344 0.041256536 0.11009428 0.025290795 -0.10664879 0.001272282
-0.08644555 0.29219452 0.29019207 -0.18096441 0.02295966 0.36808136 -0.2537682 -0.10198696
0.07402011 0.16457908 -0.3533374 -0.2798684 0.85332197 0.08339367 -0.1954194 -0.016017072
-0.41721362 0.5145301 0.25656313 0.006496531 -0.066297874 -0.40418503 -0.08191163 0.12021259
0.20429912 0.15171722 0.5869145 0.10148961 0.038485523 -0.19555774 0.24239457 0.14698212
0.030685442 0.097615056 -0.054484796 -0.39800793 0.029773897 -0.36387914 0.22671442 -0.4010101
00000000: ab52 b7be 7cce 633d 6e8f a4be cbff 96be
00000010: 6850 853e 82ab 4f3e a475 a1be 2154 e83e
00000020: 2cc8 c5bd 6d64 67be 353d 77be c627 19bf
00000030: f82e 463f 97b4 8a3d 9373 77be 33c2 06be
00000040: c911 21be 7d26 2dbf 847b dd3d 0983 88be
00000050: 4548 be3c 14f2 24bd c6c7 d83e 5c93 a6be
00000060: dd1a 3abe e43b f6be 7b2e 3fc0 5b76 10be
00000070: 97ff 103e 8159 c53c 46a9 04bf 2f28 f6be
00000080: 6667 bebe 7c3d b2bd 2b54 bdbd 93c4 643d
00000090: 3c48 aabd 184e 953e 8534 1dbe 036a 85bf
000000a0: 4a1c d0be 31dc ad3d a1d2 8b3e a2a9 40be
000000b0: 9917 f73e 5a10 2abe 2a2d e33d 3deb 12bd
000000c0: 762c 4e3e f9d4 1a3e b66b 393e 704f 5ebe
000000d0: ea2c 67be 276a e13f 1483 a63e ac2f 113f
000000e0: 7e9c d0be d949 9d3e 5f16 fabd afdf 7c3f
000000f0: 467e f03c c94e b5be c627 9f3f d752 bcbe
00000100: b617 ffbe 1ad5 853e 02e0 88bf 2be5 15be
00000110: 3674 88be a069 4c3e 2c93 ba3d b634 863f
00000120: 7027 983e ed3f 89be 36cd ab3d d887 fabd
00000130: b66b d5be 3054 9abe 10ce 9abd 75ff 16bf
00000140: b75e b03f 2030 a3bd 934c 53be 03ab 6f3e
00000150: 7cf4 aebe 9476 a03e efaa 1ebe cd6a b0bd
00000160: a22f 933d 0b0c c9bb ce3a 9dbe d791 6dbe
00000170: 9bd1 c8be bd98 473d e3e2 5abe 92f0 1ebe
00000180: 3549 b53d 67e0 dabd 9c1e 6a3e 773b 87be
00000190: be7a ebbe fc17 e83e a2c1 4abd ff63 fcbd
000001a0: 0bf7 35be b67a 043e 6e91 be3e 0026 c9be
000001b0: f534 3c3e bd1e 013e 7177 083e 610d 2bbd
000001c0: 5bec f7bd b58b 26be b871 35bd a63f 693e
000001d0: 4c26 b73d 866b b03e 16c8 a43e fb79 6c3f
000001e0: c32b 92bf 0f40 09bd e2da 9a3d e157 84ba
000001f0: 35cc dcbd 95b8 a43f 87ca 563e 6cd7 76be
00000200: 6562 09bd cd87 503e 974c babd ac2e ddbe
00000210: fa47 3cbe baa7 3f3e cf7c 093f 05af f6bd
00000220: 95d3 32bd 33e0 c53e 1216 c4bd 392c a13e
00000230: 8adb cfbe 31ba 773e dcf0 68bd e519 183f
00000240: e339 293e e2ce 6c3c cace ee3e 7b73 9c3e
00000250: a224 ccbd 2542 3dbe b152 68bd 44a0 d03e
00000260: 7ce5 123f bd74 ab3e ae79 5a3f 7c1d 2d3f
00000270: 22ed c3be ff53 bfbe b08f 2f3f c846 1c3e
00000280: a1b5 9ebc cc23 cd3f 9d30 a2be 121a 04bd
00000290: dcee 3f3d bdf8 a6be 966b 99be 407e 3fbe
000002a0: f065 2bbe c1b0 f4bd d75a acbe 1493 76be
000002b0: adf6 943e 08b5 40bf b5e4 ed3f 9af1 093e
000002c0: 270c 07be d64e d3be 4c01 be3e f3be a7be
000002d0: 3a24 80be f4f8 16be acc4 a9be 6a1d f1bc
000002e0: 2e5d 2abe b51b 483e a9da 7cbd 3b0e 9dbe
000002f0: 04d5 50bd cee3 663d 8a4e 82be 73e7 1c3e
00000300: c4c4 44bd a771 a03e 1ee8 c53d d6c8 043e
00000310: 29c2 d5be d041 37bf 65e6 433e 4453 8dbe
00000320: 43e7 fa3d 3aa0 d23d 27ce 913d 4ca7 123e
00000330: dc8c e83d c44d 263e a336 213f 58a9 45bd
00000340: b8cb 68be ce8d cc3d 4608 db3c 9dfc 283d
00000350: 1c79 e13d a42e cf3c ae6a dabd b3c2 a63a
00000360: 5d0a b1bd 859a 953e 0e94 943e bc4e 39be
00000370: e615 bc3c 2975 bc3e e8ed 81be 8ade d0bd
00000380: db97 973d 6b87 283e a4e8 b4be e94a 8fbe
00000390: 4f73 5a3f 4dca aa3d 061c 48be 3c36 83bc
000003a0: 069d d5be 3fb8 033f 3e5c 833e dae0 d43b
000003b0: 2ec7 87bd 57f1 cebe 49c1 a7bd 0532 f63d
000003c0: ca33 513e c25b 1b3e 0740 163f c9d9 cf3d
000003d0: ffa2 1d3d 4a40 48be 4836 783e 7b82 163e
000003e0: 0960 fb3c 67ea c73d 732b 5fbd b2c7 cbbe
000003f0: 63e8 f33c 5e4e babe d327 683e 3251 cdbe

gnn.convs.0.lin_l.bias f4 [32]
0.049305886 -0.31297424 -0.28978235 -0.16286822 -0.35194728 0.3177222 0.7070648 0.5460034
-0.43024155 0.0747766 -0.0380727 -0.49807855 -0.32893074 -0.10320261 -0.09287958 -0.14738564
-0.16925777 0.32985276 -0.18373485 -0.17392863 0.3333815 -0.62257147 0.2140578 -0.19254255
0.17707977 -0.26371112 -0.2700147 0.14447555 0.5989414 -0.04625037 -0.7156327 0.5799447
00000000: f8f4 493d 293e a0be 5a5e 94be edc6 26be
00000010: 6f32 b4be 7cac a23e 3302 353f e1c6 0b3f
00000020: 9f48 dcbe 7924 993d 1ff2 1bbd 2704 ffbe
00000030: 9c69 a8be e45b d3bd a637 bebd 43ec 16be
00000040: e951 2dbe 76e2 a83e fd24 3cbe 591a 32be
00000050: fbb0 aa3e d860 1fbf f831 5b3e e029 45be
00000060: 6654 353e 2505 87be 5e3f 8abe 66f1 133e
00000070: 3954 193f 0771 3dbd b433 37bf 4177 143f

gnn.convs.0.lin_r.weight f4 [32, 9]
0.18247822 0.581742 0.030712677 -1.257816 -0.047767762 0.5406795 0.11878036 0.033266556
0.462453 0.38270566 -0.06213564 0.3912485 -0.35090202 -0.06581388 -0.35680237 0.094369985
-0.59228396 3.0422757 -0.028926823 -0.58388513 -0.1357015 0.089600325 -0.018507138 -0.025559707
0.14894544 -0.591888 0.8333637 0.5114463 0.5349352 -0.33676717 0.017171888 -0.04183784
-0.77016896 0.19164844 0.09143372 1.3835697 -0.42938483 -0.2743585 -0.2655244 0.8929414
-0.058810633 0.010895839 0.35547024 -0.5748372 1.3313875 0.26096967 0.41213405 0.4495102
-0.19894983 -0.16049148 0.47403514 0.08184973 -0.6527085 3.1834598 -1.2045867 -0.30638573
-0.24288498 0.25214905 -0.21093191 -0.13933937 0.052517135 -0.11252786 0.42793122 0.35592377
0.41179764 -0.3326398 1.0136625 0.12521204 0.73233277 -0.20042984 -0.07279905 -2.3281865
0.36677313 0.06638737 0.5773359 -0.24574661 0.05182478 -0.049034856 0.06447938 -0.72547203
-0.33151633 -0.17125918 -0.25141388 -0.14073 0.17411652 -0.10700135 -0.104832 0.23694676
0.053290498 -1.1484324 0.35988638 -0.07891508 0.04022785 0.24553517 0.08467742 -0.0134683335
0.1492984 0.29526663 -1.2376343 0.2843013 0.4920779 -0.031008774 0.29750875 -0.05414712
-0.18862955 -0.015290761 0.38290069 1.443275 -0.11119751 -0.068327434 0.17156221 -0.34829217
-0.00067545794 -0.28183612 0.2789367 -0.29671374 -0.50169075 -0.04037038 -0.053580094 -0.23683216
0.119972326 0.3579664 0.087791644 -0.26977348 0.46173126 -4.061153 0.168584 -0.032149613
-0.1763579 0.1322406 -0.27023727 -0.32079208 0.29983336 -0.14328001 -2.2890143 -0.33991566
-0.03425314 -0.2173721 0.6053891 0.11275058 0.5323888 -0.23971051 0.34948668 -1.1335564
-0.021774417 -0.10908023 -0.12205004 -0.22082908 -0.11003558 0.13410378 0.13652442 0.18383965
0.34273052 -0.57681346 -0.2098039 0.08198143 0.44989237 0.35723054 -0.00131939 -0.23388202
-0.4605083 0.85727084 -0.2462048 0.12369997 -0.49230698 -0.52539325 -0.265819 -0.15959302
-0.25343055 -0.45166236 -0.4604249 0.9104288 1.8593209 0.73447347 -2.4820416 0.06887077
1.3681955 -0.592398 0.38351867 1.1698377 0.28339767 0.19989614 0.3934754 -0.31279215
-0.49006644 0.42804918 0.13134502 -0.3961288 0.31467184 -0.32479075 -0.47903666 0.18749495
-0.24167961 -0.30115876 0.02966924 0.15146358 -0.011244433 1.1771467 0.16131087 0.50226593
0.04491673 -0.111744426 -0.45069072 0.59192485 -0.14861839 -0.018710997 -1.7026938 -0.06642894
-0.33406833 0.09218071 -0.019578377 0.29560807 0.017967328 -0.04976584 -0.31485635 -0.25466308
-0.0069152303 0.42915106 -0.39352655 -0.08805509 -0.03313115 0.35843 0.22928543 -0.13162215
0.82333064 -0.43530104 -0.28465497 -0.35396606 1.6952295 0.07579776 0.009604277 0.1633556
-0.32720017 2.500149 0.26543075 0.06265368 -0.5707372 -0.041412804 -0.20446564 0.17795703
-0.18157837 -0.07204119 -0.08325354 -0.103935815 -0.3113151 0.8267137 -1.3754258 -0.42443442
-0.2386036 0.11205419 -0.060115233 -1.794667 -0.29131588 -0.3042751 0.035419878 -0.93331325
00000000: 92db 3a3e 0bed 143f 2799 fb3c 1d00 a1bf
00000010: 21a8 43bd f969 0a3f 1e43 f33d 8342 083d
00000020: a4c6 ec3e fff1 c33e f181 7ebd b951 c83e
00000030: 6ea9 b3be 6dc9 86bd cdae b6be 0d45 c13d
00000040: ec9f 17bf a5b4 4240 f2f7 ecbc 7f79 15bf
00000050: 56f5 0abe 6080 b73d 489c 97bc 9762 d1bc
00000060: 2785 183e f985 17bf 5357 553f 25ee 023f
00000070: 83f1 083f bf6c acbe 0fac 8c3c 285e 2bbd
00000080: cb29 45bf 7d3f 443e 9a41 bb3d d018 b13f
00000090: 54d8 dbbe b878 8cbe d0f2 87be cf97 643f
000000a0: 6be3 70bd 7684 323c 3200 b63e 8828 13bf
000000b0: e86a aa3f d19d 853e 3c03 d33e 3326 e63e
000000c0: 81b9 4bbe e157 24be bcb4 f23e d5a0 a73d
000000d0: e717 27bf cebd 4b40 e62f 9abf 97de 9cbe
000000e0: d7b6 78be ae19 813e 89fe 57be fbae 0ebe
000000f0: 351c 573d 0275 e6bd cd19 db3e a43b b63e
00000100: 24d7 d23e c44f aabe b1bf 813f 9637 003e
00000110: 297a 3b3f 7b3d 4dbe ab17 95bd 0201 15c0
00000120: b0c9 bb3e 1af6 873d 49cc 133f 00a5 7bbe
00000130: 3846 543d c6d8 48bd c40d 843d 89b8 39bf
00000140: 82bc a9be 915e 2fbe 52b9 80be 861b 10be
00000150: 9a4b 323e 8623 dbbd 29b2 d6bd 2ca2 723e
00000160: 2347 5a3d d5ff 92bf 0743 b83e 3b9e a1bd
00000170: f5c5 243d 926d 7b3e 5b6b ad3d 49aa 5cbc
00000180: aee1 183e 302d 973e cd6a 9ebf f18f 913e
00000190: a2f1 fb3e 1d06 febc 1153 983e 5fc9 5dbd
000001a0: 1b28 41be 1a86 7abc 8f0b c43e 3cbd b83f
000001b0: 85bb e3bd 41ef 8bbd 01ae 2f3e 5a53 b2be
000001c0: 3711 31ba d34c 90be cbd0 8e3e ddea 97be
000001d0: ce6e 00bf 695b 25bd cd76 5bbd 2184 72be
000001e0: 0db4 f53d 5f47 b73e 1bcc b33d c01f 8abe
000001f0: 0a68 ec3e f7f4 81c0 49a1 2c3e 50af 03bd
00000200: 2a97 34be 146a 073e 8a5c 8abe dc3e a4be
00000210: c283 993e ffb7 12be 367f 12c0 6d09 aebe
00000220: 054d 0cbd cb96 5ebe c8fa 1a3f c7e9 e63d
00000230: a24a 083f ac76 75be ebef b23e 6018 91bf
00000240: 4360 b2bc 7565 dfbd 5ff5 f9bd 0521 62be
00000250: 565a e1bd 8052 093e 0fcd 0b3e 7640 3c3e
00000260: 607a af3e 0caa 13bf d5d6 56be e1e5 a73d
00000270: 4b58 e63e ece6 b63e 62ef acba c57e 6fbe
00000280: bec7 ebbe 1a76 5b3f 1c1d 7cbe 6956 fd3d
00000290: a90f fcbe 2c80 06bf 6e19 88be 5a6c 23be
000002a0: a6c1 81be 4a40 e7be d0bc ebbe dd11 693f
000002b0: 3afe ed3f 7406 3c3f c5d9 1ec0 1e0c 8d3d
000002c0: 0821 af3f 65a7 17bf 8f5c c43e 3ebd 953f
000002d0: 8019 913e 93b1 4c3e 9c75 c93e 4b26 a0be
000002e0: fde9 fabe 4329 db3e 4f7f 063e 65d1 cabe
000002f0: ab1c a13e f94a a6be 4b44 f5be adfe 3f3e
00000300: dc7a 77be 7b31 9abe e80c f33c 4519 1b3e
00000310: 923a 38bc beac 963f ad2e 253e 8094 003f
00000320: 9bfa 373d 43da e4bd efc0 e6be 6388 173f
00000330: 6b2f 18be ce47 99bc dff1 d9bf e50b 88bd
00000340: 010b abbe 3dc9 bc3d d562 a0bc f159 973e
00000350: 3830 933c 44d7 4bbd da34 a1be 3363 82be
00000360: 2899 e2bb b0b9 db3e 507c c9be 3a56 b4bd
00000370: 87b4 07bd 2384 b73e cdc9 6a3e f5c7 06be
00000380: ccc5 523f c7df debe 4cbe 91be 0a3b b5be
00000390: 48fd d83f db3b 9b3d 425b 1d3c b146 273e
000003a0: c886 a7be 7102 2040 8ae6 873e 9350 803d
000003b0: d51b 12bf 79a0 29bd 715f 51be 5e3a 363e
000003c0: aeef 39be 558a 93bd d580 aabd 4ddc d4bd
000003d0: b164 9fbe 82a3 533f f40d b0bf 784f d9be
000003e0: 8154 74be ab7c e53d 643b 76bd a6b7 e5bf
000003f0: 5b27 95be f2c9 9bbe 6f14 113d 9eed 6ebf

gnn.convs.1.lin_l.weight f4 [32, 32]
-0.0838444 -1.6160581 0.40558183 -0.91396797 -0.2375974 -1.5184276 0.2575423 0.9018099
-0.19255689 0.18778735 0.19506681 -0.32227746 0.02525072 0.79816663 0.111253805 0.34719145
-0.12871966 -0.5156261 -0.19250661 -0.7448598 0.2032956 0.02890693 0.88662076 0.20913263
-0.034620743 -0.09430171 0.047768082 0.74016994 -0.8326918 -0.7053556 -1.601447 0.30973387
-0.03575176 0.82034564 -0.05937845 0.5136931 0.034775797 0.134792 0.0834907 -0.77961236
0.064029045 -0.12987116 0.067408316 0.10946229 -0.07647167 -0.44423026 0.023698144 -0.14559525
0.15140846 -0.20905308 -0.034558322 0.33314902 -0.25641778 -0.06761293 -0.21996506 -0.066680595
-0.12574172 0.087480016 -0.07063356 -0.23601212 -0.09959848 0.29202348 1.076185 -0.14408562
-0.19565897 0.4364937 -0.07721845 0.3677051 -0.48451805 0.3638295 0.3815529 -0.09479406
0.32049894 -0.0031037172 0.054214574 0.003731121 -0.10774565 -0.5774498 0.3623411 -0.13305928
-0.16279757 -0.35728997 -0.011987353 0.36495215 0.23411725 0.053983018 0.2548526 -0.0015307501
-0.19790177 -0.33411545 0.16239977 -0.31029072 0.24458233 0.20458336 0.99436045 -0.23257773
-0.11547132 -0.025098728 -0.13754775 -0.0146372905 -0.18337895 -0.14288437 0.068311036 0.4079442
0.14347658 -0.053036746 -0.07876623 0.050442625 -0.072754025 1.1176574 0.04614913 0.07357621
0.03632601 0.21131752 0.057878435 -0.119977206 -0.27406076 -0.04950186 0.18034536 -0.08772725
-0.022238469 -0.053246576 0.0119034145 -0.19074008 0.19241875 0.07487558 -0.3923345 -0.04645763
0.12703247 1.1402171 -0.030721977 0.55638456 -0.055258583 0.015352348 -0.20787588 -1.0326067
-0.26738152 -0.19377798 -0.0053417953 0.17508002 0.21541652 -0.6727177 -0.3305904 -0.39178455
-0.13761735 0.03035127 -0.16438912 0.60911036 -0.51137555 0.13815188 -0.5006978 0.058793023
0.096856564 0.36798435 0.0023460034 -0.22600743 -0.198946 0.4251833 1.2981911 -0.10224554
0.04291533 -0.14612424 0.04493887 -0.10967488 0.039257415 -0.1270096 0.019839995 0.039366115
-0.07326266 0.092819 -0.21957856 -0.0878847 -0.24735036 -0.03374303 0.095063075 -0.015777508
0.06041929 -0.07821961 -0.020061366 -0.03505201 0.0041268743 -0.059515696 -0.22450453 -0.12017968
-0.018839164 -0.11560454 -0.06102695 -0.21755886 -0.02681874 -0.16061282 0.08613482 0.2178623
0.030266993 0.010301705 0.021722632 0.14497991 -0.10257193 -0.0017283029 -0.48370874 -0.018418282
-0.5543142 -0.1242431 0.14121988 0.16736855 -0.035645586 0.23090658 0.046044074 -0.0809275
0.016007742 -0.25216898 -0.12590833 -0.0752585 -0.013869008 -0.018279785 0.22451629 -0.061311748
0.110749796 -0.09968802 0.11245273 0.06652706 0.0927233 -0.018387284 -0.09566519 -0.21622589
0.20887658 0.47876692 0.02376529 0.092685945 0.037085783 0.055727854 0.6252213 -1.558894
-0.72634566 -0.31065497 -0.28061503 -0.025858847 -0.13474642 -0.4402754 -0.6975818 -0.8649581
-0.12601583 0.8785905 -0.09986961 0.10608242 0.2913067 -0.052467294 -0.91582644 -0.3190794
-0.09516941 0.3001282 -0.46832865 -0.088934794 -0.048761804 0.24065565 0.11634538 0.42250377
00000000: 9db6 abbd feda cebf 6ca8 cf3e cef9 69bf
00000010: bc4c 73be d65b c2bf 96dc 833e 03dd 663f
00000020: a22d 45be 544b 403e 98bf 473e 8d01 a5be
00000030: 99da ce3c a654 4c3f 09d9 e33d 14c3 b13e
00000040: 16cf 03be 1200 04bf 7420 45be 22af 3ebf
00000050: b92c 503e 3ace ec3c 94f9 623f dd26 563e
00000060: 7bce 0dbd 4121 c1bd 77a8 433d c77b 3d3f
00000070: 4a2b 55bf 2f92 34bf 37fc ccbf 7095 9e3e
00000080: 7070 12bd 2c02 523f d136 73bd 6481 033f
00000090: 1171 0e3d ea06 0a3e 2cfd aa3d ad94 47bf
000000a0: a921 833d f2fc 04be 5f0d 8a3d c42d e03d
000000b0: 2e9d 9cbd 2672 e3be 9c22 c23c ec16 15be
000000c0: d20a 1b3e 0312 56be 078d 0dbd 8292 aa3e
000000d0: 3149 83be a678 8abd 853e 61be d68f 88bd
000000e0: 70c2 00be b928 b33d 54a8 90bd 29ad 71be
000000f0: 4afa cbbd 1a84 953e 6ec0 893f 2e8b 13be
00000100: d35a 48be 1a7c df3e b524 9ebd d843 bc3e
00000110: c012 f8be dc47 ba3e e75a c33e 6323 c2bd
00000120: 7018 a43e bc67 4bbb 1a10 5e3d d385 743b
00000130: c0a9 dcbd c0d3 13bf c684 b93e b140 08be
00000140: 68b4 26be b6ee b6be 9a66 44bc 02db ba3e
00000150: 6fbc 6f3e 4c1d 5d3d 0a7c 823e 73a3 c8ba
00000160: c3a6 4abe 2e11 abbe 204c 263e 6dde 9ebe
00000170: ca73 7a3e 4d7e 513e 688e 7e3f db28 6ebe
00000180: 3a7c ecbd d99b cdbc 51d9 0cbe 3fd1 6fbc
00000190: b1c7 3bbe 4850 12be a8e6 8b3d 10de d03e
000001a0: 86eb 123e 0f3d 59bd 3050 a1bd ed9c 4e3d
000001b0: 1000 95bd 660f 8f3f df06 3d3d 20af 963d
000001c0: 95ca 143d 9f63 583e f011 6d3d 9cb6 f5bd
000001d0: b151 8cbe 76c2 4abd 74ac 383e 58aa b3bd
000001e0: 732d b6bc 1519 5abd 8a06 433c 5e51 43be
000001f0: 6c09 453e 5e58 993d 11e0 c8be 5b4a 3ebd
00000200: cd14 023e a2f2 913f a8ac fbbc 386f 0e3f
00000210: d356 62bd 6a88 7b3c 6add 54be 752c 84bf
00000220: 3be6 88be bc6d 46be 3a0a afbb 2d48 333e
00000230: 2696 5c3e 3a37 2cbf 2543 a9be fc97 c8be
00000240: 90eb 0cbe 3aa3 f83c 9f55 28be a8ee 1b3f
00000250: 82e9 02bf b077 0d3e bb2d 00bf f4d0 703d
00000260: bc5c c63d 7268 bc3e 68bf 193b 7e6e 67be
00000270: 80b8 4bbe a0b1 d93e 202b a63f 1c66 d1bd
00000280: fcc7 2f3d 98a1 15be d211 383d 399d e0bd
00000290: 62cc 203d ce0e 02be 7c87 a23c 5d3e 213d
000002a0: bc0a 96bd e317 be3d 34d9 60be e5fc b3bd
000002b0: 6a49 7dbe 2236 0abd 6eb0 c23d d53f 81bc
000002c0: 387a 773d 9a31 a0bd bc57 a4bc b292 0fbd
000002d0: bb3a 873b bbc6 73bd 84e4 65be c420 f6bd
000002e0: 9754 9abc 13c2 ecbd 65f7 79bd c0c7 5ebe
000002f0: f9b2 dbbc b077 24be 7467 b03d 4b17 5f3e
00000300: 7cf2 f73c 7cc8 283c a9f3 b13c 9d75 143e
00000310: 3b11 d2bd 3988 e2ba aca8 f7be f0e1 96bc
00000320: 89e7 0dbf 2b73 febd f29b 103e a962 2b3e
00000330: 1b01 12bd c672 6c3e b698 3c3d 51bd a5bd
00000340: ab22 833c 4b1c 81be 1dee 00be 2121 9abd
00000350: d63a 63bc 7dbf 95bc 99e7 653e 0722 7bbd
00000360: cad0 e23d 3c29 ccbd 9e4d e63d 573f 883d
00000370: b7e5 bd3d eea0 96bc 1cec c3bd 526a 5dbe
00000380: bee3 553e f020 f53e 6daf c23c 21d2 bd3d
00000390: 43e7 173d e442 643d 810e 203f d789 c7bf
000003a0: caf1 39bf 2b0e 9fbe c6ac 8fbe efd5 d3bc
000003b0: f7fa 09be c76b e1be b994 32bf e56d 5dbf
000003c0: 4b0a 01be 4feb 603f 7088 ccbd bd41 d93d
000003d0: 2726 953e f2e7 56bd 9a73 6abf 605e a3be
000003e0: 2ee8 c2bd 67aa 993e c6c8 efbe 7223 b6bd
000003f0: 75ba 47bd 6f6e 763e 7d46 ee3d 6a52 d83e

gnn.convs.1.lin_l.bias f4 [32]
0.10391647 -0.13027997 -0.13641304 -0.10169472 0.17008094 -0.09985358 -0.09650699 -0.11269315
-0.08936703 -0.04762282 0.08334137 -0.17427208 -0.17680521 0.03144595 -0.07978049 0.34690225
0.32213652 0.34507835 0.19661903 0.089327045 -0.03127122 -0.37768534 0.43180218 -0.21607423
0.10935083 -0.08918087 0.16543804 0.13807285 0.015700923 -0.05692588 -0.034911804 -0.066343874
00000000: 29d2 d43d 1d68 05be dcaf 0bbe 5245 d0bd
00000010: b329 2e3e 0980 ccbd 75a5 c5bd abcb e6bd
00000020: 1006 b7bd 2510 43bd e1ae aa3d 6174 32be
00000030: 6d0c 35be 78cd 003d f463 a3bd 2c9d b13e
00000040: 14ef a43e 1cae b03e 8056 493e 19f1 b63d
00000050: 4016 00bd f95f c1be 2d15 dd3e 9042 5dbe
00000060: 54f3 df3d 76a4 b6bd 9768 293e f862 0d3e
00000070: 399f 803c 1d2b 69bd aeff 0ebd 4cdf 87bd

gnn.convs.1.lin_r.weight f4 [32, 32]
0.44826517 1.616069 0.09298426 0.81647897 0.31772414 1.3786339 -0.60903376 -1.9049788
0.12945741 -0.35080236 -0.18142809 0.5971776 -0.0276892 -1.2152445 -0.8189811 -0.55850786
0.23795246 0.47927913 0.031274147 1.5901703 0.15269734 0.2506518 -1.3788602 -0.093381785
0.43270177 0.2799845 0.09529703 -1.1147703 0.4707529 1.0395449 0.9391263 -0.33588484
-0.2403428 -0.23534852 -0.20964713 -0.41941252 -0.2625318 0.074884705 -0.40773615 -0.012286781
0.17227839 0.17598307 0.20001909 0.11436785 0.017910147 0.2816947 0.25532195 0.08020283
0.17854165 0.01612032 -0.12952694 -0.08855954 0.15775114 0.04466982 0.2063991 -0.05810314
0.048328925 -0.14325823 0.21115187 0.09910388 0.013739796 -0.019043388 -0.06787319 -0.11232438
0.07026796 -0.036077887 0.093583 0.29942173 -0.7513621 0.27923337 -0.11724888 -0.8063283
0.22452845 0.029755073 -0.061529398 0.0069438196 0.1406027 0.18641399 -0.17387831 -0.0696213
0.2876344 0.12057721 -0.030345442 0.3110481 -0.0004645856 -0.12180292 -0.48153013 0.27396494
0.0024569358 -0.312682 0.12583715 0.5045882 -0.046040364 0.09196274 0.45614827 -0.05672299
-0.14246227 0.12942436 -0.07758696 -0.24614288 -0.12351215 -0.019655162 0.010023334 0.07064418
0.075936 -0.054285694 -0.1659118 -0.21994452 -0.27426744 0.015898162 -0.31757382 0.12427005
-0.12141159 -0.19826756 0.24459589 -0.044874117 0.21684337 -0.044311415 0.070887804 -0.18896979
-0.08343813 -0.0044142804 -0.022315979 -0.3490743 0.11855663 0.21767367 0.1283161 0.09737567
-0.22998558 -0.5467367 -0.23363289 0.31786725 0.025361612 0.3532437 -0.8340408 0.6696644
0.4834413 0.22381718 0.1787802 0.02915208 -0.06774752 0.54585606 0.5394797 0.27571318
-0.036727745 -0.61997813 -0.015207747 -0.20314662 0.24504928 -0.03766361 0.43413505 -0.050135978
-0.23579097 -0.2047208 0.07207126 0.032362908 -0.19578375 -0.41216338 -0.22796403 0.06512916
0.07948045 -0.2405088 -0.21270047 -0.21587099 -0.08214775 0.087780714 0.23256364 -0.038405307
-0.030960923 -0.0025118894 0.019672237 -0.18214409 -0.17677449 0.01208347 0.14879626 -0.15187262
0.061583657 0.041959304 0.144144 -0.07039919 -0.16573864 -0.08301713 -0.18927822 0.01752334
-0.1289758 0.10436157 -0.2024785 0.10736173 0.0063804686 -0.113853805 0.013835623 0.029822176
0.060521603 -0.031877216 -0.18003316 -0.32469738 0.053516217 -0.03843255 0.53636044 -0.32274422
0.22514318 -0.03066471 -0.005780162 -0.16534907 0.010004493 -0.09701125 0.036047135 -0.16434976
-0.14714423 0.42275542 0.12695715 0.061042666 -0.10818402 -0.025117857 -0.34199187 0.09392181
-0.18703683 -0.044966433 0.07820231 0.20115887 0.18440458 0.060696144 -0.060989335 -0.18400903
0.094087884 -0.97968525 -1.3183129 0.098806724 -0.109535344 -0.28240097 -0.90064245 1.6286341
1.0844778 -0.07835715 0.4791787 -0.068852045 0.075673856 0.4698572 1.2078731 0.5884709
-0.1517856 -1.932716 -0.02606573 0.025364121 0.9954082 -0.50798374 1.5855945 -0.1834755
-0.15017843 -0.51500225 0.19113909 0.071532235 -0.6837835 -0.8811293 -0.44331822 -0.20884365
00000000: 0383 e53e 59db ce3f 886e be3d c404 513f
00000010: bdac a23e 1377 b03f a3e9 1bbf 58d6 f3bf
00000020: 7c90 043e 5e9c b3be 49c8 39be a2e0 183f
00000030: 76d4 e2bc 228d 9bbf bfa8 51bf 5ffa 0ebf
00000040: cfa9 733e 1364 f53e 5219 003d b38a cb3f
00000050: b15c 1c3e 6f55 803e 7e7e b0bf f33e bfbd
00000060: 168b dd3e 215a 8f3e 172b c33d cbb0 8ebf
00000070: 8606 f13e cf0f 853f 956a 703f 19f9 abbe
00000080: 6c1c 76be 34ff 70be bdad 56be 3dbd d6be
00000090: 916a 86be 275d 993d cbc2 d0be 7f4e 49bc
000000a0: bf69 303e e834 343e ced1 4c3e b139 ea3d
000000b0: 4db8 923c 4a3a 903e 8fb9 823e 6241 a43d
000000c0: 9fd3 363e c30e 843c b6a2 04be b45e b5bd
000000d0: 8489 213e b4f7 363d 495a 533e 8ffd 6dbd
000000e0: 8df4 453d 49b2 12be 3238 583e faf6 ca3d
000000f0: e21c 613c e100 9cbc 1901 8bbd 530a e6bd
00000100: a6e8 8f3d 68c6 13bd 72a8 bf3d ce4d 993e
00000110: 4459 40bf adf7 8e3e 2e20 f0bd 886b 4ebf
00000120: c9ea 653e e9c0 f33c 4006 7cbd fb88 e33b
00000130: 27fa 0f3e 4fe3 3e3e 280d 32be 9d95 8ebd
00000140: d144 933e 2ff1 f63d 0197 f8bc b241 9f3e
00000150: a093 f3b9 cf73 f9bd 1e8b f6be 2245 8c3e
00000160: 8b04 213b db17 a0be 74db 003e b12c 013f
00000170: d294 3cbd f656 bc3d 448c e93e 5e56 68bd
00000180: a1e1 11be d287 043e e9e5 9ebd e10c 7cbe
00000190: f0f3 fcbd dd03 a1bc e938 243c e5ad 903d
000001a0: 5584 9b3d ad5a 5ebd c8e4 29be 2339 61be
000001b0: c86c 8cbe dd3c 823c 0999 a2be 4c81 fe3d
000001c0: a4a6 f8bd a706 4bbe 5877 7a3e eccd 37bd
000001d0: 300c 5e3e e37f 35bd a02d 913d 4c81 41be
000001e0: 9ce1 aabd aba5 90bb 00d0 b6bc deb9 b2be
000001f0: d2cd f23d d9e5 5e3e 4c65 033e e56c c73d
00000200: 5781 6bbe f0f6 0bbf 763d 6fbe 7fbf a23e
00000210: 28c3 cf3c 5cdc b43e b383 55bf 206f 2b3f
00000220: 9e85 f73e 5530 653e 2812 373e 58d0 ee3c
00000230: 36bf 8abd 39bd 0b3f 571b 0a3f 472a 8d3e
00000240: d56f 16bd e3b6 1ebf ea29 79bc ab05 50be
00000250: 33ee 7a3e 2845 1abd f346 de3e 625b 4dbd
00000260: 3073 71be 54a2 51be 199a 933d f88e 043d
00000270: 897b 48be 1407 d3be 676f 69be 7062 853d
00000280: a5c6 a23d f047 76be 27ce 59be 490d 5dbe
00000290: 143d a8bd 60c6 b33d 2a25 6e3e e24e 1dbd
000002a0: c3a1 fdbc 839e 24bb ac27 a13c fb83 3abe
000002b0: 5f04 35be bff9 453c 0c5e 183e 7f84 1bbe
000002c0: 253f 7c3d 85dd 2b3d 7c9a 133e 732d 90bd
000002d0: 64b7 29be e304 aabd 26d2 41be 1c8d 8f3c
000002e0: 3b12 04be 85bb d53d 8656 4fbe 77e0 db3d
000002f0: 4013 d13b 2f2c e9bd cfae 623c a34d f43c
00000300: 80e5 773d af91 02bd 9d5a 38be bc3e a6be
00000310: d233 5b3d 736b 1dbd eb4e 093f bb3e a5be
00000320: ef8b 663e 8f34 fbbc 8367 bdbb 4451 29be
00000330: e3e9 233c d6ad c6bd 29a6 133d 4e4b 28be
00000340: faac 16be 6673 d83e 0e01 023e e007 7a3d
00000350: 958f ddbd f7c3 cdbc 8f19 afbe 145a c03d
00000360: 9586 3fbe b92e 38bd 8828 a03d 97fc 4d3e
00000370: 8ed4 3c3e 859c 783d f4cf 79bd dd6c 3cbe
00000380: 26b1 c03d a7cc 7abf 7abe a8bf 2e5b ca3d
00000390: 1154 e0bd dc96 90be 8190 66bf 1577 d03f
000003a0: 2bd0 8a3f b779 a0bd e956 f53e 4d02 8dbd
000003b0: e5fa 9a3d 1f91 f03e 969b 9a3f 07a6 163f
000003c0: af6d 1bbe 3d63 f7bf cc87 d5bc 6bc8 cf3c
000003d0: 12d3 7e3f 390b 02bf c3f4 ca3f 00e1 3bbe
000003e0: 60c8 19be 30d7 03bf f7b9 433e 7e7f 923d
000003f0: 6f0c 2fbf b191 61bf 9bfa e2be 1cdb 55be

gnn.convs.2.lin_l.weight f4 [32, 32]
0.4490565 -0.3392025 -0.23966312 0.13029625 -0.36451694 -0.17301139 0.13170433 0.07299296
-0.29151592 0.1745611 0.04065066 0.033502165 -0.06708227 -0.17212489 0.68502015 -0.051542148
-0.031960513 -0.4023704 -0.10507549 -0.28379893 -0.19531626 0.05753763 -0.82918304 0.05279666
0.19748326 0.0029274998 -0.4591135 0.28247792 0.020283367 -0.12665075 0.0063264407 -0.04100782
0.022295963 0.033235446 -0.285847 -0.16095316 -0.058410335 0.15823787 -0.083106615 -0.4969503
0.022780223 -0.0700716 -0.42505187 0.0228555 -0.0044268793 -0.2399773 -0.14289491 0.017228514
-0.102677405 -0.1793352 -0.014455779 -0.045584347 0.15508884 0.12130279 -0.079730034 0.06758931
-0.122283354 -0.12797898 0.06502019 -0.16940577 0.17662552 -0.02496503 0.06835216 -0.04917549
0.18969822 -0.068936266 0.19965468 0.11095586 -0.26174203 0.10001422 0.09896033 -0.028303854
-0.12944838 0.048001684 0.55113393 -0.10154309 0.16368017 -0.30635792 0.07307769 -0.28181237
-0.1267758 0.09810833 0.07330547 0.08518207 0.21037129 0.20663099 -0.04406547 -0.04654369
0.1782724 -0.0064008855 -0.42110905 -0.014032533 0.017215332 0.09369994 0.008904139 -0.11960166
0.33589992 -0.1999801 -0.095017426 0.08065704 -0.25770694 -0.20276552 0.076233804 -0.35884827
-0.06702816 -0.19839138 0.2610038 0.27820578 -0.21247907 0.13126199 0.25765833 -0.0424279
0.023008239 -0.2056502 -0.083598204 -0.23700333 0.040890265 -0.031213395 -0.45577037 0.1334265
0.079985164 0.49249345 0.03687502 0.17049813 -0.0734957 0.0005417114 -0.10885262 0.081143394
-0.033226643 0.38293257 0.04633943 -0.28980497 0.62046224 0.17389052 0.16143978 -0.3177821
-0.57678384 0.38719082 -0.693308 0.33362094 -0.065842874 -0.039091233 0.04116103 0.060441386
-0.051384047 0.10555728 0.33898398 0.48278555 0.10894549 -0.047502134 -0.8587015 0.082665615
0.047179114 0.41928992 -0.18513282 -0.25766477 0.18544304 0.20093329 0.15227625 0.28308186
-3.116141 0.5633298 0.17630024 -0.34825876 0.54388446 -0.033289645 0.054354202 -0.5725327
0.23910442 0.19107184 -1.0530387 -0.22113918 -0.020808574 0.051492214 -0.5603335 0.059657257
0.0045818933 0.18434523 0.18590558 0.35839018 0.08741555 -0.5194728 -0.91394013 -0.23685598
-0.09961308 -0.26189986 0.46146613 -0.38386452 0.1403587 0.43931502 0.14371099 0.18128325
0.6433387 -0.038746912 0.0036143651 -0.038810976 0.14045915 0.05578255 0.068787366 -0.1258009
-0.011569993 -0.058159206 0.20491016 -0.09562745 -0.15095755 0.003351065 0.063505575 0.13246076
-0.04756668 -0.2951331 0.19887628 -0.07730039 -0.03417353 0.11875577 -0.024383845 0.037862916
-0.05374085 -0.08970458 0.032761633 -0.25293437 -0.07579751 0.043559596 0.06085011 0.2881707
-3.2194967 -0.20105503 0.6308014 0.07716028 -0.13659382 0.06993811 0.36538708 0.77593845
0.12167931 0.057132818 -0.11899548 -1.3500035 0.21386087 -0.10977881 -0.1987363 0.52270585
-0.52667046 0.15873079 0.33078817 0.47964647 0.1438717 -0.93616825 1.5959996 0.048991356
-0.18007201 -0.82775486 -0.12336957 -0.7327613 -0.020501383 0.16536874 0.50089896 0.028466647
00000000: bcea e53e f3ab adbe 406a 75be 616c 053e
00000010: f7a1 babe e629 31be 80dd 063e 557d 953d
00000020: 9341 95be 25c0 323e 4e81 263d 9139 093d
00000030: 6e62 89bd 8241 30be 7b5d 2f3f dc1d 53bd
00000040: 07e9 02bd 7e03 cebe d231 d7bd 184e 91be
00000050: fc00 48be 94ac 6b3d 5745 54bf 5041 583d
00000060: 0d39 4a3e 4cdb 3f3b ed10 ebbe f2a0 903e
00000070: 4e29 a63c bcb0 01be 084e cf3b d1f7 27bd
00000080: 06a6 b63c e421 083d 8a5a 92be e8d0 24be
00000090: ad3f 6fbd 1c09 223e cd33 aabd 4570 febe
000000a0: 979d ba3c b381 8fbd 66a0 d9be 753b bb3c
000000b0: 5b0f 91bb 9cbc 75be 0b53 12be d022 8d3c
000000c0: 8848 d2bd a6a3 37be efd7 6cbc a7b6 3abd
000000d0: 9ccf 1e3e 996d f83d 8049 a3bd 446c 8a3d
000000e0: b26f fabd ec0c 03be 4e29 853d b578 2dbe
000000f0: 52dd 343e 7683 ccbc 38fc 8b3d 3d6c 49bd
00000100: 4040 423e 752e 8dbd 4772 4c3e d33c e33d
00000110: 0d03 86be 41d4 cc3d b7ab ca3d 7cdd e7bc
00000120: 1e8e 04be 6a9d 443d 1d17 0d3f d3f5 cfbd
00000130: c69b 273e f2da 9cbe c2a9 953d b649 90be
00000140: 84d1 01be 05ed c83d 2e21 963d f073 ae3d
00000150: 926b 573e 1397 533e ff7d 34bd 99a4 3ebd
00000160: 0a8d 363e 85be d1bb 9b9b d7be b6e8 65bc
00000170: 2b07 8d3c c1e5 bf3d aae2 113c b7f1 f4bd
00000180: 13fb ab3e 95c7 4cbe 7f98 c2bd 852f a53d
00000190: 2af2 83be c4a1 4fbe 7820 9c3d f6ba b7be
000001a0: 0f46 89bd 1c27 4bbe 4aa2 853e fd70 8e3e
000001b0: 1d94 59be 8b69 063e cbeb 833e e1c8 2dbd
000001c0: c67b bc3c f795 52be 8935 abbd 00b1 72be
000001d0: 8d7c 273d 3cb3 ffbc bc5a e9be f5a0 083e
000001e0: 43cf a33d 1a28 fc3e 430a 173d 1097 2e3e
000001f0: ea84 96bd a301 0e3a 1fee debd 822e a63d
00000200: a918 08bd bd0f c43e 6ace 3d3d 5161 94be
00000210: 9dd6 1e3f 5b10 323e 7850 253e 56b4 a2be
00000220: 1ba8 13bf e03d c63e a27c 31bf 5dd0 aa3e
00000230: a1d8 86bd 211e 20bd 7898 283d 6391 773d
00000240: 1478 52bd 6a2e d83d 4f8f ad3e ab2f f73e
00000250: d01e df3d 9991 42bd ddd3 5bbf 974c a93d
00000260: e33e 413d 2bad d63e 7593 3dbe a3ec 83be
00000270: c8e4 3d3e 75c1 4d3e 4eee 1b3e 1bf0 903e
00000280: db6e 47c0 6236 103f 0d88 343e f94e b2be
00000290: 033c 0b3f b95a 08bd 83a2 5e3d 8191 12bf
000002a0: cad7 743e 56a8 433e f9c9 86bf 4f72 62be
000002b0: be76 aabc 80e9 523d 0472 0fbf 2b5b 743d
000002c0: b523 963b ffc4 3c3e 085e 3e3e eb7e b73e
000002d0: ed06 b33d 2bfc 04bf fbf7 69bf 608a 72be
000002e0: f101 ccbd bd17 86be 4a45 ec3e e489 c4be
000002f0: 31ba 0f3e e6ed e03e f928 133e 51a2 393e
00000300: d8b1 243f 15b5 1ebd fcde 6c3b 42f8 1ebd
00000310: 86d4 0f3e 3e7c 643d 64e0 8c3d f3d1 00be
00000320: 1190 3dbc 5938 6ebd f8d3 513e 53d8 c3bd
00000330: 9e94 1abe 8b9d 5b3b 360f 823d cba3 073e
00000340: 47d5 42bd b01b 97be 39a6 4b3e ab4f 9ebd
00000350: 8bf9 0bbd 3a36 f33d a1c0 c7bc 2516 1b3d
00000360: 5e1f 5cbd 09b7 b7bd 1031 063d 9d80 81be
00000370: ba3b 9bbd 8c6b 323d f73d 793d 1c8b 933e
00000380: 3c0c 4ec0 5fe1 4dbe 337c 213f 3506 9e3d
00000390: 40df 0bbe b63b 8f3d 0414 bb3e e7a3 463f
000003a0: 0133 f93d 1a04 6a3d e7b3 f3bd eacc acbf
000003b0: 58fe 5a3e b6d3 e0bd 8781 4bbe 0dd0 053f
000003c0: e0d3 06bf 538a 223e 115d a93e 3994 f53e
000003d0: 1a53 133e b9a8 6fbf b749 cc3f 29ab 483d
000003e0: cc64 38be bee7 53bf 2fa9 fcbd 3f96 3bbf
000003f0: 84f2 a7bc 6c56 293e ea3a 003f e332 e93c

gnn.convs.2.lin_l.bias f4 [32]
0.04737263 -0.057021886 0.0035274136 0.09794767 -0.088394664 -0.15713295 0.025735764 -0.13697384
-0.2756192 0.023563271 0.23981516 -0.13265681 -0.16139092 0.045262627 0.052749828 -0.1716622
-0.2147257 -0.15094355 -0.2561717 0.27750322 0.085287265 -0.05659283 0.03647928 -0.2814333
-0.20614667 -0.207318 -0.014581245 0.121006116 -0.18609975 0.20495011 0.07688252 0.026587252
00000000: ce09 423d c88f 69bd 2e2c 673b ca98 c83d
00000010: 4308 b5bd 76e7 20be cfd3 d23c df42 0cbe
00000020: f61d 8dbe c307 c13c 1b92 753e 30d7 07be
00000030: a943 25be 4e65 393d 3410 583d 37c8 2fbe
00000040: 0ee1 5bbe f290 1abe f028 83be e714 8e3e
00000050: 17ab ae3d e2cd 67bd 4c6b 153d 0718 90be
00000060: 1d18 53be 2b4b 54be 2de6 6ebc 0ed2 f73d
00000070: ef90 3ebe 71de 513e 9574 9d3d 82cd d93c

gnn.convs.2.lin_r.weight f4 [32, 32]
-1.9813184 0.45988685 0.3836583 -0.24536555 0.2798715 -0.15876663 -0.049864676 0.08478359
0.14461568 0.045682225 -0.5996943 -0.48495594 0.060301974 0.112652294 -0.5463943 0.14839491
-0.10074781 0.49512058 -0.05079392 0.49210745 0.09610914 -0.12297283 0.40099844 -0.02835721
-0.0655548 0.15094374 0.30722865 -0.20432 0.1951624 0.10687554 0.25505897 0.19803129
-0.118338026 0.163263 -0.3304955 -0.03542568 0.21912046 -0.020162767 0.15962116 0.21944566
-0.11142551 0.23447417 0.33660322 -0.22524238 -0.13537285 0.2086749 0.108542345 0.35576946
-0.084578715 0.09745945 0.072987944 0.3469854 0.13613185 0.03822695 -0.11640028 0.0025996617
0.13892263 -0.18781216 -0.031764902 0.12299462 0.200452 0.022780515 0.07522739 0.22412123
-0.100113794 -0.07327379 0.19850406 0.22808948 0.04691539 0.14753737 -0.07355462 0.06149239
-0.14994541 -0.12114472 -0.3515114 -0.047012728 -0.0258604 -0.27600044 0.056521345 0.3775644
0.12682438 0.018373862 -0.04619733 -0.0044966475 0.105946936 -0.08221098 0.03916941 -0.23539455
0.055945404 0.051930796 -0.28694078 0.012501668 0.07596913 -0.03479297 0.1656728 -0.06575277
-0.027111884 0.18735223 0.4094535 -0.11868665 0.19139722 -0.27835763 -0.08543582 0.20429908
0.2829851 -0.07346244 -0.52816814 0.118586205 0.07943464 0.15532884 -0.25360957 0.27655968
-0.10753397 0.33269083 -0.14989251 0.0014553601 -0.03530838 -0.015619617 0.15763974 0.22332592
-0.0029625732 0.14065227 0.09985592 -0.053705696 -0.048684835 0.342103 0.22163007 -0.083138354
0.2596071 -0.18953097 -0.05148424 0.06541889 -0.34213147 0.3444431 0.09213193 -0.27317777
-0.52757823 0.39707932 0.31727844 -0.417553 -0.24014446 -0.49207577 -0.09219333 -0.26702672
0.32460025 0.092338525 -0.15648238 -0.030498466 -0.10206511 -0.053764436 0.07146231 -0.024846565
-0.11483359 0.33166313 -0.15937756 0.05519365 0.044088442 -0.08216747 0.3785017 0.09422937
0.0070872772 -0.5317868 -0.04808132 -0.0048993574 -0.6068496 0.023477519 -0.07574405 0.10395616
-0.5220997 0.08842854 0.0676065 0.008026186 -0.21657352 -0.4650234 0.23252918 -0.066125296
-0.1157602 -0.0478558 -0.04200554 0.10890863 0.0919619 -0.09012975 0.2522838 0.032380544
-0.20153575 -0.22055757 -0.52271163 0.2785096 0.0229221 -0.5098047 0.096622065 -0.361667
-0.31067616 -0.16726966 0.13031617 0.06751087 -0.12417998 -0.07112182 0.003842282 -0.14170393
0.010997195 0.079625554 0.15908976 -0.16614187 -0.10520874 0.18387346 -0.008513824 -0.09190259
0.27096754 -0.0592579 0.2835704 0.24875765 0.2613116 -0.1805795 -0.13052694 0.040144112
0.156636 0.091081575 -0.05288263 0.2409913 0.08370181 -0.21054155 -0.09293933 0.23737569
0.5388023 -0.23977423 0.020220926 0.09577799 -0.4649291 0.0848654 0.07502388 -0.11013197
-0.25455752 0.3505341 0.613639 1.1077602 -0.09355039 -0.1353925 0.4225199 -0.23176378
0.4466611 -0.9193072 0.29059952 -0.92449886 0.2312914 0.42850223 -1.017481 -0.015136039
-0.17963359 -0.38520402 -0.031194964 0.20915312 0.027211744 0.0040208083 -0.9932842 0.6557338
00000000: d79b fdbf 4a76 eb3e dc6e c43e 1b41 7bbe
00000010: 514b 8f3e b893 22be e73e 4cbd 05a3 ad3d
00000020: 2216 143e 491d 3b3d 9185 19bf 254c f8be
00000030: 34ff 763d 3fb6 e63d 7fe0 0bbf d6f4 173e
00000040: de54 cebd 7280 fd3e 490d 50bd 82f5 fb3e
00000050: ded4 c43d 2ed9 fbbd ab4f cd3e 614d e8bc
00000060: 9841 86bd ff90 1a3e 134d 9d3e 4339 51be
00000070: a7d8 473e 90e1 da3d 1797 823e b7c8 4a3e
00000080: 355b f2bd 6a2e 273e b536 a9be 851a 11bd
00000090: 1d61 603e 632c a5bc bb73 233e 5db6 603e
000000a0: 0f33 e4bd ff19 703e 4257 ac3e f0a5 66be
000000b0: 2e9f 0abe dfae 553e 734b de3d 6a27 b63e
000000c0: 9b37 adbd d298 c73d b47a 953d 12a8 b13e
000000d0: 2666 0b3e dd93 1c3d 4563 eebd 165f 2a3b
000000e0: bc41 0e3e d551 40be ea1b 02bd 9ae4 fb3d
000000f0: 4a43 4d3e 349e ba3c d110 9a3d 0980 653e
00000100: 7608 cdbd 9210 96bd a644 4b3e 4a90 693e
00000110: 5a2a 403d 0914 173e cea3 96bd 72df 7b3d
00000120: 4a8b 19be b91a f8bd 4df9 b3be 6b90 40bd
00000130: 31d9 d3bc ee4f 8dbe ed82 673d 1f50 c13e
00000140: 40de 013e c884 963c 6939 3dbd 9d58 93bb
00000150: b5fa d83d 3b5e a8bd 1a70 203d 450b 71be
00000160: 0227 653d 63b5 543d e7e9 92be ccd3 4c3c
00000170: b495 9b3d 1383 0ebd 21a6 293e 63a9 86bd
00000180: be19 debc 43d9 3f3e e4a3 d13e fd11 f3bd
00000190: a2fd 433e e484 8ebe faf8 aebd c733 513e
000001a0: 6ce3 903e 7a73 96bd 0736 07bf 53dd f23d
000001b0: a1ae a23d 860e 1f3e 1dd9 81be 3b99 8d3e
000001c0: c53a dcbd 7456 aa3e 6c7d 19be c8c1 be3a
000001d0: 859f 10bd 6ce9 7fbc 506c 213e 8daf 643e
000001e0: bb27 42bb 2607 103e 4381 cc3d 81fa 5bbd
000001f0: c069 47bd 2028 af3e fef2 623e 7144 aabd
00000200: 39eb 843e 6814 42be 23e1 52bd 57fa 853d
00000210: db2b afbe d95a b03e aaaf bc3d f5dd 8bbe
00000220: 5e0f 07bf fb4d cb3e 5272 a23e 82c9 d5be
00000230: 6ee8 75be 5bf1 fbbe dbcf bcbd bab7 88be
00000240: 0132 a63e fb1b bd3d eb3c 20be ebd7 f9bc
00000250: 8307 d1bd 1938 5cbd d55a 923d 068b cbbc
00000260: e02d ebbd c0cf a93e df33 23be bd12 623d
00000270: 1596 343d 6b47 a8bd faca c13e 54fb c03d
00000280: 643c e83b 2e23 08bf ebf0 44bd ca8a a0bb
00000290: 7f5a 1bbf ed53 c03c b21f 9bbd f8e6 d43d
000002a0: 53a8 05bf 061a b53d 4775 8a3d 4480 033c
000002b0: 73c5 5dbe 8c17 eebe 211c 6e3e b36c 87bd
000002c0: af13 edbd 7104 44bd 000e 2cbd 7d0b df3d
000002d0: 8556 bc3d f295 b8bd 582b 813e 76a1 043d
000002e0: 635f 4ebe d8d9 61be 6ed0 05bf cf98 8e3e
000002f0: 21c7 bb3c 9082 02bf cae1 c53d 6b2c b9be
00000300: f210 9fbe bd48 2bbe 9a71 053e 2443 8a3d
00000310: 1352 febd 51a8 91bd ccce 7b3b d61a 11be
00000320: 942d 343c b912 a33d 6de8 223e 1821 2abe
00000330: ae77 d7bd 5349 3c3e 917d 0bbc 6d37 bcbd
00000340: 42bc 8a3e 69b8 72bd 2430 913e 53ba 7e3e
00000350: a2ca 853e d5e9 38be dba8 05be 276e 243d
00000360: 3065 203e fa88 ba3d 759b 58bd 6cc6 763e
00000370: db6b ab3d 3498 57be fa56 bebd 9d12 733e
00000380: f3ee 093f 6087 75be 5ba6 a53c 4027 c43d
00000390: 300b eebe e9cd ad3d 1fa6 993d df8c e1bd
000003a0: 5d55 82be 3579 b33e 7217 1d3f 16cb 8d3f
000003b0: 5997 bfbd 55a4 0abe 8754 d83e 7c53 6dbe
000003c0: c4b0 e43e b757 6bbf 76c9 943e f5ab 6cbf
000003d0: a7d7 6c3e a564 db3e d13c 82bf 26fd 77bc
000003e0: def1 37be 7639 c5be 958c ffbc 3c2c 563e
000003f0: 2aeb de3c fcc0 833b e047 7ebf 2cde 273f

gnn.convs.3.lin_l.weight f4 [32, 32]
0.28479448 0.14007577 -0.21356638 -0.2067227 0.19819416 -0.39364845 0.19026564 0.20661283
-0.16245615 -0.11352986 0.14831328 0.19921432 0.107259475 0.34163174 -0.014783529 -0.27873486
-0.029091265 -0.027537918 0.01740736 -0.18898347 0.3163461 -0.088005364 -0.040206965 -0.1498448
-0.070169 0.28099948 0.13214153 0.48074514 0.5827613 0.030271946 -0.048286226 -0.328342
0.10974162 0.046952672 -0.14441791 0.083972625 0.27208266 0.48330984 0.091523685 0.3868287
0.25551707 0.019539937 0.08291984 0.029883591 0.091410995 -0.50223446 0.08552224 0.10968592
-0.27369553 -0.055920772 -0.074360006 0.08667184 -0.526132 0.10191203 0.20624295 -0.016199462
-0.5934693 -0.35021725 0.10254255 0.082627475 0.007902553 0.050414868 0.16849305 0.25100747
0.04905966 0.22511984 0.08762779 -0.009497454 0.47628504 -0.16535902 0.10362488 -0.81260085
0.27589706 0.040942818 -0.19655308 -0.4107127 0.3531023 -0.19022088 -0.2596314 -0.23502234
-0.016702784 0.5315332 -0.09013378 -0.2201687 -0.27514207 -0.09376804 0.05357728 0.10310044
-0.041512784 -0.4155819 -0.0664765 0.13242777 -0.826549 -0.16308326 0.20235664 -0.0024825546
0.30642647 0.25201586 -0.14535435 -0.33290204 0.15643041 0.13264114 -0.2327923 0.6241722
-0.02561865 0.46595567 0.1337382 0.26912454 0.13280037 0.34142187 0.014699874 -0.16524227
0.31691372 0.031793125 -0.061088648 0.22029425 0.11700726 0.34196514 0.09345104 0.06406919
0.0850688 0.047005367 0.46945107 -0.14373939 -0.003819089 -0.098777995 0.30656525 0.11427945
0.033111405 -0.24213322 -0.13602675 -0.02532435 0.011773682 -0.0074274894 -0.06800433 0.23377489
-0.14133978 -0.70062995 0.18495843 -0.052567948 0.0155958645 0.1317411 -0.14873046 -0.15329568
0.13087858 0.041792214 -0.020438848 0.17574127 0.06152081 -0.24970303 -0.11053126 -0.076560535
0.11770986 0.12779234 0.10980918 -0.106272444 0.2561122 0.023025405 -0.010981394 -0.0128355725
0.26692823 0.21912228 -0.09782586 0.20907812 0.48058832 0.36412 -0.22478317 0.061307915
0.37059236 0.63456964 -0.03392855 -0.4725652 0.14126958 -0.31306896 0.38246313 0.3056112
-0.13415293 -0.5038635 0.25734425 -0.016426919 0.014962698 0.29155228 0.02973641 0.2699824
-0.025074821 0.117703535 0.13329773 -0.3233364 -0.0745013 -0.3798788 0.17879666 0.29688108
-0.07054413 -0.07195649 -0.14578128 0.10569177 -0.36088195 -1.379532 -0.068580434 -0.93392223
-0.16521993 -0.24402362 -0.26924002 -0.25338903 0.21463463 -0.1854335 -0.08246718 -0.14247999
-0.25666845 0.15226242 0.31373653 -0.094981715 -0.05146545 0.008622583 -0.27304313 0.019086268
-0.10068063 0.03289358 -0.6486946 -0.12412577 -0.2690325 0.06458009 -0.45314437 0.13598032
-0.3536274 -0.19202188 -0.32819432 -0.06990192 0.33840942 0.66484183 0.044027403 -0.8367762
0.100719556 0.10632831 0.3478327 -0.456168 0.1032037 -0.9863537 0.17873901 0.19413526
0.14567427 -0.4445539 0.12384896 0.06735799 0.02805014 -0.041289423 -0.14269488 0.027609516
-0.15100256 -0.37043625 0.20846061 -0.011043836 -0.60345364 -0.2312137 0.21350496 0.04235771
00000000: 95d0 913e 0670 0f3e 25b1 5abe 1eaf 53be
00000010: 69f3 4a3e 4a8c c9be ffd4 423e 5092 533e
00000020: e85a 26be 5882 e8bd 70df 173e d7fe 4b3e
00000030: dbaa db3d 5bea ae3e 9d36 72bc 56b6 8ebe
00000040: ce50 eebc 3397 e1bc e199 8e3c e284 41be
00000050: 1ef8 a13e 283c b4bd 0fb0 24bd ea70 19be
00000060: c4b4 8fbd 2adf 8f3e 1c50 073e 3a24 f63e
00000070: d82f 153f dffc f73c c7c7 45bd 711c a8be
00000080: 37c0 e03d 7251 403d 4ae2 13be d7f9 ab3d
00000090: 6b4e 8b3e 6374 f73e c570 bb3d 690e c63e
000000a0: 22d3 823e 3812 a03c e1d1 a93d 6fce f43c
000000b0: b035 bb3d 7092 00bf 4926 af3d 03a3 e03d
000000c0: d221 8cbe 2e0d 65bd 0f4a 98bd 0181 b13d
000000d0: 96b0 06bf 41b7 d03d 5a31 533e bcb4 84bc
000000e0: 9bed 17bf ad4f b3be d401 d23d 9838 a93d
000000f0: b679 013c d27f 4e3d 7189 2c3e 0d84 803e
00000100: c8f2 483d d185 663e 3376 b33d 369b 1bbc
00000110: a2db f33e e053 29be 4839 d43d 9c06 50bf
00000120: 6142 8d3e a8b3 273d 3645 49be ef48 d2be
00000130: d3c9 b43e 43c9 42be 68ee 84be b2a9 70be
00000140: 47d4 88bc 8f12 083f 0f98 b8bd e773 61be
00000150: 6cdf 8cbe 7509 c0bd da73 5b3d 5326 d33d
00000160: 4f09 2abd 27c7 d4be d524 88bd 259b 073e
00000170: b798 53bf 4cff 26be 9436 4f3e 5bb2 22bb
00000180: eee3 9c3e 3908 813e c5d7 14be 2372 aabe
00000190: 4b2f 203e 14d3 073e 1b61 6ebe c0c9 1f3f
000001a0: 34de d1bc be91 ee3e abf2 083e b1ca 893e
000001b0: d2fc 073e d9ce ae3e bed7 703c 4535 29be
000001c0: 8442 a23e 8239 023d 1738 7abd d194 613e
000001d0: 81a1 ef3d 0e16 af3e 4263 bf3d b536 833d
000001e0: 8d38 ae3d b388 403d e45b f03e 6b30 13be
000001f0: ae49 7abb 1e4c cabd 1ff6 9c3e 580b ea3d
00000200: d39f 073d c5f1 77be 994a 0bbe 0375 cfbc
00000210: 67e6 403c 4c62 f3bb db45 8bbd af62 6f3e
00000220: 60bb 10be 7c5c 33bf be65 3d3e 7d51 57bd
00000230: cc85 7f3c 24e7 063e cc4c 18be 8bf9 1cbe
00000240: 0905 063e 502e 2b3d 5f6f a7bc 85f5 333e
00000250: 3ffd 7b3d 27b2 7fbe 375e e2bd c5cb 9cbd
00000260: de11 f13d ffdb 023e a3e3 e03d 5ea5 d9bd
00000270: 2321 833e c69f bc3c 4eeb 33bc 4b4c 52bc
00000280: d1aa 883e 9761 603e ed58 c8bd 9318 563e
00000290: ac0f f63e f06d ba3e 8f2d 66be 021e 7b3d
000002a0: 48be bd3e 2873 223f aaf8 0abd 11f4 f1be
000002b0: f9a8 103e 934a a0be 35d2 c33e 1279 9c3e
000002c0: 635f 09be 33fd 00bf a0c2 833e bf91 86bc
000002d0: 1b26 753c 5746 953e c699 f33c 223b 8a3e
000002e0: b669 cdbc 8d0e f13d 337f 083e 598c a5be
000002f0: 2394 98bd 797f c2be 7916 373e cc00 983e
00000300: 7179 90bd ed5d 93bd b047 15be ed74 d83d
00000310: 85c5 b8be 8194 b0bf e673 8cbd 8715 6fbf
00000320: 6a2f 29be 54e1 79be d4d9 89be 35bc 81be
00000330: 2ec9 5b3e 48e2 3dbe 8ee4 a8bd 46e6 11be
00000340: 0c6a 83be aeea 1b3e 13a2 a03e c685 c2bd
00000350: 70cd 52bd bc45 0d3c 4fcc 8bbe ce5a 9c3c
00000360: a531 cebd 6bbb 063d d910 26bf a735 febd
00000370: a1be 89be 9142 843d 8a02 e8be 6d3e 0b3e
00000380: a70e b5be 62a1 44be 1609 a8be bd28 8fbd
00000390: 0044 ad3e 1333 2a3f 1456 343d f736 56bf
000003a0: 0e46 ce3d a8c2 d93d 2117 b23e da8e e9be
000003b0: 765c d33d ad81 7cbf 5c07 373e 65cb 463e
000003c0: a32b 153e 929c e3be 86a4 fd3d fcf2 893d
000003d0: 68c9 e53c 191f 29bd 9b1e 12be 5a2d e23c
000003e0: 6aa0 1abe d2a9 bdbe b376 553e 35f1 34bc
000003f0: f07b 1abf 49c3 6cbe 0ba1 5a3e 477f 2d3d

gnn.convs.3.lin_l.bias f4 [32]
-0.05651421 0.14601284 0.02155992 0.059240647 0.06620552 -0.1912249 -0.21067439 -0.102738895
-0.17585649 -0.006839304 0.13358764 -0.15382084 0.04875993 0.1331437 -0.39474484 -0.019882267
-0.25258696 0.20517819 -0.049687587 -0.058929496 0.022875525 0.011635975 -0.2541732 -0.097697906
-0.07008414 0.030166792 -0.036756907 0.0027036506 0.062464077 0.106896445 0.054227185 -0.023011714
00000000: 727b 67bd 6484 153e 6e9e b03c 52a6 723d
00000010: c296 873d 76d0 43be 07bb 57be c568 d2bd
00000020: b913 34be 3e1c e0bb 33cb 083e 3683 1dbe
00000030: 7eb8 473d d256 083e ff1b cabe 23e0 a2bc
00000040: 1453 81be 3b1a 523e 3685 4bbd 0e60 71bd
00000050: 7465 bb3c d1a4 3e3c fd22 82be d715 c8bd
00000060: 4688 8fbd 5920 f73c 698e 16bd bb2f 313b
00000070: 55da 7f3d 86ec da3d 531d 5e3d 1083 bcbc
