Models/ntfcr4of_best_model.pth (torch, 51321 bytes, 21 tensors)

gnn.convs.0.nn.lins.0.weight f4 [32, 9]
00000000: ed8e 40be 118d 6dbe e1ca cb3e 84d0 d43e
00000010: ff2a 0f3d e0b1 ebbe 8958 88bd 36dc 433e
00000020: 706f 81bf 8fb9 5a3f df4d 8dbf 8e89 793f
00000030: 3cc8 0c3f 99a5 3f3f cde2 d4bd a532 11be
00000040: ef0b 8a3f fa67 f63f c0aa ae3e 9ec8 173e
00000050: 79ce 28bf ec06 0abf a0b7 bdbe e6f0 903e
00000060: af88 bb3c 18ab a03e 9fe2 893f 2f66 a3bd
00000070: 9a53 043f b9f1 7d3f ea43 093f 0228 193e
00000080: 0699 65be 2a66 7fbe fcb6 78be 2479 6dbf
00000090: efcf 983e e4d3 7c3e 5bc7 5d3f f9e0 943f
000000a0: d808 3ebe d363 89bd 1ecd 22be 5dde 08bf
000000b0: 9d4e 05bf 485a 27bd 0305 ebbc 5414 ba3e
000000c0: c4e0 aebc a1d1 193d 5dc5 043e ad51 963c
000000d0: 7261 85bf 4ae6 0640 202f 653c ecbc d7bd
000000e0: 0ad4 763f 3169 ae3d 7457 f23c 7344 a8be
000000f0: 1e71 dbbe 5a2f 11bf 5e09 70be cb21 1b3b
00000100: fb92 71be 3045 963e 55ba 343e 353b 3bbc
00000110: a755 5abe aaa6 02bb 128d d23e 2f23 17c0
00000120: 3a28 aabc 0f10 40bf d891 ddbe a185 2a3e
00000130: c44a 5f3e 0216 c6be 7b8c 163f 13d7 be3c
00000140: 91a0 09bf 38ad b8be f6d0 98be a3c8 483f
00000150: 5dfe f9bd 0c53 a9bd 59af 6abe 9bc0 873e
00000160: 3e94 413e 55e5 163f 214e a03e 1bab 403e
00000170: 3299 ebbe d509 24be 24c4 80be 9ef9 a33d
00000180: a9cd 4a3d dc6f 5abe 9165 b33f 1a66 9ebe
00000190: 39c5 64bf 7d99 6dbf 099b ecbf 7b0b 843d
000001a0: b3b3 203e 1687 80bd 5392 1c3e 127c 6dbe
000001b0: e149 fdbe ad64 35bf e9d5 42be b5b1 adbe
000001c0: daeb 20bf aed7 8cbf c820 52bc a9c9 2abf
000001d0: 9cb4 b4bf ce87 10bd f239 883d a452 95be
000001e0: 7078 5ebe 0b8f eabc 040f 213e f8c8 19bd
000001f0: 96ed 09be 30dc 0a40 d2c1 3c3e 1da3 48bf
00000200: 8020 943f 0faf 863f 534d 76be 32dd e7be
00000210: e2ff 8c3d 8778 acbe fd12 9bbf 09ad 44bd
00000220: 340e f63e 7a0f aebe 4f1c 35be 9335 5d3d
00000230: 7486 9c3e a69a c5ba f6da a7be 8db9 0e40
00000240: 318b 793d 3e64 a6be 2dff bbbe fb64 cbbd
00000250: b84c 99be ed20 debe 6375 603f a6a0 0d3f
00000260: 5e1a b03f 3a9a 023d bf25 9ebf 4803 653f
00000270: 5e1d 683e 8062 13bd e29c 9fbf cd97 0e3f
00000280: ed0b 4b3c 4eb1 9f3f c8e6 8b3f bc32 a93f
00000290: ff75 1a40 c9c7 3540 495a 8f3f ba40 483f
000002a0: 172a c8be 42ec 81c0 9657 95bf 2d8e 5d3e
000002b0: e2bb a43e de82 243f ec65 be3e 5995 25be
000002c0: 31ba 183e 7e97 bcbc 68f2 fa3d 1177 5f3f
000002d0: 267c 073d c3f0 a7be 67b3 5e3e 214d 173c
000002e0: b747 713b 3a2a 8dbe 0c67 3ebc 7f22 c6be
000002f0: 96f7 783f 1d44 963f 374b 5b40 ea59 0c40
00000300: f95a c73f 45ab c53f 758a 7940 a1be 8abd
00000310: c3ac 00c0 344c 52c0 221b 253e ae50 3fbe
00000320: cc67 943e 82be a5be 8166 813e 8f96 a2be
00000330: 32d5 0f3e 2b70 ed3d 1f0e 5ebf ddaf 1c3f
00000340: 31dc 833f 8984 103f 31d2 383d e998 11bd
00000350: d2f1 333f 67df 2b3f 510e 823f bf9f 30bf
00000360: 2e0e 03be c0fd 80be 1c5b 90bf 2000 49bf
00000370: 3cbb b4be a7fa 1bbf 9ddd d03e 8c22 45bf
00000380: e6c2 7a3f 3872 953d ffcd a03e 1a00 afbe
00000390: c790 71bf 5242 f33d e90f 6cbc dff1 903e
000003a0: 1b7e 663e 7bd3 aabe 975b f83d 91a7 fabd
000003b0: 17d2 943f f794 02be 7a90 0a3e 09a9 bc3e
000003c0: 8b3a 24be 78d9 2fbe 6147 f53f f183 1e3d
000003d0: 6262 66be 6531 7ebf 3cbe 84be c137 973e
000003e0: b7dc 1b3f d6e9 993c 43aa e33f 8bcd 323f
000003f0: 3a33 9dbf 614b 173f 8169 383e e37c b13e
-0.18804522 -0.23198344 0.39803222 0.41565335 0.034953114 -0.46034145 -0.06657512 0.19126973
-1.0112133 0.8543939 -1.1039389 0.97475517 0.54993033 0.74862057 -0.10394821 -0.14179476
1.0784892 1.9250481 0.34114647 0.14822623 -0.6594005 -0.5391681 -0.37054157 0.2830879
0.022892324 0.31380534 1.0772284 -0.07978474 0.51690066 0.99196965 0.53619254 0.14956668
-0.22421655 -0.24941316 -0.24288553 -0.9276297 0.2984614 0.24690205 0.8663232 1.1631156
-0.18558061 -0.06708493 -0.15898558 -0.534643 -0.5207308 -0.040857583 -0.028688913 0.36343634
-0.021347411 0.037553433 0.12965913 0.018349493 -1.0420363 2.1078057 0.013988286 -0.10534081
0.96417296 0.085161574 0.029582717 -0.32864723 -0.4285974 -0.5671288 -0.23441073 0.0023671265
-0.23591225 0.2934966 0.17649205 -0.01142769 -0.21321736 -0.0019935765 0.41123253 -2.3615224
-0.020771135 -0.75024503 -0.43275332 0.16652538 0.21805865 -0.38688666 0.58808106 0.023295915
-0.5376063 -0.36069655 -0.29846925 0.7843115 -0.12206719 -0.08267793 -0.22918452 0.26514134
0.18904206 0.5894368 0.31309608 0.18815272 -0.46015316 -0.16019376 -0.25149643 0.08006595
0.04951254 -0.21331733 1.4015371 -0.30937272 -0.8936344 -0.9281233 -1.8484813 0.06447502
0.1569355 -0.062757656 0.15290193 -0.2319186 -0.49470428 -0.70856744 -0.19026913 -0.33924642
-0.6285988 -1.100332 -0.0128251985 -0.6671396 -1.4117618 -0.035285763 0.06651677 -0.29164612
-0.21725631 -0.028632661 0.15728384 -0.037545174 -0.13469538 2.1696892 0.18433312 -0.7837389
1.1572418 1.0522174 -0.24052934 -0.45285946 0.06884743 -0.33685705 -1.211517 -0.04801658
0.4805771 -0.33996183 -0.1768658 0.05400617 0.3057133 -0.0015075996 -0.3278424 2.2300751
0.06092376 -0.32498354 -0.3671812 -0.0993137 -0.29941344 -0.43384495 0.8767912 0.55323255
1.3758047 0.031885363 -1.2355269 0.8945813 0.22667453 -0.03598261 -1.2469752 0.5570038
0.01239298 1.2475984 1.0929804 1.3218608 2.413452 2.840319 1.1199428 0.78223765
-0.39094612 -4.06009 -1.1667354 0.21636267 0.32174593 0.6426219 0.37187135 -0.16170253
0.14914776 -0.023021456 0.122532666 0.87291056 0.03307738 -0.32800874 0.21748124 0.009234698
0.0036816427 -0.2757128 -0.011621248 -0.38698193 0.97252786 1.1739537 3.4264657 2.192988
1.5574638 1.5442892 3.8990757 -0.06774641 -2.0105445 -3.285901 0.16123632 -0.1868312
0.2898544 -0.32371908 0.25273517 -0.31755492 0.14046171 0.1159366 -0.867403 0.61205846
1.0301572 0.5645223 0.04512233 -0.035546217 0.70290864 0.6713776 1.0160619 -0.68993753
-0.12798378 -0.25193596 -1.1277804 -0.78515816 -0.35299098 -0.6092934 0.40794078 -0.7700584
0.9795364 0.07297176 0.31407163 -0.34179765 -0.9436154 0.11877884 -0.01440809 0.28309533
0.22509043 -0.33364472 0.121268444 -0.12238992 1.1626614 -0.12752138 0.13531676 0.36847714
-0.16037957 -0.17172801 1.9162408 0.038700048 -0.22498468 -0.9929412 -0.25926387 0.29534724
0.6088366 0.01878826 1.7786335 0.69844884 -1.2281258 0.59099394 0.18008997 0.34665594

gnn.convs.0.nn.lins.0.bias f4 [32]
00000000: de1a f2bf b41a a83f dba4 fcbe e741 cdbf
00000010: ebb9 9c3f 5865 62bf 9a49 06bf aeac f93e
00000020: 91bc 83bc 03ee 3040 cb83 3a3f 591a 25c0
00000030: df94 8dbf 25f0 10bc 5aee 023f a3c7 ccbf
00000040: eed6 d8bf 3c0c 963e bc70 e03f 941b cf3f
00000050: 3388 083f ab0b 0740 6349 dbbd 06e3 f5be
00000060: 5336 a13e e763 4b3e 5ca6 71bf 9c9e 8b3f
00000070: 36f3 dfbf 00d7 1c3f 6587 e73f f7c9 2a40
-1.8914449 1.3133149 -0.49344525 -1.6035737 1.2244238 -0.8843589 -0.5245606 0.48764557
-0.016081126 2.764527 0.7285735 -2.5797331 -1.1061057 -0.008846317 0.51144946 -1.5998424
-1.6940591 0.2930621 1.7534404 1.6180291 0.53332824 2.1100872 -0.10707357 -0.48024768
0.3148676 0.19862328 -0.9439447 1.0907779 -1.7496097 0.61265564 1.8088194 2.668577

gnn.convs.0.nn.lins.1.weight f4 [32, 32]
00000000: 0bec e9be b162 763e 74e1 693f 62a0 73be
00000010: dd14 c4be 7e1d 0c3f 1a42 8dbd 99da c5bf
00000020: caff bcbc 443c 22be 2a0f a83e e75b 65be
00000030: e29a bd3d 1a4a 493f fbb4 38bf 3baf 073f
00000040: ad97 febe 2ae1 debd 3e35 d03e f0fe 003f
00000050: ea72 e33e 2878 893e f8dc 70be 1b5e 88bd
00000060: 7751 223e fcfa fdbe 0b74 e23e 8e22 e03c
00000070: ae2b 40be 2012 67bd 6947 b9bb 9726 223e
00000080: 45bf abbd 0444 9ebd 4ac4 103f 839e 1b3f
00000090: 9e11 473c f0c2 b8be f88c b33d 1d41 56bd
000000a0: 1dcd 813e d90d 1fbe 0f58 7b3e c54d 1abe
000000b0: 3359 023e 4fcb 11be 3a33 62be 81cf c33c
000000c0: ad2b 6d3d 7f28 8dbe dc56 6c3e 1edb 593e
000000d0: 9433 b0bc aa24 2e3e e4ce a6bd 813f abbe
000000e0: cd1b 0bbe 58b0 1d3c 16a1 3f3e aff3 44be
000000f0: d131 db3d b9d7 ddbd 5237 7dbe dfa1 32be
00000100: a463 3c3f e3e6 2abf 6502 b9bf 7b91 523f
00000110: f3e8 ab3d 5efe 9ebe ff76 ec3c 56e2 0c40
00000120: d489 29bd 3a78 abbe 7cc3 d5be ee8c 213f
00000130: 0601 633e 621a 3cbf c0eb 523f 05ad 523d
00000140: 16b9 923e 84a9 23bd aaf7 3fbf 5b39 41bf
00000150: a39b 4fbf b315 cbbe 02bd 113d ab1d cb3d
00000160: 4812 cf3c 2cb6 ae3e 47d1 383e 490a 9b3b
00000170: d1fa 353f aa9c 7dbe fc30 b0be 9b99 08be
00000180: b58b 2a3e 6a94 00be 0bb2 a33e 96e6 163f
00000190: f9c4 983d d0aa abbd 2565 483e afd5 5a3e
000001a0: 33a5 82be dfd6 3fbd 7f24 873d dc9f 493e
000001b0: 3024 163e ddd4 18be 6c92 383e 8ae2 29bd
000001c0: ac8b 2bbe 3866 23be c601 4bbe 4588 11be
000001d0: 3b3a e7bd b292 26be 1738 9bbd b579 d43c
000001e0: cfec 35be ab9e 9a3d de05 983e 0cd9 04be
000001f0: 3c8f 343d c39c d7bd c0ab 79be e45f b7bb
00000200: a2b2 623e db3b 4cbe 374c 07be dca6 d6bd
00000210: 0edd b03d 7dcd 8f3e 62bc 5b3e 9bb1 5c3e
00000220: 516e 55be 3365 6bbe 5b7d 923b f3e7 203e
00000230: 00e6 d73d 7af7 74be 982a 3ebd 32b3 8d3e
00000240: 9dcd a1bd de83 f43b 311f c8bd 846e 423c
00000250: ee34 b33d 815c 313d 9493 3d3e 226e a2be
00000260: 5e23 173e ef9c 7c3b 8962 cdbd ed8d 42be
00000270: 4408 6f3e b373 5ebe 2ed7 abbe 8cc0 95be
00000280: f308 893e 02ae febe 148a d5bf ec29 c63e
00000290: 99aa ab3e 1f87 9abe 3b6c 2c3e d4d1 203f
000002a0: f4ea 9fbe 7c1f 813e 36cb 16bf fc0b d83d
000002b0: b65b 3a3b fb09 e6be 4378 be3e 27c7 cdbd
000002c0: 0be1 153e 8d8f 8c3d 523b b4be 6c1f 0bbf
000002d0: 2017 0cbf 22b3 5dbe 2f9b a6bd 97ed 563d
000002e0: c832 17bf 5135 d43e d3a8 2e3c e717 9c3e
000002f0: b7ac a23c 1497 e0bd 0440 44be 47e4 30be
00000300: 2b5f b2be f485 67be e0ff 953f 8de4 7cbe
00000310: caf4 90bd e376 2a3f 96b1 05be dab8 a3bf
00000320: 7e8b 30bc 807a 15be 5236 583e 6200 03be
00000330: 02fd 333e 78e2 ee3e 0720 14bf 1930 013f
00000340: b439 abbe 5f6a a3bd e781 3b3e 3d1c 823e
00000350: e666 0a3f 3ed2 dc3d 701b abbe 2211 94be
00000360: d0f2 493e 451a 93be 507a 183f 69cc 3bbd
00000370: 18c5 44be 10e8 d43c 8064 b1be dc80 943c
00000380: 3bad d43e 33a8 f3bd a6a0 6b3e b0c7 f8bd
00000390: dbc0 2f3e 49f7 bebd 5e3a f23d 659c c03e
000003a0: 8b42 7cbd 567f f73d 229f 0c3f 0b54 cd3d
000003b0: 82dc 54be b094 0ebd 77e1 06be 6889 06be
000003c0: f7cb 09be 25ba 913e cd2b 4fbe 1945 7c3e
000003d0: e1bd 9d3d 543b a1bd 8796 88bc 1f4c a33d
000003e0: eba2 67be e648 3e3e d9d1 173e 6db8 7b3e
000003f0: ae80 563e ad54 51be c5c2 2d3d 7903 9c3d
-0.456879 0.24061085 0.9135964 -0.2379165 -0.38297167 0.547325 -0.068973735 -1.5457336
-0.023071188 -0.15843302 0.3282407 -0.22398339 0.09258057 0.78628695 -0.72151154 0.53001755
-0.49725094 -0.108827904 0.4066562 0.50389004 0.4442361 0.26849484 -0.23521793 -0.06658574
0.15851389 -0.49605548 0.4422916 0.027360227 -0.18766662 -0.05641377 -0.0056542647 0.15835033
-0.08386091 -0.07727817 0.56549513 0.60788745 0.012150196 -0.36086226 0.08767122 -0.05230819
0.25351802 -0.15532626 0.2454531 -0.15068729 0.1272934 -0.14237712 -0.22089854 0.023902657
0.05790298 -0.2756996 0.23080009 0.21274993 -0.02150897 0.17006174 -0.0814493 -0.33446887
-0.13584824 0.009624563 0.18713793 -0.19233583 0.10702861 -0.108321615 -0.24728134 -0.17444561
0.7358954 -0.66758555 -1.4453856 0.82253236 0.08394041 -0.31053442 0.028865336 2.2013144
-0.04139121 -0.33490163 -0.41750705 0.63105667 0.22168359 -0.73477757 0.82390976 0.051434536
0.28656834 -0.039956585 -0.7498728 -0.7547814 -0.8109686 -0.39664993 0.035580643 0.09917768
0.025277272 0.3412336 0.18048583 0.0047314507 0.7108584 -0.24766794 -0.34412372 -0.13339846
0.16654857 -0.12556615 0.31971774 0.58945596 0.074594446 -0.08382189 0.19569834 0.21370576
-0.25516662 -0.046835776 0.06598758 0.19689888 0.14662242 -0.14924951 0.18024606 -0.04147581
-0.167525 -0.15956962 -0.19824895 -0.14212139 -0.112904035 -0.16266897 -0.07579058 0.02593694
-0.17766117 0.07549795 0.29691976 -0.12973422 0.04408191 -0.10527947 -0.24381924 -0.005596148
0.22138456 -0.19944708 -0.13212667 -0.10481045 0.08635913 0.28086463 0.21458581 0.21552126
-0.20842864 -0.22987823 0.00447051 0.15713482 0.10541916 -0.2392253 -0.04642734 0.27675778
-0.07900546 0.007462009 -0.09771574 0.011867169 0.0875033 0.04330111 0.18513328 -0.3172465
0.14759585 0.0038545688 -0.1002856 -0.18999453 0.23342997 -0.21723823 -0.33562607 -0.29248464
0.2676464 -0.49742132 -1.6682763 0.3870386 0.33528593 -0.30181214 0.16838162 0.6282017
-0.31233943 0.25219333 -0.58903825 0.10549161 0.0028436012 -0.4492949 0.37201127 -0.10047751
0.14636628 0.06863318 -0.35201508 -0.5434482 -0.54722786 -0.21650365 -0.08135068 0.052472677
-0.5906186 0.41446927 0.010660368 0.30486986 0.019857747 -0.10966316 -0.19165045 -0.17274581
-0.34838232 -0.22609693 1.1718712 -0.2469656 -0.0707794 0.66587657 -0.13056025 -1.2790787
-0.010775445 -0.14597511 0.21114472 -0.12793115 0.17576984 0.46657157 -0.5786137 0.50464016
-0.33442461 -0.07979273 0.18311273 0.2541217 0.5406326 0.10782288 -0.3341937 -0.2891932
0.19721532 -0.2873098 0.59561634 -0.045849238 -0.1921581 0.025989562 -0.34646988 0.018127851
0.41538414 -0.11897316 0.23010501 -0.12147462 0.17163412 -0.0932451 0.11827539 0.3761932
-0.061586898 0.12084834 0.5493032 0.100257955 -0.20787242 -0.03480977 -0.13171946 -0.13138354
-0.13456713 0.2846233 -0.20231552 0.24635734 0.07702232 -0.07872644 -0.01667334 0.07973503
-0.22620742 0.18582496 0.14826144 0.24582072 0.20947525 -0.20442457 0.042422075 0.0761785

gnn.convs.0.nn.lins.1.bias f4 [32]
00000000: afc5 663e fd4d 12bb 605d 08bf 3dab 9dbe
00000010: 8a8e 41bd 8d5a 87be 6e6e 0bbe 7761 85be
00000020: d4ca 73be c629 e8bd 4a1d b1be 022d b73e
00000030: f131 87be 516c a6be d527 b83d 8047 bb3d
00000040: bb6f 083c ec96 6c3e ff79 d7be 7ef5 2ebe
00000050: 11a6 83be ef91 00bf 28ee 843e ff68 153e
00000060: aae4 21be 31b5 1a3e aede 8ebe a4f2 8abe
00000070: 968c 55be c71d 24bf ac6b 5abd 509c 0c3c
0.22536348 -0.0022324317 -0.5326748 -0.30794707 -0.047255076 -0.26436272 -0.13616344 -0.26050922
-0.23807842 -0.11336093 -0.34592658 0.35776526 -0.2640529 -0.32504514 0.08991972 0.09144497
0.00832742 0.23104447 -0.42085263 -0.17085835 -0.25712636 -0.50222677 0.2596295 0.14590834
-0.15809885 0.15108182 -0.27904266 -0.27138245 -0.2085441 -0.64107937 -0.05332534 0.00858219

gnn.convs.1.nn.lins.0.weight f4 [32, 32]
00000000: 0aa2 6b3d ae92 a93d 1f5f e2bd 0f46 12be
00000010: cf49 eebe 37db 263c 5c43 c43e 4032 74be
00000020: b3d1 debe 2ccc 503e 27d3 f23d a2cc c03e
00000030: 36f5 aabe 692b ebbe 6014 a1bd e6c8 e3be
00000040: 9043 e43d 25be 2a3e 2379 99be 0a33 283f
00000050: ea91 4fbe 8d93 dbbe e1fb 2ebd c581 b8be
00000060: c7a8 36be 13b6 9dbd 0bc4 f0be 5e0f c2be
00000070: 6a70 c7be eb04 9fbe 5ee9 03be 2e65 b7bd
00000080: 7582 9d3d 5c0c d1bb 456d 803f db00 18bd
00000090: 92fb fcbd d927 743e 5873 cf3d b96c 5aba
000000a0: 8705 8cbc 0629 7f3c cecf 033d 3441 fd3e
000000b0: 6615 58be f4c0 d1bc d434 113e c490 133c
000000c0: f343 133f 8e80 8abc e652 9cbe 0871 8ebc
000000d0: 4ba2 0abe 67e6 eb3d ccb2 033d e223 f93b
000000e0: 3d76 89b5 1594 cfbb 051b aebd 8309 7fbc
000000f0: 7020 4fbc 4656 5dbe 0257 21ba 61b7 0dbd
00000100: b5db 10bd 7ce0 193e c9a3 63bb e110 773e
00000110: 26e9 3e3e fe4a c23c 56ba 023d 7675 863d
00000120: 4f59 bbbd 7795 a73e a3eb c23d 502b 5bbe
00000130: 7cb4 d63e 00f3 b93e b963 83be 9c35 d43b
00000140: ef26 f63d e545 313e 475d 0c3f d04a af3d
00000150: f774 e93e f4ed bf3d d255 dbbd b506 c53d
00000160: 3d20 b4bd 725b d03c eef5 fe3c d433 253e
00000170: d0a8 7ebd 5284 8e3d 58d0 ab3d 91f5 9cbc
00000180: 3501 793e ffe1 bfbd 01f9 423c 9575 a93e
00000190: d291 5b3d 4f7a e4bd a259 843e 3806 b0bd
000001a0: 125f 08bc b7ab 403c 057f 743d 006d 4abe
000001b0: 2106 163e de6e c53d f97f 54be 210d 0d3d
000001c0: ba47 d9bd 1f27 3a3d 2da9 893e 9d93 ea3c
000001d0: 6b24 903e 02c4 963e 1649 00be 74f0 c83d
000001e0: 6306 5e3b 8c00 ffbd c8d5 033e 788d 283d
000001f0: 6361 a93d 758c 803e 2632 9b3b 2c2c 1f3e
00000200: f1ac 75be 3d5f bcbd 6018 783e 8dad 4d3e
00000210: 6850 a63c d283 8b3d 672b 25be 779d e63d
00000220: 6dd5 b3be 03f7 e93e ada3 233e 3083 8ebe
00000230: 1718 f8bd 9000 13b9 e6f8 d9bd bf75 91bd
00000240: b5be 753e 21ef aabe 52f1 07be 3881 a33e
00000250: 514d ea3c 5e47 e0be e2b0 a03e eded 18be
00000260: d464 a6be 199f 14be 90eb 37be 0a5a 9f3c
00000270: c46f 933e a735 7e3e 426b 9c3e 3aca d6be
00000280: 5b4d 23be 3c5a b43d fabd 57bc d43d 08bf
00000290: da28 99bc 281d e0be 48eb 9ebe 6dc2 1abe
000002a0: db40 123c 9cf4 bdbb 358f 133d 9679 fa3e
000002b0: 5d80 73be 4ee8 f5bb 36e9 d53d 2f55 0a3e
000002c0: 1b73 f0bd e02d b93c 9db6 cdbe 7c19 63bd
000002d0: db97 76bd ea75 3c3d d4b0 223f 9686 f63d
000002e0: cd6f f03d f805 33be 969a 4fbd 5037 1abc
000002f0: e10b a9bd eae7 11be a8c7 0bbf 6fa9 263d
00000300: bac0 8dbd ec05 bf3d 7180 673e 8537 2fbd
00000310: 08cf ec3d 35e4 af3d 5da8 d7bd 441b 223e
00000320: 7731 a13d e9a6 153b 55b8 d7bd 9376 17bd
00000330: 66de 51be 1091 2b3e f75c 843e d30b 333d
00000340: 5ac5 20be 12dd acbc 902a f1bd 3de9 453e
00000350: 2703 733e 6432 4abe 33e2 0a3d 9cd2 81bd
00000360: 7c61 183e 39a2 963c 7cda 4d3d ff12 c13d
00000370: 75ec 8dbc be57 25be 34b9 84bd c224 b43e
00000380: 1cd8 29bf 4159 efbc 404f d03e 8d41 353d
00000390: 9684 e6bd aa0b a43e d922 2b3d 76dd 39bc
000003a0: 2377 27bd a549 69bd a257 e53d dbc7 083e
000003b0: cd33 90be a119 99bd 42b6 193e dc88 71bd
000003c0: 0829 f63e 8b88 21bd 3c87 9abe a661 ffbc
000003d0: b336 65bd 05a7 90be 6295 b73b b987 9ebc
000003e0: 40eb 0b3d 9daf 41bd 353c b0be 6009 3b3c
000003f0: 7833 b8bc 2dc9 76be ecbd e03b 6379 b5bd
0.05752758 0.0827993 -0.11053299 -0.14284538 -0.46540686 0.010184101 0.3833264 -0.23847294
-0.43519363 0.20390385 0.1185668 0.37656122 -0.33390206 -0.45931557 -0.07865214 -0.4448921
0.11145699 0.16674097 -0.29975232 0.6570288 -0.20270506 -0.4288601 -0.04272068 -0.36036506
-0.17837821 -0.077007435 -0.4702457 -0.3790235 -0.38952953 -0.3105844 -0.12881991 -0.08954845
0.07690898 -0.006379647 1.0033346 -0.03711019 -0.12352671 0.23843326 0.10129422 -0.0008332241
-0.01709248 0.015573746 0.0321806 0.4946381 -0.21101913 -0.025604703 0.14180309 0.009006683
0.5752556 -0.016907003 -0.30531996 -0.017387882 -0.13538472 0.11518555 0.032152936 0.0076031545
-1.0241707e-06 -0.0063347914 -0.08501247 -0.015566233 -0.012642011 -0.21614942 -0.0006154628 -0.034598712
-0.03536578 0.1502704 -0.0034735075 0.24127533 0.18643627 0.0237174 0.031915985 0.06565373
-0.09147894 0.3273122 0.095176004 -0.21403241 0.41934574 0.36318207 -0.2566202 0.0064761173
0.12019145 0.17311819 0.5482983 0.08559191 0.4559705 0.09371558 -0.10709728 0.0962042
-0.087952115 0.02543423 0.031123128 0.16133052 -0.06217271 0.06958832 0.08389348 -0.019160064
0.24316867 -0.09369277 0.0119001875 0.3309752 0.053605862 -0.11156141 0.25849634 -0.08594936
-0.008323448 0.01175969 0.059691448 -0.19768143 0.14650775 0.09640287 -0.20751943 0.03443635
-0.10609384 0.045447465 0.26886883 0.02863484 0.28152785 0.29446417 -0.1252788 0.09811488
0.0033878318 -0.12451276 0.1287452 0.04115054 0.08270528 0.2510716 0.004736203 0.15544194
-0.23991753 -0.09197853 0.24228048 0.20085736 0.020302013 0.06812252 -0.16129838 0.11260503
-0.35123768 0.45696267 0.15980406 -0.27834463 -0.1211397 -0.00014019222 -0.10643177 -0.071025364
0.2399853 -0.33385566 -0.1327565 0.31934524 0.02860132 -0.4380445 0.3138495 -0.14934511
-0.324988 -0.14513816 -0.17960954 0.019452114 0.28796208 0.24825154 0.3055058 -0.41951162
-0.15947478 0.08806273 -0.013167853 -0.5321934 -0.018696237 -0.43772244 -0.3103888 -0.1511323
0.008926596 -0.005796982 0.036025245 0.48920888 -0.23779435 -0.0075044995 0.10444872 0.13509057
-0.117407046 0.022604883 -0.40178385 -0.055444226 -0.060203414 0.04601089 0.6355107 0.12037389
0.11740074 -0.17482746 -0.050684534 -0.009412602 -0.08254219 -0.14248624 -0.54601526 0.04068893
-0.06921525 0.093273014 0.2260759 -0.042777557 0.115629256 0.08588449 -0.105301596 0.15830714
0.07870763 0.0022835082 -0.105332054 -0.036978316 -0.20494995 0.16754556 0.25852177 0.04371245
-0.15700284 -0.021101508 -0.11775696 0.19327255 0.23731671 -0.19745785 0.033907127 -0.06338999
0.14880937 0.0183879 0.05025719 0.09427451 -0.017324666 -0.16146752 -0.06480637 0.35184294
-0.6634538 -0.029217364 0.40685463 0.044251967 -0.112557575 0.3204015 0.04178128 -0.011344304
-0.040885102 -0.056955 0.11198355 0.13357489 -0.2816452 -0.074755915 0.15010932 -0.05896841
0.4807818 -0.03943686 -0.301813 -0.031174492 -0.05596037 -0.28252426 0.0056025246 -0.019351827
0.0341599 -0.04728662 -0.34420934 0.011415809 -0.02248548 -0.2410018 0.006858578 -0.08861043

gnn.convs.1.nn.lins.0.bias f4 [32]
00000000: 1db1 2bbf fb3f 5abf dc74 41be 9c3f 853c
00000010: 82aa dfbd 6072 f93d 01f1 b4bf 112e ddbe
00000020: 19cc be3e 3e71 8cbd 7c5b 65be 9e3e b53f
00000030: 6a7c eabe 4d5b b03f 6661 1fbe 635b 51bd
00000040: d52c f33e f0ec 303f 4714 dd3d cbc8 62be
00000050: 30ca 54be 2ca7 323f b068 00bf b84d 083e
00000060: 78f6 70bf fd2a 2a3f 2ab8 26bf 97e6 3dbf
00000070: e6ee 1ebf b6ea 9ebc c917 82bf 1da6 d6be
-0.6706713 -0.85253876 -0.18892235 0.016265683 -0.10921194 0.121800184 -1.4136049 -0.43199208
0.3726509 -0.06857537 -0.2239818 1.4159734 -0.45798045 1.3777863 -0.15564498 -0.051112544
0.47495142 0.6911154 0.10794883 -0.22146909 -0.20780253 0.69786334 -0.5015974 0.13310897
-0.9412608 0.66471845 -0.6512476 -0.7417998 -0.6208328 -0.019399028 -1.0163509 -0.4192361

gnn.convs.1.nn.lins.1.weight f4 [32, 32]
00000000: 10cd c93e 8b89 7ebd ad3b c03c d760 b3be
00000010: 008b 0dbc 39bb 0cbc 8e40 f9bc 5fe5 cd3e
00000020: 4a38 9fbc 7d53 e7bd 7fac 1abc 5682 583e
00000030: b6ee 5d3e cdd1 373e 20f6 083f 9bd5 cb3e
00000040: 06fa 003e 4053 5d3d 28a6 0b3e 2e05 a13e
00000050: 6c37 9fbd 370d 2a3e 651e 1bbd 7d96 653e
00000060: 56c5 dc3e 0312 32be ab97 963e 840b 283d
00000070: abfb ccbd b750 00be 4a94 0a3e 6b59 323f
00000080: bb84 c73d 84b7 bcbe 6215 283c 00c7 2f3e
00000090: a4e1 713e c12b 623e bfeb d8be eaad 07bf
000000a0: b172 94be 9d6e fbbc 1131 e13c e193 b6be
000000b0: c132 85be 15a4 463d 1390 f93e e822 3e3e
000000c0: 14b2 f23e 831b 4f3e 8ee0 943d 83a0 e83d
000000d0: 1556 9abd f853 123d 23ec aebe 5a00 803e
000000e0: 7368 82bd ca53 b3be 3d73 643b 9525 efbd
000000f0: 5b9d a23d 9078 bdbc 5de1 f3bd e5fe 00bf
00000100: 486a e6be 8462 0dbf af23 40be dc8a 163a
00000110: f0f4 61be 0d9e 093d 6c24 d83e 0b85 3b3e
00000120: 2024 203e 8205 8bbe 71c9 0bbe 4165 d2be
00000130: 477a 3f3d 3c0f 2bbe 0235 533e a8e8 69be
00000140: bae1 713e ddff 50be fa78 a23d 8723 1dbe
00000150: fe55 5b3e f087 9ebc 7c15 a23e 081c 20be
00000160: 4350 6a3e 8c2a e33d 4bb0 62be 51f5 32be
00000170: f904 8dbe db61 c2be 0384 18bb 8458 123d
00000180: fbdd 65bd ea07 4bbe d9ea 933e 6fd7 e03b
00000190: c6a9 ec3d f45d 5fbe a62b 783c 7446 08be
000001a0: 2399 063e ab99 bebd 90f7 88be 1500 28be
000001b0: 3a54 ae3e 25c0 973e 6280 44bf 5ca2 d4ba
000001c0: 11af 7f3d 29af 673e 246d 09be 5bfd 47be
000001d0: 6f07 143e 5d98 87bd 1160 e1bd 707f be3d
000001e0: 86dc 13bd 593b 89be 8589 3dbe 9f84 b63c
000001f0: cdf7 663e 94ec 8b3e aa1f 7c3c 525f 043e
00000200: 581d a03d 5186 4a3e 3cff 3dbe fa5f 0fbe
00000210: bf19 2d3e e5ca f83c 22b4 6f3e 8c3f 623e
00000220: 93e9 29be 9baa af3e 9710 31bd 20f9 663d
00000230: 69e3 153c 79cf 7fbe 6563 223f 69b5 983e
00000240: 3101 1e3e 058d 193d 53ae 683e ee6e 0d3e
00000250: 40ae aabd 4680 f2bd 2a73 e6bc 3f78 5fbe
00000260: f472 93bd 4976 4abd 4d0c 64bd 8d89 573d
00000270: 251d 643d 3266 7dbe 4d7e cebd 43c4 59bd
00000280: 4947 cabe 7970 973d e980 0abd 7692 563e
00000290: 5751 9e3d 6416 ff3c 531f c5bc f783 84be
000002a0: 1984 d13d a442 b9be d572 bf3d afd6 2cbf
000002b0: 05f2 22be d39b 7abe 0e38 233f 5e88 c03d
000002c0: c10a f23e 9b63 1ebf 9543 683e 8d66 b2bc
000002d0: c9bc 133d 3ca5 15be 70c8 4e3e 7ff2 fdbc
000002e0: 7d9f 613d 06e1 c8bb fb79 273e dd50 eb3d
000002f0: c785 a0be 13b3 f1bd 6067 d53e 09e9 bf3d
00000300: 6c51 a93e d9e4 21be 75e6 c73c 07b6 443e
00000310: ad36 573d 2313 75bd 96cf c13e 3b16 353e
00000320: 53c1 413e f42c 143e 15e7 20be 6fe0 8f3e
00000330: 250e b53e 9eea c4bb ac57 9cbe 0766 a6bc
00000340: 1b14 fa3d ef47 913e 3657 2b3d 1399 f5be
00000350: e21a 143d bfd2 173d a32a adbd c792 b9be
00000360: 4353 08bd b299 acbe 5034 9abe 07c1 a6bd
00000370: b726 563e 3cab 873e 75e2 90be a2c5 5f3c
00000380: 13ac 9b3e f9fc 17bf ecec 34bf 392b 7a3e
00000390: f475 04be 1401 0b3f aae0 263f 9fb8 19bf
000003a0: 9b73 babe 019e 0d3b 4616 4f3f d9e7 d33d
000003b0: b303 bebe f62b 96bf 5c3b 7cbe abd9 033f
000003c0: c551 4c3e fefd 923e f737 e73e bdb5 c73e
000003d0: ec9e 783d 932a acbd f12a e53d ff3c eebd
000003e0: fe7f b83d 9bba 463f 9f16 1bbe d4d8 fb3e
000003f0: 3b2f 82be 3dd5 0abe 2b1e b43c d8c1 bdbe
0.39414263 -0.06214289 0.023465956 -0.3503482 -0.008639097 -0.008589559 -0.03042629 0.4021406
-0.01943602 -0.11295221 -0.00944054 0.21143469 0.21673092 0.17951126 0.53500557 0.39811406
0.12595376 0.05403447 0.13637602 0.31449264 -0.07774243 0.16606604 -0.037870783 0.22420688
0.43119305 -0.17389683 0.29412588 0.041026607 -0.10008939 -0.1253079 0.1353313 0.6966769
0.09742113 -0.3685876 0.010259004 0.17165756 0.23621231 0.22087003 -0.4236736 -0.52999747
-0.28993753 -0.030692393 0.027489217 -0.35659698 -0.26015285 0.048496325 0.48742732 0.18568003
0.47401488 0.20225339 0.07269393 0.1135874 -0.0753595 0.03572461 -0.34164533 0.25000268
-0.06367578 -0.35024863 0.0034858726 -0.1167709 0.079401694 -0.023128778 -0.11908219 -0.5038894
-0.4500296 -0.5522845 -0.18763612 0.00057427376 -0.22066092 0.033597995 0.42215288 0.1831247
0.1563878 -0.2715264 -0.13651063 -0.41092876 0.046747472 -0.1670503 0.2062569 -0.22842658
0.23621264 -0.20410104 0.07933231 -0.15345584 0.21419522 -0.01935193 0.31657016 -0.15635693
0.2288218 0.110920995 -0.22137563 -0.17476393 -0.27542856 -0.37965283 -0.0023272044 0.035728946
-0.0561199 -0.19827238 0.28890112 0.006861619 0.11555819 -0.21813184 0.015147125 -0.13308126
0.13144355 -0.093066536 -0.26751375 -0.16406281 0.34048635 0.29638782 -0.76758397 -0.0016222703
0.062422816 0.22625412 -0.1342054 -0.19530241 0.1445596 -0.06620858 -0.11004651 0.093016505
-0.03609898 -0.2680309 -0.18509491 0.022280036 0.22555466 0.27328932 0.015388409 0.12926987
0.07818097 0.197778 -0.18554395 -0.14001456 0.16904353 0.030370185 0.23408559 0.22094554
-0.16593008 0.3430985 -0.043228712 0.056389928 0.009148457 -0.24981488 0.63432914 0.29825905
0.15430142 0.037488002 0.2272275 0.13811848 -0.08334017 -0.118408725 -0.028131086 -0.21823214
-0.0719966 -0.04942921 -0.055675793 0.052621413 0.055691857 -0.24746016 -0.10082684 -0.053165685
-0.3950751 0.07394499 -0.033814345 0.20954308 0.07730358 0.031138606 -0.024062788 -0.2588193
0.10230274 -0.36183655 0.09348074 -0.6751508 -0.15912636 -0.24473505 0.6375741 0.0940101
0.4727383 -0.61870736 0.2268203 -0.021777416 0.03606871 -0.14613813 0.20193648 -0.03099942
0.05508374 -0.0061303405 0.16355126 0.11490033 -0.31352064 -0.11801734 0.4168043 0.0937062
0.33069932 -0.15809955 0.024401883 0.19210063 0.052542377 -0.059832703 0.37853688 0.17684262
0.18921404 0.14470273 -0.15713151 0.28100917 0.35362354 -0.006009414 -0.30535638 -0.020312322
0.12210866 0.28375193 0.041831218 -0.4796835 0.03615845 0.037066218 -0.08455398 -0.36244795
-0.03328253 -0.3371101 -0.30118036 -0.08142286 0.20913206 0.2649783 -0.28297773 0.013657959
0.3040472 -0.5937038 -0.70674014 0.2443055 -0.1293562 0.5429852 0.6518656 -0.60047334
-0.36416325 0.002160907 0.8089336 0.10346956 -0.37112197 -1.1732166 -0.24632019 0.5150401
0.19953068 0.28709406 0.45159885 0.39005843 0.060698435 -0.08406558 0.11189831 -0.11632728
0.090087876 0.7762849 -0.15145348 0.49188864 -0.2542666 -0.13557906 0.021987041 -0.37061954

gnn.convs.1.nn.lins.1.bias f4 [32]
00000000: 289a 6d3e 68f9 803e e7f9 e2bd e5c0 80be
00000010: 26e6 843d cc4f c0bc d37e a03d f254 0c3f
00000020: 4a23 adbd 3e17 9f3e cf84 29be f282 52be
00000030: 2a61 233e b09b 8b3d c25b 93be d1f3 91bd
00000040: 0113 3f3d a976 223d 7538 11be c44c 46be
00000050: 4b85 d43e 1b96 a43d 6530 d33d fd14 edbe
00000060: d9c5 2c3e fabf 2a3d 6845 ec3d 017a 9bbd
00000070: 8ab0 a13d 9916 5b3d c0b1 28be 05fe b6be
0.23203337 0.25190282 -0.11082821 -0.25147167 0.0648921 -0.02347555 0.0783669 0.54817116
-0.084539965 0.3107242 -0.16554569 -0.20557764 0.15955034 0.068168044 -0.28780943 -0.071265824
0.046648983 0.039663944 -0.14181693 -0.19365221 0.41507944 0.08036443 0.10311965 -0.46305075
0.16872348 0.04168699 0.11536676 -0.0759163 0.07895 0.053488348 -0.16474056 -0.35740677

gnn.convs.2.nn.lins.0.weight f4 [32, 32]
00000000: 4331 f9bc d897 84bd 0bb9 c63e f0ce 583d
00000010: 5e11 da3c d265 303e 1632 0a3f ae48 6dbd
00000020: f622 333e c388 06be ecaa 2f3e b64b 683e
00000030: 9bdb 003e dc10 9fb8 9272 833d f1d7 75bf
00000040: 86e5 a6bc 39b5 d2bc 2125 96bd 14aa b03d
00000050: 9852 b8be dcb9 2e3c a94d 97be 0390 02be
00000060: 06de 02bf edaa ef3c eb38 b63e 34b0 3bbe
00000070: aaff babe 0345 20be 5937 5f3e 2e80 43be
00000080: 2cbe 493e c063 53be 2112 c8be 576c 28be
00000090: 966a 933e 7a9b fdbd 8042 c7bc 6b87 50bf
000000a0: a4fe b63e b3e2 64be 4652 27bd 93ef 863e
000000b0: cd1c 81be b7e1 9e3d d986 af3e ab0b 87bd
000000c0: e04c 6c3e ccc0 11be a40b b13e fec8 2b3e
000000d0: f8e8 0cbf 9a72 60bd dc68 56bd 481f 023e
000000e0: 8417 af3e 3eca ccbe 0fdb e8bd 11e3 15bf
000000f0: 2099 923e f79f aa3e c2b0 a43d b0f4 013f
00000100: 3cb1 3ebe 9aec ef3c de8e 6a3d 9d59 0ebd
00000110: a987 66be cf51 a73e 962f e1be 923e a13d
00000120: f98c a83d 276a 5d3d 94bd 2ebc f40b 163e
00000130: b715 ee3d e728 89be f1a6 023e 89fc 8ebe
00000140: c296 0fbd a495 1b3e 2b4e 1c3e bbe5 693d
00000150: ee3d a53e 1d09 c03d 9c4c 243e e830 00be
00000160: 9114 05be c30f 4e3e fb5c 13be f2ac 91be
00000170: a3eb 513e 8822 513d d2f7 e83e 3c1c 5abe
00000180: 8b8f 0f3d 5cb9 20be 8626 903e b110 23be
00000190: 939a dd3d b5df ac3e 5d5d 173d 73d2 e43e
000001a0: 7766 22be 9a3d b8bd b17f 2c3e 5c94 4b3e
000001b0: 1b27 22be ef77 b2be 4e9f 9ebe 7577 00bf
000001c0: 689a 86be a7a2 b43d afd8 133e e372 b7be
000001d0: a120 08be 6e63 10bf cea7 a7be 8a21 bfbd
000001e0: 6cf0 653d b39b 883e 6d5b 0b3e 4d38 9bbd
000001f0: 2211 683e 2913 b1bd 8b33 563e 804e 23be
00000200: 04a4 4a3d fc9b a9be 9506 3cbe 0ac5 e43e
00000210: f388 59be 854f 0fbe bce7 883c 1c27 353f
00000220: bd31 a23c 78f9 d93e 0e1c 32bd 548e 5abe
00000230: 4184 a53e 8a9b a3be 4e9d 56be 5d84 c13e
00000240: 243c 82be 638a 4fbe 3239 61be 0aca 413d
00000250: 063f b93e e561 c43e 1425 de3d d67f 163e
00000260: 496a 3f3f e92a 343d aea2 83bd e341 f33e
00000270: 52e4 f93a 64da c7bd 92e2 b13d ab3b 873e
00000280: 5d79 a53d 3732 543e d75e b93d 5362 c8bc
00000290: 9acc ae3d b78e 0abe d9d3 7b3d 4cb0 c53e
000002a0: 4653 113d dcf3 ee3d c374 a2be 13c2 02bf
000002b0: 5ccf 61bd dce5 f53a cb08 dbbe f1e7 b03e
000002c0: e41a edbd 6bea 1cbe d361 b8bd b9e1 833c
000002d0: 8b77 8a3e 3479 fb3d b8b7 113e 2af8 b3be
000002e0: 5a1b 183e 8af5 0c3e 58e1 c7bd b2fd 0dbd
000002f0: 3456 463d a929 5cbe 375a 3c3e 0dc5 55be
00000300: 74b5 6bbe e143 9cbd f7ad b9be 84a4 0c3e
00000310: 707a ee3c f11a f8be b051 673e 88c1 6dbe
00000320: 47fa cd3d 8ef2 3bbc 1748 1bbe 9654 0cbe
00000330: 9107 abbc 45e6 fdbd 3a97 94be 6341 c73e
00000340: 7b72 8cbe f077 0abe 139c 243e 45f5 d0bc
00000350: 5b71 c03d 7c3a 16bd e550 053f c5a6 80bb
00000360: ce4b 98be 3438 9f3d 56ee 94be d0ac 0e3e
00000370: a498 49be 2385 173c e7d4 5cbe 7338 083e
00000380: 1b87 ffbd 01ba d43d ed9d 823b d022 363c
00000390: 9709 8c3e b42d 4ebd 0690 3abe 299a c9bd
000003a0: ea6c 31bc 8026 58be f164 a6bd a977 903d
000003b0: 5c37 c6be 8c93 493e f154 9f3d 65d8 c2be
000003c0: ce36 3ebe 850e d23d 6b8a 533e 76ed 5abe
000003d0: 0ac8 40be 224f cdbd 2201 bebe 05d5 973d
000003e0: f51f f0bd f549 18be 9c63 6ebe 7a4d ce3b
000003f0: 8241 5b3e c091 933e 6029 333e 8cb3 c2bd
-0.030418998 -0.064742744 0.38813052 0.052931726 0.02661961 0.17226341 0.53982675 -0.05793064
0.17493805 -0.13138108 0.17155045 0.22685131 0.12583773 -7.584851e-05 0.06418337 -0.96032625
-0.020373117 -0.02572118 -0.073313005 0.0862619 -0.36000514 0.0106644295 -0.29551437 -0.12750249
-0.5112003 0.029256308 0.355903 -0.18328935 -0.3652318 -0.15651326 0.21798457 -0.19091865
0.19701451 -0.2064352 -0.3907633 -0.16447578 0.28792256 -0.123831704 -0.024323702 -0.8145663
0.3574115 -0.22352104 -0.040849946 0.26354656 -0.25217286 0.077578954 0.34282568 -0.06594022
0.230762 -0.14233702 0.34579194 0.16775891 -0.5504298 -0.054796793 -0.052346095 0.12707245
0.34197628 -0.3999805 -0.11369907 -0.585496 0.2863245 0.33325168 0.080415264 0.5076399
-0.18622297 0.029287625 0.057265155 -0.03475343 -0.22512688 0.32679603 -0.43981618 0.078732625
0.082300134 0.054056313 -0.010665316 0.14652997 0.116252355 -0.2678902 0.12758996 -0.27927044
-0.035055883 0.15193802 0.15264194 0.057103854 0.3227381 0.09376738 0.16044849 -0.12518656
-0.12996127 0.201232 -0.14390938 -0.2845226 0.20500045 0.051058322 0.45501572 -0.21299833
0.035049003 -0.15695709 0.2815439 -0.15924336 0.10820498 0.33764425 0.036954273 0.4469181
-0.158594 -0.089961246 0.16845585 0.19880813 -0.1583523 -0.34857127 -0.30980915 -0.50182277
-0.26289678 0.08820086 0.14438127 -0.3582984 -0.13293697 -0.5640172 -0.32745212 -0.09332569
0.056137487 0.2668129 0.13609095 -0.07579098 0.22662786 -0.08646233 0.209181 -0.15947914
0.049472824 -0.3312682 -0.18361886 0.4468158 -0.21243648 -0.13995178 0.016712062 0.707628
0.019799108 0.42573142 -0.043483786 -0.21343356 0.32327464 -0.31954604 -0.20958444 0.37796298
-0.2543651 -0.20267634 -0.21994475 0.04731182 0.36180896 0.38355938 0.10846916 0.14697203
0.74771553 0.043986235 -0.06427513 0.47511205 0.0019065237 -0.097584516 0.08685793 0.2641271
0.08079789 0.2072228 0.090512924 -0.024460947 0.085351184 -0.13531004 0.06148133 0.38611066
0.035479806 0.11667606 -0.31729707 -0.51077384 -0.055129394 0.001876052 -0.42780146 0.34551957
-0.115773946 -0.15323798 -0.090030335 0.016098844 0.2704433 0.12278977 0.1423024 -0.35150272
0.14854184 0.1376554 -0.09759778 -0.03466577 0.048422053 -0.21500267 0.18393789 -0.2087595
-0.23018438 -0.076301344 -0.36265537 0.13734633 0.029111117 -0.48458055 0.22589755 -0.23218358
0.10057502 -0.011471404 -0.15164219 -0.13704142 -0.020877631 -0.12397436 -0.29021627 0.38917074
-0.27431092 -0.13522315 0.16075163 -0.025507579 0.09396621 -0.03667687 0.5207656 -0.0039261305
-0.29745334 0.07774392 -0.29088086 0.1393311 -0.19687134 0.009248051 -0.21565591 0.13302784
-0.12476941 0.1038704 0.0039861114 0.011116698 0.27351066 -0.050336555 -0.18219003 -0.09843857
-0.01082919 -0.21108437 -0.08124722 0.07054073 -0.3871411 0.19685191 0.07779873 -0.3805572
-0.18575594 0.10256676 0.20658271 -0.21379647 -0.18826309 -0.10024859 -0.3711024 0.07413677
-0.11724845 -0.14871962 -0.23280185 0.006295857 0.21411708 0.28822136 0.17496252 -0.09506902

gnn.convs.2.nn.lins.0.bias f4 [32]
00000000: 7a1b 08bb a557 9d3e 60e4 d6bd a429 02bf
00000010: 9bcb b1be f67a 9d3e c7be e9bd 71a1 bcbe
00000020: ddc2 c8bd 6bf3 03bf 3640 80be e515 353e
00000030: 2e30 533e 98e0 063f e497 c4be c54c d8be
00000040: c055 213f 168f af3e 5266 84bf 8f62 1ebf
00000050: 8c92 f23c 0a67 1abf db1d 2f3f 1d7c b13f
00000060: 2784 04bf 0743 b1bf 595f e23d 1122 8cbd
00000070: a77c d8be 9412 88bf 178c 843e 9d11 b63e
-0.002076833 0.3073093 -0.10492778 -0.5084479 -0.3472565 0.30757874 -0.11413341 -0.3684192
-0.09802792 -0.515433 -0.2504899 0.17684133 0.20623848 0.5268645 -0.38397133 -0.4224607
0.6302147 0.34288853 -1.0343726 -0.6186914 0.029610895 -0.60313475 0.6840493 1.3866001
-0.5176415 -1.384858 0.11053342 -0.06842435 -0.42282602 -1.063067 0.2588813 0.35560313

gnn.convs.2.nn.lins.1.weight f4 [32, 32]
00000000: 222f bfbe 30a1 bcbd 2c2a cdbe 06e9 bf3e
00000010: 52bd c5bd 0158 493d ad92 afbe 93ac a7be
00000020: a15c 653e 3e05 363d eac6 e23d c1d3 a8bd
00000030: 07c3 d8bd 85bc 57be 7c2f 4fbe 12e7 a1bd
00000040: c7a8 e53d 3ba2 8cbb 08f2 283e 264b 30be
00000050: 0520 97bd 4ce4 f2be 079a 883e f066 133f
00000060: c9bc 81bd 429f 4dbe ee40 2f3f 091b 4e3e
00000070: eaba e4be a661 04bf 2d35 d2be aba2 a03e
00000080: 815e a7bc 08f4 4ebe b73f 45be d506 6bbb
00000090: d74c 5e3e 2a59 fe3d a7d3 41be 1b40 ad3d
000000a0: 0cd1 f7bd ad0f 92bd fd22 633c b894 6ebe
000000b0: c87c 56be 302f 80bd e4b2 7fbe 8b21 64be
000000c0: 0136 cb3d 135a cd3a bb62 243e 7a10 fdbe
000000d0: 2cdd a83c 078b 933c 2fcf 3dbe ff55 703e
000000e0: 5630 aebd 2e08 ec3c 766b 28be cd30 6ebd
000000f0: 4f39 cebd c389 a53e 64a2 793d 26cd 37be
00000100: 0eca 89be e47b 063e 0159 9ebe fe32 e7be
00000110: 8895 853e b695 6f3e b026 9e3d 3457 92be
00000120: a9b3 cb3e 137b 523c 7a15 3ebf 989f e93d
00000130: 6725 4fbe e612 763d b98e 75be bf3c 8bbe
00000140: 8072 0a3d 46c9 05bd 31d8 94be 932b b6be
00000150: 7153 e93d 3484 a83e 48d0 693d 228a 31be
00000160: addb 933d c95f 8c3e f97f 46be c8bb ce3d
00000170: 5754 82bd b8ad 90be 17c9 02be 7b73 8a3b
00000180: 0397 213e 3efb 333b edcf e6bd 785e 003d
00000190: 46a2 c63d a41b d53e d520 1c3d 555c 77be
000001a0: b027 a7be 5c1b 4fbe dcb6 c33c 904b a93c
000001b0: fa4c ecbb 4d62 8b3e aaf9 a5be 4471 58be
000001c0: 784c 903e b89d bd3d 78ac 90be 31ae 3cbe
000001d0: 4566 bd3e a083 20be 936e fc3d 27f0 163e
000001e0: 14e9 4f3d af4e 7fbe ab0a 99bd 6063 2d3e
000001f0: cf44 78be 759b 933e 4a52 33be 37b9 72be
00000200: f168 b4bc 12a8 3bbe 8333 b0bd cb38 48be
00000210: 5a02 99bd afd2 e53d b642 c43d a2c0 bbbd
00000220: faa0 11be 8ce9 0bbd 937c 5cbe 25c9 7a3e
00000230: f351 5cbe 5e58 98be 75eb 1cbd 6242 4d3e
00000240: 11e4 523e ee04 b53d 135c c1be 0ff9 2d3d
00000250: 32c5 173e a433 6a3d b6c6 b33d 9fe8 933e
00000260: ce73 25bd b86c 413e 9dd1 cabd 4bf3 0dbe
00000270: c98b 94be 2e85 ecbe 9db1 14bc ef84 8a3e
00000280: 0258 02be 2eca 753e 0833 b73d b77f 53bf
00000290: b1d9 ea3c e52e 1ebe 9264 533d ec6a 3abe
000002a0: 5947 293e f447 f4be 9dc8 93be 6f97 063e
000002b0: c07f d6bc 1bcd 02bf 913b 6fbd 8822 fdbd
000002c0: f86c f8bd fc23 babd a82c 43be 1487 a3bd
000002d0: 00d7 a1bd 8cca 963e 7860 ef3d b632 b93c
000002e0: 3744 9e3e 3ee8 743d 1044 51bb 11a9 bd3c
000002f0: 75d9 9fbd e7cd 05be c87e 23be 6d47 a83e
00000300: 5861 da3d 7f14 163f 3866 713d 94c3 adbd
00000310: b13c 6dbe 493e aebd b283 483e 830d 923e
00000320: 6403 f7bd d169 84bd 12bf 0cbe cb7d 103e
00000330: 21b7 813e ee46 ff3c 0b19 d3bc b52b 5cbe
00000340: 2225 2f3d 0043 dbbc a874 48bf 0d41 7bbe
00000350: dff4 1dbd e1ec cbbe 7e40 2a3f 758b 803e
00000360: a476 073e 7a65 30be b036 853e 5f4e 3a3e
00000370: a937 ea3c 277c 2bbf 4c09 293c f886 8a3e
00000380: 4b85 d53d f808 10be b943 45be 7452 f0bd
00000390: 9752 60bd d4bf a23d 348f a13d 6327 4bbe
000003a0: a57d 5cbe 4a80 09be c761 0a3e 7c98 bbbd
000003b0: 1b40 aa3d b8fa e3be 3f96 83bd d76b 843d
000003c0: 6d6b d93c 356b 56be dbd4 473d b552 293e
000003d0: 6c3e 273e af61 e3bd ab17 f1bd ea99 9fbd
000003e0: b6e1 cebc e8cd a73d 2c93 bc3d 4b45 9abe
000003f0: b33e a2bd fde3 aabe d74e 91be 2802 263e
-0.37340647 -0.092104316 -0.40071237 0.3748247 -0.096552506 0.049156193 -0.34291592 -0.3274885
0.22398616 0.044438593 0.11073096 -0.08243514 -0.105840735 -0.21068008 -0.20232958 -0.07905401
0.11213832 -0.0042918003 0.16498578 -0.17216167 -0.07379154 -0.47439802 0.26680014 0.57578945
-0.06334836 -0.20080283 0.6845845 0.201275 -0.44673854 -0.517115 -0.41056195 0.31374106
-0.020430805 -0.20210278 -0.19262587 -0.0035862227 0.21709 0.124193504 -0.18928395 0.08459493
-0.121004194 -0.07131896 0.013863322 -0.23298919 -0.20946038 -0.06259 -0.24970585 -0.2227842
0.0992241 0.0015667103 0.16053288 -0.49426633 0.020613275 0.01801063 -0.18536066 0.23470305
-0.08505313 0.028812494 -0.16447243 -0.05815201 -0.100695245 0.32331666 0.060945883 -0.17949352
-0.26911968 0.13133198 -0.3092728 -0.4515609 0.26090646 0.23396954 0.07722223 -0.28582156
0.39785507 0.012846726 -0.7425152 0.11407393 -0.20229112 0.060076617 -0.23980226 -0.27194783
0.033800602 -0.032662652 -0.2907119 -0.3558012 0.11392868 0.32913363 0.057083398 -0.1733785
0.07219634 0.27416828 -0.19384755 0.1009441 -0.06363743 -0.28257537 -0.12772022 0.004225192
0.15780263 0.0027462984 -0.112701274 0.031340092 0.0969892 0.4162265 0.03811725 -0.24156316
-0.32647467 -0.2022528 0.023890905 0.020665914 -0.0072113248 0.27223435 -0.3241704 -0.21136957
0.2818334 0.09258598 -0.28256583 -0.18425824 0.36992088 -0.15675211 0.12325778 0.14740048
0.05075939 -0.24932359 -0.07472738 0.1693244 -0.24244998 0.28829542 -0.1751186 -0.23703466
-0.022022696 -0.18325832 -0.08603575 -0.19552915 -0.07471152 0.11221825 0.095830366 -0.09167601
-0.14221564 -0.034158275 -0.21531896 0.24490793 -0.21515636 -0.2975492 -0.038310487 0.20044854
0.20594813 0.08838831 -0.3776556 0.04247385 0.14821318 0.057178155 0.087781355 0.28888413
-0.040393643 0.18889129 -0.09903262 -0.1386234 -0.29012898 -0.46195358 -0.009075549 0.27054545
-0.12728885 0.24002907 0.0894528 -0.8261675 0.028668256 -0.15447576 0.051609583 -0.1820485
0.16531123 -0.47711146 -0.28863993 0.13143705 -0.026183963 -0.51094216 -0.058406416 -0.12360102
-0.12130159 -0.09088895 -0.19060004 -0.079847485 -0.07902336 0.29451406 0.11688322 0.022607189
0.3091142 0.059791796 -0.0031931438 0.023151906 -0.078051485 -0.13066827 -0.15966332 0.32866994
0.10663098 0.58625025 0.058935374 -0.08484569 -0.23167683 -0.08507974 0.19581488 0.28525934
-0.120611936 -0.064654954 -0.13744763 0.14110486 0.2533503 0.031161752 -0.025768777 -0.21501048
0.042760022 -0.026765347 -0.78303003 -0.24536534 -0.038563605 -0.39829162 0.6650466 0.25106397
0.13228852 -0.1722621 0.26018286 0.18193959 0.028590994 -0.66986316 0.010317158 0.27056098
0.10425814 -0.14065921 -0.19264115 -0.11734477 -0.054766264 0.079467446 0.07888642 -0.19839244
-0.21532305 -0.13427845 0.13513862 -0.091599435 0.083130084 -0.4452722 -0.064251415 0.06465881
0.026540482 -0.20939334 0.04878698 0.16535456 0.16332406 -0.11102616 -0.117720924 -0.07793029
-0.025254112 0.081935704 0.09207758 -0.3013099 -0.07922115 -0.33377066 -0.28380463 0.1621176

gnn.convs.2.nn.lins.1.bias f4 [32]
00000000: ab43 f6bd 4261 fe3e 5e07 803e bc06 d73e
00000010: 99eb 093e bd1a c8bb 0e90 b7be 45e0 ba3d
00000020: 2b23 463e 053a 193d 0d28 80be 96db 0c3f
00000030: f496 843e 8c4f 1ebe 0dc8 d93e 0f44 233e
00000040: 55c0 933e 77e6 8bbe 86bd 793e 9200 933e
00000050: 7321 5c3e 96f2 833e 7cc6 0d3e 2b9b 23bd
00000060: a6c4 8cbe e00e dbbd 67ec 153e 3b6a 213e
00000070: 486e 8fbe 6f43 a0bd cb8d 7abe 294c 6a3e
-0.120246254 0.49683577 0.2500562 0.41997325 0.1346878 -0.006106703 -0.35852093 0.09124807
0.19349353 0.037408847 -0.25030556 0.5502256 0.25896418 -0.15460032 0.4253544 0.15943931
0.28857675 -0.27324268 0.24388704 0.28711373 0.21497135 0.25771016 0.13845247 -0.0399429
-0.2749378 -0.106961966 0.14640962 0.1576318 -0.28013825 -0.07825362 -0.24468152 0.22880615

gnn.convs.3.nn.lins.0.weight f4 [32, 32]
00000000: e8ec a6bd 6520 b73d 63f5 ff3d 9006 cc3d
00000010: a8d2 853d 64df 7cbd 85c3 973d 3471 89be
00000020: d5f6 d3bc 62f3 9e3b f5ae 603e ea09 1c3e
00000030: 1216 d8bd f39b dabe 4629 f63d 433a b4bd
00000040: 55be 193e 4ff1 1d3e f420 e6be 3056 62be
00000050: e0de 7d3e f9bf 69be 8b5a 37be 4cb9 323d
00000060: a48b 483d 55d7 af3e 0fb1 d43e cf4b 05bd
00000070: 0ee5 133e eb7c 89bd 70aa 953d 5608 45bd
00000080: e68f e93d 1c42 db3d 33bb 6d3d 569c 9cbe
00000090: f2de 223d df69 f7bd 36ab 46bc 2901 2ebe
000000a0: 6830 743e 9e8b e3bd 12b8 e73d 581c cbbd
000000b0: 6ff3 03be 0fc7 22be 3787 d1bc d60c fc3d
000000c0: 11db 573e 8b2c 973d 130f 68be a46b 69bd
000000d0: 34dc 87bd ac49 533e e15b 273e f171 443e
000000e0: fb43 043e 5a16 593e 6919 b6bb 69f6 3bbe
000000f0: 3e49 093e 67c2 8a3e 3428 cebe 33b5 c13d
00000100: fb01 40be ed6b d13e ad56 32be c9c2 fd3d
00000110: d980 46bd 14ae e4bd 25cb bebc 45d2 2dbd
00000120: 7634 043d 9a0d 283e ea95 b1be 82ed 1b3f
00000130: cc8d f6bc 4a4a e63e 7e52 193e de98 db3c
00000140: 30bc 5abd 731d c4bd 751e b4bd 3b42 3b3e
00000150: 7c13 d93d 3d45 523f 2fb1 893e 688d 033d
00000160: 47d5 d0bd cf71 b5bd 292f 30be 612e eb3d
00000170: 6f72 b6bd f4e7 8c3d 6c21 3abd 3904 6d3d
00000180: b849 503e e9f7 aabe a283 9dbd 55ea e6be
00000190: c851 61bd 70bb 5d3e ee8f 34be 9ead d03d
000001a0: d276 b4be 3533 3e3e fe9b fe3e 8246 bbbd
000001b0: c732 8fbd 018b ac3c 6cba 08be f099 01bf
000001c0: 0e65 92be d8c5 463d 5d71 513e 5cd7 f9bc
000001d0: 6eba 37be 9d22 e9be 46c5 013e 2a93 e4be
000001e0: af72 803e e28f cfbd 7c47 42be a99a 193e
000001f0: dfee bc3e f191 733e 2c79 263f 4791 2bbf
00000200: 1a2f 2bbe 2853 873e 5358 483e 4bd3 3e3e
00000210: 637e 203c 3992 cd3d 190b 173e 99ec c03d
00000220: 855e 9a3d 1a0a 503d 3dc4 1abe 91e1 473e
00000230: 46fc 143e ab92 5f3c 75af ae3e a62c 8d3e
00000240: f013 03be a94e ffbd a154 07be 47d8 773c
00000250: 638c af3e d062 043e 1dca 9fbd 7db8 403d
00000260: 7670 8abd d3fb 9cbd f81e 3f3c 7c81 993c
00000270: 1268 12be 93fa 49be 89a9 bbbe a655 e43e
00000280: 7c6d 9abe 83f4 1d3e 17d4 4e3e 8cc1 a03d
00000290: 811f 9d3d a72b c03e 28f4 8b3d ee3b dd3d
000002a0: aa9e 393e 24d4 26bd 8d64 853c a372 53bc
000002b0: 8095 28bd 7afc 3cbe c6a3 cd3e e90a b0bc
000002c0: 5387 cfbe 5383 81be ae7c 14be b435 ea3d
000002d0: 3407 6c3e 84ca 103e 367c fc3d e4fa 1abe
000002e0: 8881 9fbe 750f 02be 14a3 873e fc0e 36bc
000002f0: bdd0 29be c4b7 a3bd 1c97 473e 588d 2d3e
00000300: 1c60 48bb 5f11 60be c847 59be bba0 3a3d
00000310: 7217 0ebe 1c49 a4bd 2913 88bd 8c34 013e
00000320: a934 a13d 7044 e9bd cad1 e3be 5329 3dbe
00000330: 9a52 0b3e 54d2 a93e 72c5 603d b692 ffbc
00000340: 08ae b7be 2a74 0a3c 498b 173e 8b41 2dbd
00000350: 8e39 7dbe 317c 9c3e f5e5 6e3e 3268 d9bd
00000360: 7912 613c 5aae 45be ce6d e6be c95a 22bc
00000370: 5f45 d1be 4db6 2d3e 6022 b0bd 4197 aebd
00000380: 0406 4abe 8ed3 efbd 9d63 ee3e be2f 8bbe
00000390: 1573 b73d ee08 053e 26bc 763e 563b 45be
000003a0: aed5 3fbd b9af 59bb f6fe 95be 1606 0f3e
000003b0: a0a5 0bbd 4a50 a9be 2c6b 7b3d d485 4fbe
000003c0: 0f75 ecbd 6743 db3d 8c9c 98be 39c6 243e
000003d0: f838 cd3d 6f23 0ebd 4f4e b5be 7931 123e
000003e0: e0cd a3be 02ab 483e 8a9b 3d3f c3fb 173e
000003f0: 32e9 6fbd 7cf8 d0be 350c d03d 8790 b6bd
-0.08150655 0.08941726 0.12497976 0.09962189 0.0653432 -0.06173648 0.07410339 -0.2684418
-0.025874535 0.004850791 0.21941741 0.15238157 -0.105510846 -0.42697105 0.12019591 -0.08800175
0.15014012 0.15424083 -0.44947016 -0.2210319 0.24792051 -0.22827138 -0.17905633 0.043633744
0.048961297 0.34343973 0.41541335 -0.032543 0.14442846 -0.06713279 0.07307899 -0.048103653
0.114043996 0.10705969 0.058039855 -0.30588025 0.0397634 -0.1208074 -0.012125781 -0.1699263
0.2384659 -0.11110614 0.113144055 -0.099175155 -0.12885831 -0.15896247 -0.02557717 0.12307136
0.21079661 0.07381543 -0.22662 -0.05698742 -0.06633797 0.20633572 0.16343643 0.1918409
0.12916557 0.21199933 -0.0055572283 -0.18355717 0.13406846 0.27101442 -0.40265048 0.09458389
-0.18750755 0.40902653 -0.17415877 0.12390668 -0.048462722 -0.11166015 -0.023290226 -0.042436857
0.032276593 0.16411439 -0.34684688 0.60909283 -0.03009691 0.44978553 0.14972875 0.026806291
-0.053402126 -0.095759295 -0.08794872 0.18286984 0.105994195 0.821369 0.26892993 0.032117277
-0.101969294 -0.08859598 -0.1720549 0.114834554 -0.08908545 0.06880179 -0.04544203 0.057865355
0.20340621 -0.33392265 -0.076911226 -0.45100656 -0.055009633 0.21653533 -0.1763303 0.10189365
-0.35246903 0.18574221 0.49728388 -0.09144308 -0.06992107 0.021062376 -0.13352364 -0.50625515
-0.28592724 0.048528522 0.20453401 -0.0304982 -0.17942211 -0.4553422 0.1267291 -0.44643527
0.25087497 -0.10134865 -0.18972582 0.15000404 0.36900994 0.23786141 0.65028644 -0.6701855
-0.16717187 0.2643063 0.19564943 0.1863529 0.009795758 0.100376554 0.14750327 0.094201274
0.075375594 0.050790884 -0.15113921 0.1951964 0.1454936 0.013645808 0.34118238 0.27573127
-0.12800574 -0.12466175 -0.13215877 0.015127248 0.34286794 0.12928319 -0.07802222 0.04705094
-0.067597315 -0.07665219 0.011665098 0.0187385 -0.14297512 -0.19724493 -0.36652783 0.44596595
-0.30161655 0.15425305 0.20198093 0.07849416 0.076720245 0.37533304 0.068336785 0.10802446
0.18126932 -0.040729657 0.016283298 -0.0129057495 -0.0411582 -0.18455687 0.40164012 -0.021489577
-0.40532932 -0.25295505 -0.14500687 0.11436024 0.23049623 0.14139754 0.12328379 -0.1513477
-0.31153512 -0.12701209 0.26491606 -0.011111971 -0.16583534 -0.07994035 0.19491237 0.1694845
-0.0030574864 -0.21881627 -0.21218789 0.04556344 -0.13876131 -0.08021757 -0.066442795 0.12617701
0.07871372 -0.113900065 -0.44495994 -0.18472795 0.13605729 0.3316828 0.0548758 -0.031197887
-0.35874963 0.008450547 0.14799227 -0.042298835 -0.24728987 0.305635 0.23329909 -0.10615577
0.013737314 -0.19304791 -0.4500565 -0.00990934 -0.40873238 0.16964073 -0.086003065 -0.08524943
-0.19728857 -0.11710273 0.46560374 -0.27184862 0.08957497 0.12991688 0.2409521 -0.19260916
-0.04683464 -0.003321631 -0.29296082 0.13967165 -0.0340935 -0.33069068 0.061381504 -0.20265895
-0.11545765 0.10706215 -0.29806936 0.16091241 0.100206316 -0.03470176 -0.35411307 0.14276685
-0.31993008 0.19596484 0.7406546 0.14842133 -0.058572 -0.4081458 0.10158578 -0.08914285

gnn.convs.3.nn.lins.0.bias f4 [32]
00000000: c32d ec3e bea6 fabe df78 373f ab3d febe
00000010: d55b 71be 8804 90be 834c f53e b4e1 043e
00000020: 5b0a f4bd 2f7d b3be 5eaf 93bd 048f aebd
00000030: 0c50 6fbf 3021 8ebe b028 453e 02ef 503e
00000040: c299 563e 3d2c 9dbe 00ea 313d 36fb 813e
00000050: 07f5 043f 024f 8ebe 55a0 333e f9e0 69bf
00000060: 5fb1 9abe e223 1e3e f965 91bd d55d 413d
00000070: e6ca 103e f178 103e 2a8e 863e b3b3 a53e
0.46128663 -0.4895534 0.7166881 -0.49656424 -0.23570187 -0.28128457 0.47909936 0.12976724
-0.11916038 -0.35056445 -0.07211183 -0.08523372 -0.93481517 -0.27759695 0.19253802 0.20403674
0.20957091 -0.30697814 0.04343605 0.2538697 0.5193638 -0.27794653 0.1754163 -0.91358906
-0.30213448 0.15443376 -0.07099528 0.047208626 0.141399 0.14108635 0.26280338 0.32363662
