Models/prob_model_best.pth (torch, 451348 bytes, 28 tensors)

att_src f4 [1, 2, 64]
000000 fd 98 a2 3d bb bc 25 3f 3d 22 4e 3e 99 7d 36 bb
       0.079393364 0.64741105 0.20130248 -0.0027845858
000010 fe 33 66 bd 61 09 80 bc ce 73 93 3d 7b 07 45 be
       -0.056201927 -0.015629472 0.07199822 -0.19241135
000020 a0 ae 5c 3e 9c fa 31 3e de 10 46 be 18 0b 19 3e
       0.21550989 0.17380756 -0.19342372 0.14945638
000030 d1 35 95 3d 68 34 88 3e 34 d5 89 bd 72 f1 7f 3e
       0.07285655 0.26602483 -0.067301184 0.24994448
000040 40 16 1a 3e f5 d9 5a bc a4 95 df be e4 e2 d9 3e
       0.1504755 -0.013357629 -0.43668854 0.42555916
000050 66 20 cd be d0 90 02 3f 40 39 1b 3d 76 52 7b 3e
       -0.4006378 0.51002216 0.037896395 0.24543175
000060 ea 33 80 3d d5 08 b1 bd 74 37 9e 3d 75 e1 0b 3e
       0.06259902 -0.08644263 0.077254206 0.13660224
000070 13 55 59 3e da 46 3e 3e d7 ad 10 bd ff 0a b4 be
       0.2122386 0.18581715 -0.035322037 -0.3516464
000080 1d f9 3e be a7 95 a9 bc ed af 05 be 16 70 8a 3e
       -0.18649717 -0.020701243 -0.13055392 0.2703864
000090 5a ce 72 bd 0e 72 15 3e 3d 22 c9 3d 8e 48 ad 3c
       -0.059278823 0.1459429 0.098209836 0.02115276
0000a0 01 88 ee 3d 2f 90 0b 3c c5 4d 86 be 38 05 0c 3e
       0.116470344 0.008518263 -0.26231208 0.13673866
0000b0 67 2c 47 be 4a ae e4 3e 85 30 9b 3d 7d 60 80 3e
       -0.19450532 0.44664222 0.07577614 0.25073615
0000c0 cf be a8 3e 39 70 19 3f c1 80 69 bd e6 0e 35 3b
       0.32958075 0.59936863 -0.057007555 0.0027627288
0000d0 13 f9 72 bd 0f 4c 63 be 89 15 1f be 88 f1 b0 3e
       -0.059319567 -0.22196983 -0.15535559 0.34559274
0000e0 e9 32 19 bf 7b 98 05 be 01 32 9d be 3d 57 f1 3d
       -0.5984331 -0.13046448 -0.30702212 0.117842175
0000f0 0c a9 24 bf 6b 79 db 3e 2a d3 d6 3e 7d f4 8a be
       -0.64320445 0.42866072 0.4195798 -0.27139655
000100 60 ff b6 3d e4 44 5d bd 30 9c b4 3e 34 75 93 3e
       0.08935428 -0.054020777 0.35275412 0.28800356
000110 00 fb 42 3e 21 d0 8c be 7a ad 02 bd a1 60 14 3d
       0.19041061 -0.2750254 -0.03190372 0.036224965
000120 c4 c0 99 3d ac c3 83 be 33 5c 86 be a8 d2 2a be
       0.0750747 -0.25735223 -0.26242217 -0.16681921
000130 05 65 b7 3e 5c 97 ce 3d 63 86 dd bc d4 4f 0b be
       0.3581926 0.10087463 -0.02704162 -0.13604671
000140 b4 93 75 3e 5c a6 80 3e e5 f7 59 be 51 9b 80 be
       0.23982126 0.25126922 -0.2128597 -0.25118497
000150 37 d7 95 3d 8b dc 77 be 29 ac 64 3d 66 2b f1 3d
       0.073164396 -0.24205224 0.055828247 0.11775856
000160 48 7e 1f 3e fd ca 4b be 5d 2b a9 3e 0a 50 8d be
       0.15575516 -0.19901653 0.33040896 -0.27600127
000170 6b ac 4f 3a c4 60 a5 3e c3 17 e3 bd 52 8c 88 be
       0.00079221156 0.3230039 -0.110885166 -0.26669556
000180 d5 7c a1 be 7a fd 3e 3e 87 a6 a7 bd 08 8d cb 3c
       -0.31540552 0.18651381 -0.081860594 0.024847522
000190 9f f9 61 bd 93 78 d0 3d 9a f0 5b be f3 5f 0f 3e
       -0.055169698 0.10179248 -0.21478501 0.14001445
0001a0 e8 64 0c be 64 86 5f 3d 28 a2 0e 3e ff cd 09 bd
       -0.13710368 0.054571524 0.13929045 -0.03364372
0001b0 e1 7c 0c 3e 25 cb 04 be 49 26 bf b9 d1 6f 17 bd
       0.13719513 -0.12968118 -0.00036458884 -0.03697187
0001c0 07 2b 1e 3e 22 4e 89 3d 65 d4 e6 3d 25 32 5c bd
       0.15446101 0.06704356 0.1127098 -0.05375876
0001d0 a2 9a 6e be d1 34 eb 3c 31 2f e8 3c cd 63 d8 bd
       -0.23301175 0.028711708 0.028342815 -0.105659105
0001e0 c1 d6 e7 3e cc f9 f1 bd b9 e8 04 be 3e 57 00 3d
       0.45281032 -0.11815223 -0.12979402 0.0313332
0001f0 28 69 ee 3d 6f f4 67 3e 0f 9a 62 be 54 c7 b5 bd
       0.11641151 0.22651838 -0.22129081 -0.088759094

att_dst f4 [1, 2, 64]
000000 1e 58 fd bd cf 8d b0 be 4c 5c 6a 3e ed 74 b1 bb
       -0.12370323 -0.3448319 0.22886771 -0.00541555
000010 2e 53 49 3e 73 f5 57 3e 4c 79 16 3e b6 e3 85 bd
       0.19660637 0.21089725 0.14694709 -0.06537573
000020 41 5d ae 3e 68 6e b1 be 17 30 14 3e 0a a7 36 be
       0.34055522 -0.34654546 0.1447147 -0.17837158
000030 8e 31 6c 3e b6 29 d2 3d cf ac fb bd 65 c9 92 be
       0.23065779 0.10261862 -0.1228882 -0.28669277
000040 ea 61 59 bd ce 73 fa bd 2b 0d b4 3e c3 8c 57 3e
       -0.053071894 -0.12229119 0.35166296 0.2104979
000050 4c 08 e4 3d 33 41 5a 3c 8e 39 82 3d d7 25 1c bd
       0.11134395 0.013321209 0.06358634 -0.038122024
000060 26 40 36 3c 64 cc 8c 3e 69 bd 36 be 43 f4 ca bc
       0.011123693 0.27499688 -0.17845692 -0.024774676
000070 1a 1f 1e be 37 84 af be 98 9f ad bd d4 44 18 3e
       -0.15441552 -0.3428056 -0.08477706 0.14870006
000080 1b 53 5e be 88 54 23 3e 6e b8 30 3d 57 dd b3 3d
       -0.2171139 0.15950215 0.043144636 0.087824516
000090 87 87 81 3d 26 bb 8e bd 8b 48 57 3d 23 68 a7 be
       0.06324678 -0.069692895 0.052559417 -0.32696638
0000a0 0d 2d 69 3b 9c 36 59 bd 34 8f 90 3d 48 62 43 bc
       0.003557983 -0.053030595 0.07058564 -0.011925288
0000b0 f9 85 43 bd 72 3f 6c 3e 54 9c 6b 3e 5b a8 a8 bc
       -0.04773519 0.23071077 0.23008853 -0.02058809
0000c0 ad ff 45 bc 0b a2 4d 3e 6c 52 6d 3e 8f 1c a7 3e
       -0.012084884 0.20081346 0.23175973 0.32638976
0000d0 64 ce 14 bd 7d 8e 91 bd 07 46 1a be af b9 ae 3d
       -0.036329642 -0.071072556 -0.15065776 0.0853151
0000e0 8b 9b 73 be aa 02 34 be 0a 2f 1d be 93 54 ca bd
       -0.23789804 -0.17579141 -0.15349975 -0.098794125
0000f0 ce 63 8d be 46 77 25 be 8a 2f 19 be 28 81 32 be
       -0.27615207 -0.1615878 -0.14959541 -0.17432082
000100 e3 0d 96 be 9e 83 d5 3d 65 90 39 3e 26 2c 8c be
       -0.2930747 0.104254946 0.18121488 -0.27377433
000110 bd 8b 14 3d 38 2a 94 bd 90 78 0c be 1c 44 b9 be
       0.036266077 -0.07234615 -0.13717866 -0.36184776
000120 38 64 85 be db 0c 3d be a5 58 fa 3d 5f 85 0a be
       -0.26053023 -0.18461935 0.12223939 -0.1352744
000130 2d dc 95 3e cf 5d 1e 3e 8a fd 8a 3d 3f 79 76 be
       0.29269543 0.15465473 0.0678664 -0.24069689
000140 2a 20 6b be 60 34 8d bd 38 b9 36 bd fe 98 35 be
       -0.22961488 -0.06894755 -0.044610232 -0.17734143
000150 25 83 3b bd 67 3e 71 bc 21 4a 95 3d 2a 89 c0 bd
       -0.045779366 -0.014724351 0.072895296 -0.09401162
000160 72 6b b6 bd 8f 9e 9e bd 76 a1 8a 3e f4 66 80 be
       -0.08907212 -0.077450864 0.2707631 -0.25078547
000170 a8 ad bf 3d d3 ca 83 3e 80 65 de bd ed 68 2b 3e
       0.09359294 0.2574068 -0.10859203 0.16739245
000180 77 3b 5c 3e c1 eb 2e 3e 8f f9 6d 3e 8c 0b c1 bc
       0.21507059 0.1708212 0.2323973 -0.023565076
000190 c4 b0 eb 3d 41 dd 7c be 7c 93 50 be 66 f1 8a 3d
       0.11508325 -0.24693777 -0.20368761 0.06784324
0001a0 61 8c a7 3e 42 1b 1e be a6 12 e5 bc 3e 0f c6 bd
       0.32724288 -0.15440086 -0.027962994 -0.09670876
0001b0 f8 12 21 be 8f 42 c9 bd 39 07 e3 bc 16 be 08 3d
       -0.15729892 -0.09827148 -0.027713405 0.033384405
0001c0 9c ae 82 3e 30 1b 73 3e 98 11 9b 3e 43 20 37 3e
       0.2552384 0.2374084 0.3028686 0.178834
0001d0 53 7d 54 3d 5b 08 c1 3c e1 ee 35 3e e3 28 a6 be
       0.05187733 0.023563555 0.17766906 -0.3245307
0001e0 ea 40 a4 bd 89 44 c6 bb d0 15 76 3e 39 44 32 3e
       -0.08020194 -0.0060506505 0.24031758 0.17408837
0001f0 30 de 4c 3e 80 09 f1 bb 2d 01 d2 3d 07 5f 48 3c
       0.20006633 -0.007355869 0.102541305 0.0122296875

bias f4 [128]
000000 62 bd 97 bd 6d dc c0 bd 3e fc a0 bd 47 90 38 bd
       -0.07409169 -0.09417043 -0.078606114 -0.04505947
000010 da 60 ab bd 8e c3 c6 bd f0 2e d1 3d d5 b8 be bd
       -0.08368082 -0.09705268 0.10214031 -0.09312598
000020 57 e7 00 be 2d 22 98 bd 1e 5b bf bd 00 00 00 00
       -0.12588249 -0.074283935 -0.09343551 0.0
000030 00 00 00 00 f2 bd c8 bc c5 47 a6 bd ae 43 b2 bc
       0.0 -0.024504635 -0.08119158 -0.021760788
000040 e4 91 c1 bc 00 00 00 00 45 21 f0 bd c3 e1 34 bd
       -0.023629136 0.0 -0.11725096 -0.044160616
000050 26 77 04 be 08 42 4c bc ad 48 44 bd 55 22 fa bd
       -0.12936077 -0.012466915 -0.04792087 -0.122135796
000060 da 65 4f bd 4d 96 25 bd 98 6e 49 3d d9 a7 b6 3d
       -0.050634243 -0.04042654 0.049177736 0.08918733
000070 00 00 00 00 8c 51 7a 3e e3 fe 54 3c 12 b4 c5 bd
       0.0 0.2444517 0.013000223 -0.09653486
000080 5a 9a f0 bd 04 65 e9 bd 3e 6f 06 3b be 9a e8 bc
       -0.1174819 -0.1139622 0.0020513083 -0.0283941
000090 91 bc 23 be 02 a7 49 3f a6 ca 56 bd 76 27 99 bd
       -0.15989901 0.7877046 -0.052439354 -0.0747823
0000a0 89 0b 92 bc a2 58 46 bd 00 00 00 00 7c ba 9e bd
       -0.017827766 -0.04842437 0.0 -0.07750413
0000b0 5d 4b bc 3e 93 f7 09 3d 1e 75 5d bc 00 00 00 00
       0.36776248 0.03368337 -0.013516692 0.0
0000c0 00 00 00 00 c7 0b 5c bd 93 08 ff bd f7 18 de bd
       0.0 -0.05372217 -0.12452807 -0.108446054
0000d0 7d 29 a4 bc be fe b6 bd 00 00 00 00 b8 a8 2f bd
       -0.020039314 -0.08935307 0.0 -0.042885512
0000e0 4d da 41 be f5 04 f8 3d 6c 9b d9 bd 79 4c 75 bd
       -0.18930931 0.121103205 -0.106253475 -0.059887383
0000f0 c3 7f be bd 60 b5 a8 bd 36 41 99 bd 0c 53 c1 bd
       -0.09301712 -0.082377195 -0.07483141 -0.09439668
000100 3c 0b 2d bd b4 65 aa 3a a6 1d 86 bd a3 9d d9 3c
       -0.042247042 0.0013000281 -0.06548624 0.026564425
000110 1d 96 f3 bc e2 52 84 bd 00 00 00 00 00 00 00 00
       -0.029734666 -0.06461121 0.0 0.0
000120 fd 3f d9 3e 00 00 00 00 cb 23 8f bd 44 34 8f bd
       0.42431632 0.0 -0.06989249 -0.06992391
000130 b1 bc 3a bd 3f 4e cd bd d0 5f 74 bd 97 0c 05 be
       -0.045590106 -0.1002469 -0.059661686 -0.12993084
000140 12 d3 95 bd 72 92 86 3e ff 04 2f bd 0a 17 2f bd
       -0.07315649 0.26283604 -0.042729374 -0.04274658
000150 89 15 5e bd 38 57 00 bc 06 48 35 bd 14 9a ab bd
       -0.054219756 -0.007833295 -0.04425814 -0.083789974
000160 7b 7f a2 bd 9a 49 a1 bd bb a3 e9 bd 00 00 00 00
       -0.07934471 -0.078753665 -0.11408182 0.0
000170 ad 44 53 bd 1e 1b 0d 3c f0 08 92 3c 24 28 58 bd
       -0.051579166 0.008612422 0.017826527 -0.052772656
000180 d5 e6 1a 3e 82 a2 8d bd 9b 9d 88 be 00 00 00 00
       0.15127118 -0.069157615 -0.26682743 0.0
000190 7b b8 af bd 5c 89 f4 bd 32 f4 ad bd 10 c0 b2 bd
       -0.08580109 -0.11940262 -0.08493842 -0.08728039
0001a0 a2 3c ba bd 3a ec a8 bd 72 f0 ea 3d ca d0 d6 bd
       -0.09093596 -0.08248182 0.114716426 -0.10489042
0001b0 3b 00 8e bd 00 00 00 00 f3 82 a7 bd b2 a2 b3 bd
       -0.06933638 0.0 -0.081792735 -0.08771266
0001c0 a9 ff c7 3b ad 6d f3 bd 68 23 82 bd a4 d9 2b bd
       0.006103475 -0.11886153 -0.063544095 -0.041955605
0001d0 36 aa a7 bd 1a 87 86 bb 9c 84 54 bd f4 59 f6 3e
       -0.08186762 -0.004105461 -0.05188428 0.48115504
0001e0 b4 3c 39 bd 8d db cb 3d e5 3a 9e bd 8e 9e 3d bd
       -0.045223907 0.09953985 -0.07726077 -0.046293788
0001f0 f0 0d 35 bd 00 00 00 00 91 f6 a1 bd 00 00 00 00
       -0.044202745 0.0 -0.07908357 0.0

weight f4 [128, 8]
000000 46 40 f9 3d ed a1 8c 3d 92 28 22 3e 7d 7c 45 bd
       0.12170462 0.068668224 0.15835789 -0.048214424
000010 77 7c 3f bd 2b c8 0c bd 00 aa c0 3d 95 5b 7a bd
       -0.04674956 -0.034370583 0.09407425 -0.061122496
000020 e2 fd e5 bd 97 37 96 bb c5 2e 05 3e 57 a4 54 be
       -0.11230065 -0.0045842635 0.13006122 -0.20765816
000030 02 69 e2 bd 81 c8 22 be 3c 57 f0 3d c9 9f 88 be
       -0.11055185 -0.15896799 0.11735389 -0.26684406
000040 ee d8 89 3a 2a ef f9 bd 99 f5 e0 bd 00 fe 49 bd
       0.0010516921 -0.1220382 -0.10984344 -0.0493145
000050 57 58 86 bc 14 0b b2 3c 23 b5 35 bd ac 85 7b be
       -0.016399546 0.021733798 -0.0443622 -0.2456271
000060 9c d7 bd 3d c4 e8 0c be 6a 76 a3 bc 7f 3f fa ba
       0.0926964 -0.13760668 -0.019953925 -0.001909241
000070 09 5c 30 bb e0 15 ff bc 36 57 35 be 64 bb 80 be
       -0.0026910326 -0.03113836 -0.1770905 -0.25142968
000080 f4 9b 94 3d 51 52 82 be 84 b3 7b be 7f c4 7b be
       0.07256308 -0.25453427 -0.24580199 -0.24586676
000090 93 4a b3 3c 40 98 a9 bc 89 5b 05 3e 42 8c 81 3c
       0.021886146 -0.020702481 0.13023199 0.01581395
0000a0 6c 60 00 3e 94 e7 33 be aa 91 23 3e 02 48 d8 3c
       0.12536782 -0.17568809 0.15973535 0.026401524
0000b0 7e 27 bd bd b9 f3 26 be dc bc 5a be 32 27 bb 3d
       -0.09236048 -0.1630391 -0.21361107 0.09138335
0000c0 f6 b8 0c be a1 3a c9 3d cf df 74 3d d8 42 12 3e
       -0.13742432 0.09825636 0.059783753 0.14283311
0000d0 79 fe aa 3d 9a 81 6f 3d 1a d0 e5 3d 03 36 8a be
       0.08349318 0.058473207 0.11221333 -0.26994333
0000e0 fc 63 2f 3e e3 d5 13 3d 91 cc 72 be b4 3f 9e be
       0.17127985 0.03609265 -0.23710848 -0.30907977
0000f0 77 34 0e be 14 f8 d5 3e 22 b2 cf bd ec c8 02 3c
       -0.13887201 0.4179083 -0.10141398 0.007982474
000100 34 3a bf be ad da 06 bf 89 9b 88 bd a2 6a 4a be
       -0.37349093 -0.5267742 -0.06670291 -0.1976724
000110 12 5a 29 bd ab 5b 9d bf 3f c0 27 be 3a a3 0f be
       -0.041345663 -1.22936 -0.1638193 -0.1402711
000120 8a 65 19 bd 46 b4 b7 bc eb 6b 6f be d3 2e 65 3d
       -0.03745035 -0.022424828 -0.23381011 0.05595286
000130 95 25 00 3d ad eb bc be bf fd 19 bd 89 df 3d be
       0.03128584 -0.36898556 -0.037595507 -0.18542303
000140 24 02 d5 3c 34 c1 5d be 39 46 0a be 46 cb 78 be
       0.026001997 -0.21655732 -0.1350335 -0.24296293
000150 04 95 8f be 62 78 d4 3d b3 ae 63 3b ca 5d 93 be
       -0.28043377 0.10374524 0.003474158 -0.28782493
000160 05 ac b2 bd 69 58 6f be 66 d7 ac 3d d9 dd 12 3e
       -0.08724216 -0.2337357 0.084395215 0.1434244
000170 c7 53 85 be cd ef 65 bf f6 7c 87 3e d3 8f 6f 3e
       -0.2604048 -0.8981903 0.26462525 0.23394708
000180 8a 60 82 3c 36 12 df bd 17 18 bc bd f3 c5 e9 3d
       0.015915174 -0.10892145 -0.09184282 0.11414709
000190 74 5d 77 3c c4 ee c8 be a0 17 85 be 4c cf 66 3d
       0.015097965 -0.39244664 -0.25994587 0.056350037
0001a0 51 e3 2b be bd 9b 39 be 62 14 0a be 08 12 99 3c
       -0.16785933 -0.18125816 -0.13484338 0.018685356
0001b0 f5 89 34 be 9a 52 2c bd 4d 86 e6 bc 24 99 33 3e
       -0.17630751 -0.042070962 -0.028140211 0.17538887
0001c0 3f d8 dc 3c e1 44 dc bd 8e bd 6e be 7a 91 79 3d
       0.026958583 -0.10755325 -0.23314497 0.060929753
0001d0 d8 bc 46 bd 7f 0c 99 3d 07 59 8c be 25 11 5a bd
       -0.04851994 0.074730866 -0.27411672 -0.053239007
0001e0 58 15 8a bd 92 0e 1b 3e 12 90 15 3e 38 a8 05 be
       -0.06742352 0.15142277 0.1460574 -0.13052452
0001f0 43 e9 1a 3e 16 4a 4c be 35 b4 ea 3b cd db c0 3b
       0.15128045 -0.19950137 0.0071625956 0.0058855773
000200 bf 3d 2c 3e 71 6b 74 3d 49 ba 2c 3d f8 c5 30 bd
       0.1682043 0.059672777 0.042169843 -0.043157548
000210 85 49 16 3d d1 87 94 bd c6 c7 a3 3d 06 7a 4f bb
       0.036691207 -0.072524674 0.07997088 -0.0031658425
000220 7e 9f 98 bd 48 26 15 3e 3b 0b 86 bd 90 1d 45 3e
       -0.07452296 0.14565384 -0.06545111 0.19249558
000230 ec 0b 0d be 77 bf 20 3e 50 c3 8c 3d 43 c8 a3 bc
       -0.13774079 0.15698038 0.068731904 -0.019992953
000240 92 48 c4 3d e5 b5 da 3e 62 9d 91 3d 8d 05 34 be
       0.09584154 0.427169 0.071100965 -0.17580242
000250 43 82 1c be 27 27 df 3f da c0 74 be 76 0f 6f be
       -0.15284066 1.7433823 -0.23901692 -0.23345742
000260 66 13 3a be b6 59 77 be 7e bd 02 be 74 27 54 bc
       -0.18171462 -0.24155316 -0.12767598 -0.0129488595
000270 46 8c 60 be 49 1b 00 bd ba ee 5f be a0 30 80 be
       -0.2192851 -0.03127602 -0.2186841 -0.25037098
000280 53 ae 37 3e 56 28 bc 3e d8 23 ad bd b5 79 10 bd
       0.17937593 0.36749524 -0.08454102 -0.03527232
000290 98 21 43 bd 6d 11 15 3e f8 83 0d 3c 97 87 84 3e
       -0.04763946 0.14557429 0.008637421 0.25884697
0002a0 08 85 33 be 62 27 4a bd 0d fd 91 bc 21 a7 2f bd
       -0.17531216 -0.049353965 -0.01782086 -0.042883996
0002b0 75 6c 48 be b1 bd b7 be 0b 2f df 3d 6a 6a 88 3d
       -0.19572623 -0.3588691 0.108976446 0.06660922
0002c0 c7 db fe bd 9e f7 4e 3e 75 b7 99 3d 78 41 88 bd
       -0.12444263 0.20211646 0.07505695 -0.06653112
0002d0 f4 a9 3e be 73 30 0b be aa a6 14 bd f9 a7 06 be
       -0.1861952 -0.135927 -0.036291756 -0.13150014
0002e0 3f 85 9f ba 5b 58 db bd 96 50 7c be 3b 77 6e be
       -0.0012170448 -0.10710212 -0.24640116 -0.2328767
0002f0 c5 59 18 bd b1 21 28 be 6f f8 0d be d9 0d 99 3d
       -0.037194986 -0.16419102 -0.13864301 0.07473344
000300 00 f5 11 be cb 58 4e 3d 88 d5 83 3d 1e 3d 83 be
       -0.14253616 0.05037765 0.06437212 -0.25632566
000310 ac 16 02 bd c0 b5 90 bd 3d 8e 19 bc b6 da 12 be
       -0.031759903 -0.07065916 -0.009372291 -0.14341244
000320 3a 11 3e bc 9e 58 75 3d 80 b8 67 be 41 4a 79 3d
       -0.011600787 0.059898965 -0.22628975 0.06086183
000330 6a 98 81 bd 94 e5 0c be 36 76 03 be 38 68 1d be
       -0.06327899 -0.13759452 -0.12838063 -0.15371788
000340 e3 b5 4b 3c 5c e1 13 be cf 26 9f 3d bb e2 32 bd
       0.012433502 -0.14441437 0.07771074 -0.04367326
000350 61 0f 26 3e bc 9b 93 3e fe ef 90 bc 0d 61 1f 3f
       0.16216804 0.28829753 -0.017692562 0.6225746
000360 9f 0e 07 be 74 bc 43 bd e0 34 40 3a 90 7d e2 bd
       -0.13189171 -0.047787145 0.0007332098 -0.110591054
000370 34 3c 0e 3e 8a e6 04 3e 8e 83 18 be 97 0b 7d be
       0.13890153 0.12978569 -0.14893934 -0.24711452
000380 bf 97 24 3d dc a2 75 be 01 a8 8b 3c 52 56 f1 bd
       0.04018378 -0.23987907 0.017047884 -0.117840424
000390 8a 5c a0 bd 5a 88 f0 be f1 a6 18 be 25 d2 91 3d
       -0.078301504 -0.46979028 -0.14907433 0.0712016
0003a0 9b b2 88 bd 35 53 34 3e 6b 3f 07 3d c6 2c 5a 3d
       -0.06674691 0.17609866 0.033019464 0.053265356
0003b0 55 78 b5 3e 96 7a b8 bd 3a 0f 05 3e f6 9b 0a 3f
       0.3544337 -0.090077564 0.1299409 0.5414423
0003c0 0d 73 90 bd 47 18 c8 bd 80 5b 1b 3b 5e e1 04 bc
       -0.07053194 -0.097702555 0.0023705661 -0.008110372
0003d0 a1 79 96 be 77 9a e0 bd 85 63 c4 3d bb f2 85 3e
       -0.2938967 -0.10966962 0.09589294 0.2616175
0003e0 28 b8 97 3e 14 fc 12 3e 07 41 a5 bd db 1c 1f 3e
       0.29632688 0.14353973 -0.080690436 0.15538351
0003f0 a3 55 b5 bd 51 84 53 3f 62 75 06 3d 5d a5 53 3e
       -0.088542245 0.82623774 0.03282679 0.2066855

att_src f4 [1, 2, 64]
000000 2a 9b f5 3d ea 79 0d 3e 8a fd 10 be 4b 89 ce bd
       0.11992486 0.13816038 -0.14159217 -0.1008478
000010 e9 a7 89 bd cc a4 25 bd 7d 0f 09 3e 34 20 27 3c
       -0.067214794 -0.040440366 0.13384815 0.010200549
000020 54 75 73 3b d2 93 23 be 72 99 81 be bd 8b 7a be
       0.003714879 -0.15974358 -0.25312382 -0.24467368
000030 55 ee e2 3c 82 d2 3d be d9 09 e8 bb 32 0c ce 3c
       0.027701536 -0.18537334 -0.007081252 0.0251523
000040 b5 81 d2 3d 79 43 64 3c 4b 6a 69 3c 8d d5 b6 3d
       0.10278646 0.013932102 0.014246534 0.0892745
000050 71 d7 02 3c aa 80 32 3c 4e e8 cc 3b 32 94 31 be
       0.007985936 0.010894934 0.006253279 -0.17341688
000060 4b c7 aa bb da 4a 96 3d 28 d4 ff bd 26 48 a9 3d
       -0.005211746 0.073384956 -0.124916375 0.08265714
000070 71 3e 67 3e 26 3a 1e bc df 9c b8 bd b7 bc 5e 3d
       0.22582413 -0.009657418 -0.09014296 0.05437919
000080 b5 9d b6 3d 25 32 a7 3d af 31 d0 bd f1 0f 9d bb
       0.08916799 0.08163861 -0.101657264 -0.00479316
000090 26 1e 4f 3d b5 2e 1c 3d ce b6 21 bd 30 c1 8c bc
       0.05056586 0.03813048 -0.039480977 -0.017181963
0000a0 df 25 12 be bc 39 06 3d 81 54 4d 3c 86 24 69 bd
       -0.14272259 0.032769904 0.012532354 -0.056919597
0000b0 94 25 b7 3d f8 19 e8 ba fb e9 f0 bc 97 14 73 bd
       0.08942714 -0.0017707935 -0.029408446 -0.059345808
0000c0 46 4c 42 bc f4 29 85 3e db 6d 03 bc 7b a5 9f 3d
       -0.011859005 0.2600857 -0.008021797 0.07795235
0000d0 ca 93 d9 3d a5 93 1c bc 5a 9d 3f 3d 88 4d 36 3e
       0.10623892 -0.009556686 0.04678092 0.17803013
0000e0 cf de f3 3d 3c a2 9b 3d af 09 6e 3a 93 96 9b bc
       0.11907732 0.07599303 0.00090804225 -0.018992698
0000f0 e6 5b 2f 3d 36 9e 06 3c 66 b0 0f 3c e1 21 99 3d
       0.04281225 0.008216431 0.008770084 0.07477165
000100 54 47 a3 3e a3 da 54 3e 5c 5e f4 3d eb aa 5a 3e
       0.31890357 0.20786528 0.1193206 0.21354263
000110 62 d0 e3 bd 63 17 9b 3d 14 cf 70 3e 7e 5d 30 3e
       -0.1112373 0.0757282 0.23516494 0.17223164
000120 ff 61 a1 be 67 cf 45 3d 48 ce 80 be e2 0c cf bd
       -0.31520078 0.048293497 -0.2515738 -0.10109879
000130 d2 00 db 3d 63 7a 83 bd e7 f8 f4 bd fb ae 55 3e
       0.10693516 -0.06419828 -0.11961537 0.20867531
000140 0d 06 3e 3d 6c 18 ec 3c 88 aa 4e 3d c7 02 56 3e
       0.04639249 0.028820239 0.0504556 0.20899497
000150 82 3e b0 be 52 a3 7a be 60 52 4e 3d c0 47 25 be
       -0.3442269 -0.24476364 0.050371528 -0.16140652
000160 dd 1a 0c 3e 8f a6 78 bd d3 2f 00 bd 35 ea 4e be
       0.13682123 -0.060705718 -0.03129561 -0.2020653
000170 f4 45 5a 3e 4e 86 87 3d ee 22 6c 3e 78 62 a1 be
       0.21315747 0.066174135 0.230602 -0.31520438
000180 41 4d a6 be 2d b5 86 be d2 a0 54 be 38 13 eb be
       -0.32480815 -0.263101 -0.20764473 -0.459131
000190 2d bf ef be 9f ff ec bd 2e 12 a9 3c ce a8 54 3e
       -0.46825543 -0.11572193 0.020638552 0.20767519
0001a0 08 dc 19 3e 0f ab 31 3e 9e 4f 91 3d 2a e9 32 3e
       0.15025342 0.1735041 0.07095264 0.17471758
0001b0 d7 9a a0 3e b1 a3 06 3d 5c 9a 8f be a2 d8 51 be
       0.31368133 0.032870952 -0.28047454 -0.20492795
0001c0 31 3b 87 3e a2 28 1b 3d b1 9a 52 be 7b 56 74 be
       0.26412347 0.037880547 -0.20566823 -0.23861115
0001d0 a6 d6 b7 be ea f0 70 be 3f 1a 3e 3e 9b 98 03 3d
       -0.3590595 -0.23529401 0.185647 0.032127958
0001e0 50 d1 8d be 20 e3 2e be 53 3a 80 bd 02 b9 b7 be
       -0.27698755 -0.17078829 -0.062611245 -0.35883337
0001f0 f0 45 92 bd d4 c3 d8 3d c8 59 a0 be 20 4c 88 3d
       -0.07142246 0.10584226 -0.31318498 0.06655145

att_dst f4 [1, 2, 64]
000000 be e1 1d be da 26 42 be 29 86 61 be 5d cd be bd
       -0.15418145 -0.18960133 -0.22023834 -0.09316514
000010 3a 4d ad 3d 24 1b fd 3d 78 ba d7 3e 3a b9 52 bd
       0.084619954 0.12358692 0.42134452 -0.051446177
000020 9c e6 fc 3a ff c5 76 3e 5f 3e 82 3d 0d 37 ac 3e
       0.0019294801 0.24098967 0.063595526 0.3363575
000030 bf 11 1f be e4 f5 00 be e5 00 13 be 28 df 38 be
       -0.15534113 -0.125938 -0.1435581 -0.18053877
000040 14 00 04 be e8 e1 0f 3e af 42 b2 bc 36 3a 78 3e
       -0.12890655 0.1405102 -0.021760313 0.24240956
000050 9c 7a 0a be bf 62 6a 3e 9d c5 d1 bc 84 07 ab 3e
       -0.13523334 0.22889231 -0.025606925 0.3340417
000060 77 98 b3 3d d2 d4 c1 3e c6 98 3e 3e 98 bf 37 3e
       0.08769315 0.37857682 0.18612966 0.17944181
000070 4b fd 64 3d 8d ad 27 be b8 9b a6 be e7 f9 77 bd
       0.05590562 -0.16374798 -0.3254068 -0.06054106
000080 4e 98 59 3e 41 6b 60 3e 7b 26 1b be 04 a5 dc bd
       0.21249506 0.21915914 -0.15151398 -0.10773662
000090 74 88 26 3c 24 76 2e be 23 a4 a5 3e 82 c9 47 bd
       0.010164369 -0.17037255 0.3235179 -0.048776157
0000a0 cc 50 51 be 0c dc 92 3d b5 77 3d 3b 46 bf 27 be
       -0.20440978 0.07170877 0.0028910462 -0.16381559
0000b0 6e 5d ee bd 4d 1c dd 3d 2c 7f b3 3e 7e 4c 24 be
       -0.11638914 0.107964136 0.35057962 -0.16044804
0000c0 6b a1 1a be f6 8b c6 bd 69 0e 63 be a5 b1 82 3e
       -0.15100639 -0.09694664 -0.22173466 0.25526157
0000d0 ad a8 02 3e c9 b0 1b 3e 8f 8b 76 3e 51 76 25 be
       0.12759657 0.15204157 0.24076675 -0.16158415
0000e0 42 ba 9c 3e 35 a7 2b 3e 17 31 f3 3d b1 59 a9 be
       0.30610853 0.16763003 0.118745975 -0.33076242
0000f0 da 4f ff 3d 2a 1f bf bd 99 7c 97 be 2f d4 05 3e
       0.12466402 -0.09332116 -0.29587248 0.13069223
000100 aa 17 c1 bd 55 62 75 3d 10 1a 35 3e 57 7e ad 3e
       -0.09428342 0.05990823 0.17685723 0.33885452
000110 c0 c8 3f be d8 02 35 3e 3b ff a9 3d 6b b7 bc 3d
       -0.18728924 0.17676866 0.083006345 0.09214672
000120 94 8c 97 be db 92 9e bc 8a 14 b5 be 1c 44 94 be
       -0.2959944 -0.019357136 -0.35367233 -0.28958213
000130 5c 96 c5 3e aa 61 53 be 63 43 4f 3e 0b 86 9b bd
       0.38591278 -0.20642725 0.2024055 -0.07593926
000140 5c 4d 87 be 1d fc 87 3e 8f ed 1c be d6 a9 3b bd
       -0.26426208 0.26559535 -0.15324996 -0.045816265
000150 d0 fa 38 be aa 7b 86 3e 05 f9 02 be 3c 22 7c 3e
       -0.18064427 0.26266223 -0.12790306 0.24622434
000160 0d 82 e7 3c d2 fe d7 bd 78 0a 70 bc ae c9 67 bd
       0.028260255 -0.1054665 -0.014650933 -0.05658882
000170 00 a7 da 3d 5b 7e d9 be 12 b3 82 be 1b 9b f4 3d
       0.10676384 -0.42479214 -0.25527245 0.119436465
000180 1e 22 03 3d 1b dc b6 3e 22 b4 71 be 85 79 85 be
       0.03201496 0.35714802 -0.23603871 -0.26069275
000190 04 de d4 3e 2d 63 f1 3e 4c f6 b3 3e 40 13 81 be
       0.41575634 0.47145978 0.35148847 -0.2521
0001a0 f7 c1 75 3c b3 39 0a be 1f 80 75 3e df 90 a1 3e
       0.014999858 -0.13498573 0.23974656 0.3155584
0001b0 97 89 ed bd 90 cf 92 3e be 4e 8e 3e 5f f8 a0 3e
       -0.11598509 0.28673983 0.2779445 0.31439492
0001c0 c2 1e 1c 3f a4 63 9e be 54 28 92 be e0 32 78 3e
       0.6098443 -0.30935395 -0.28546393 0.24238157
0001d0 1d 8c ba 3e 41 5e 1a 3d 25 ea 8e be bd 07 60 3d
       0.36435023 0.037687544 -0.27913013 0.05469488
0001e0 74 db 56 3d 9e 2f 45 be 64 04 c8 be f2 e6 d2 bc
       0.05245538 -0.19256446 -0.3906585 -0.025744889
0001f0 2f 38 67 3e 38 80 ae be 4c 45 59 be 6a 00 64 3d
       0.22580026 -0.34082198 -0.21217841 0.055664457

bias f4 [128]
000000 53 a3 b5 3e 99 2b 76 bd 86 1f 76 bd 3f fc 75 bd
       0.3547617 -0.06010017 -0.060088657 -0.060055014
000010 3c fc 75 bd 45 fc 75 bd ba 6f cf bc f8 07 54 bd
       -0.060055003 -0.060055036 -0.02532183 -0.051765412
000020 60 55 60 bd 86 ca df bc bf 14 8a be b9 f1 7a bd
       -0.05476892 -0.02731825 -0.26968953 -0.06126568
000030 90 77 3b bc 40 fc 75 bd 94 95 d7 bd 70 b1 90 bd
       -0.01144208 -0.060055017 -0.10526577 -0.070650935
000040 fb 55 a2 bd ba ff 6c bd 33 8a d4 bc 8a 19 1b bd
       -0.07926556 -0.057861067 -0.025944805 -0.037866153
000050 94 37 4c bd e7 08 69 3e 43 fc 75 bd 06 f2 8a bd
       -0.04985769 0.22757302 -0.06005503 -0.067844436
000060 c1 e9 4e be 1d 97 76 bd 61 4b 4d bd f2 7f 79 bd
       -0.20206358 -0.060202707 -0.050120715 -0.060913034
000070 64 ab 97 be b0 41 4f bd 1a 7e ad bd c5 3b 70 bd
       -0.29622948 -0.050599754 -0.084713176 -0.05865075
000080 42 fc 75 bd 41 fc 75 bd 69 a7 55 bd 00 00 00 00
       -0.060055025 -0.06005502 -0.052161608 0.0
000090 7d f8 2e bd f0 11 0a 3e 95 3d 18 3e b4 3d 65 bd
       -0.042717446 0.13483405 0.14867242 -0.055967048
0000a0 14 fc 75 bd 6f 37 82 bd 13 25 91 bd 3f fc 75 bd
       -0.060054854 -0.06358229 -0.070871495 -0.060055014
0000b0 a7 26 48 bd e3 fb 75 bd 5d d3 13 bd 59 f1 32 bd
       -0.048864987 -0.06005467 -0.036090244 -0.0436872
0000c0 6d 43 50 bd 59 cf 24 be 08 82 6b bd 07 03 92 bd
       -0.050845552 -0.16094722 -0.057497054 -0.07129484
0000d0 8a 0c 3a bd b2 63 53 bd f8 0a 67 bd c8 d0 88 bd
       -0.045422114 -0.05160875 -0.056406945 -0.06680447
0000e0 08 31 4e 3e 36 fc 75 bd 7c 02 5b bd 3f fc 75 bd
       0.20135891 -0.06005498 -0.053469166 -0.060055014
0000f0 98 f6 a4 bd 3d fc 75 bd 6c 94 13 3e 34 fc 75 bd
       -0.080548465 -0.060055006 0.14412087 -0.060054973
000100 6d 00 60 bd f2 6f 73 bd 1e e2 5f bd c7 a6 5f bd
       -0.054687906 -0.05943293 -0.054659 -0.05460241
000110 7c 60 80 bd 9d 82 2f bd 89 c1 f0 3b 44 e0 03 bf
       -0.06268403 -0.042849172 0.00734729 -0.5151408
000120 99 92 3a bd 7b b7 12 3d 36 fc 75 bd 05 fc 75 bd
       -0.045549963 0.03581951 -0.06005498 -0.060054798
000130 0f 48 80 bd 59 33 19 bd 82 12 76 bd 28 0c c5 be
       -0.06263744 -0.037402485 -0.060076244 -0.38485837
000140 b0 64 73 bc dd 3f 37 bd ba e8 bf bc b4 7d 76 bd
       -0.014855549 -0.04473864 -0.023426402 -0.060178474
000150 6e f4 9a bd 62 c6 05 be 12 d4 7b bd e9 fb 75 bd
       -0.075661525 -0.13063958 -0.061481543 -0.060054693
000160 e1 af a2 bd f2 f5 41 bd f4 90 3b bd ed 54 0d bd
       -0.079437025 -0.047353692 -0.045792535 -0.03450482
000170 5c 0e 1a bc 31 3d 14 bd 07 58 a5 bd 07 4e 83 bd
       -0.009402838 -0.03619117 -0.080734305 -0.06411367
000180 83 51 80 be fe c3 81 bd fc 3d 81 bd 29 90 63 bd
       -0.25062189 -0.06336211 -0.06310651 -0.055557404
000190 22 fc 75 bd 16 fc 75 bd c1 4d 79 bd 95 01 c9 bc
       -0.060054906 -0.06005486 -0.060865168 -0.024536887
0001a0 d4 90 40 bd 14 7e 3b bd 65 dd 0e bd 16 63 70 3d
       -0.04701312 -0.045774534 -0.034879107 0.058688246
0001b0 03 27 2d bd 11 bb 3a bd 1b fc 75 bd 4b ba 63 bd
       -0.042273533 -0.045588557 -0.06005488 -0.055597585
0001c0 3f fa cd bd d6 3b 65 bd 38 fc 75 bd 32 fc 75 bd
       -0.10057496 -0.055965267 -0.060054988 -0.060054965
0001d0 89 2d 7a bd 45 95 db 3d d0 81 45 bd dd f2 3a bd
       -0.061078582 0.1072183 -0.048219502 -0.04564177
0001e0 fe 2f 5b bd bc f8 75 bd 00 00 00 00 0f a0 32 bd
       -0.053512566 -0.060051665 0.0 -0.043609675
0001f0 89 2f 86 bd 5e a5 0b bd a8 fe 0c be bf 21 78 bd
       -0.06552035 -0.034093253 -0.13769019 -0.060579058

weight f4 [128, 128]
000000 13 f8 99 3d 15 c1 80 bd 31 31 b4 3d 7a 57 a5 3d
       0.075180195 -0.062868275 0.08798445 0.080733255
000010 5a 67 83 3d 16 cf 1c be 70 9e fa be dc 2a 57 3e
       0.06416197 -0.15313372 -0.48949003 0.21012443
000020 4c 47 7e 3c 57 f5 ba bd a5 45 de bd bd 93 f8 3d
       0.015519928 -0.09128826 -0.108531274 0.12137554
000030 94 1b f8 3d fa 21 00 3d 98 66 b8 bd 12 e1 fe bd
       0.12114635 0.031282403 -0.09003943 -0.124452725
000040 af 66 8b 3e 23 7c d9 bb 4f 1a 19 be de 2b 10 be
       0.2722678 -0.0066371127 -0.14951442 -0.14079234
000050 0f 41 14 be 48 c8 e5 bd 92 37 e5 3d 9d 1f 42 be
       -0.14477943 -0.11219841 0.1119224 -0.18957372
000060 78 88 8a be 70 cf 9a 3d 6c 4a bd bd 23 37 78 3e
       -0.27057242 0.07559097 -0.092427105 0.24239783
000070 52 e8 1b be 9f a8 86 be 15 b4 8b be c5 b1 1e 3d
       -0.15225342 -0.26300523 -0.2728583 0.038743753
000080 3d 90 c0 3c 66 0f 48 be b5 21 e0 be 7a 1f 6f 3d
       0.023506278 -0.19537124 -0.43775716 0.058379628
000090 83 56 5c be dc 81 8c 3e 81 d5 0e bd d0 d5 fe bd
       -0.21517377 0.27442825 -0.034871582 -0.12443125
0000a0 24 5c c6 bc ec c2 3e 3e c7 bf 26 bd fa 0f 62 bc
       -0.024213858 0.18629044 -0.040710237 -0.013797754
0000b0 f3 4f a0 3e f5 1d b5 bd a4 3e 99 be 38 5c ab 3b
       0.31310996 -0.088436045 -0.29930604 0.005229499
0000c0 f6 22 59 3c d7 ec 90 bd bb d6 e0 bd b0 2a 21 be
       0.013252964 -0.070764236 -0.109784566 -0.1573894
0000d0 20 c6 70 3d de 75 8b 3c fb bf 03 bd da cd b7 bd
       0.058782697 0.017023977 -0.03216551 -0.0897481
0000e0 26 ad a0 bc 62 00 02 bd f8 3d c7 3c 7e 41 24 bd
       -0.019613814 -0.031738646 0.024321541 -0.04010152
0000f0 a8 64 79 3d 82 c9 28 bd 86 cd 1a 3e 3f 66 17 3e
       0.06088701 -0.041207798 0.15117463 0.14785098
000100 eb a5 2e 3e 1f 2e 16 3d f7 47 15 be 71 3b e6 bd
       0.1705548 0.03666508 -0.14578234 -0.11241806
000110 0f 3e b5 3d 1b 88 89 3e f4 9a 4a bc 09 8c 4d 3d
       0.08849727 0.26861653 -0.012366045 0.050182376
000120 30 fe 49 3e 59 7e 89 bd 27 ad cd 3d 0b 1b 81 bd
       0.19725871 -0.06713552 0.10042792 -0.06303986
000130 68 5e 61 3c 43 c6 22 be ff 10 02 be d9 0f 61 be
       0.013755418 -0.15895943 -0.12701796 -0.21978702
000140 bd 22 96 3e 74 d8 34 be 49 8f 50 bd 63 f7 29 3e
       0.29323378 -0.17660695 -0.050917897 0.16598277
000150 b1 03 44 3d c8 bf c0 be 15 99 0a 3e 85 4c 8c 3d
       0.047855083 -0.37646317 0.13534959 0.068505324
000160 ed 36 f7 3e cc 23 9c 3d 41 bc 90 3d 05 43 16 3d
       0.48284093 0.07624015 0.070671566 0.03668501
000170 c0 ef eb bd b0 b7 08 3e 75 f1 0b be f4 49 fd bc
       -0.11520338 0.13351321 -0.13666327 -0.030919053
000180 fa cd 81 3e a5 59 42 3e 37 e3 82 be f5 2b d9 bc
       0.2535246 0.18979509 -0.25563976 -0.026510218
000190 3d b8 16 bd 18 c5 42 bd 0c f9 38 3c ff b2 94 3d
       -0.036796797 -0.047551244 0.011289846 0.07260703
0001a0 36 9c a0 bd 6d f4 03 be 5e 3c 06 3e 08 21 aa be
       -0.07842295 -0.1288621 0.13108966 -0.33228326
0001b0 1a 10 34 be c6 04 f1 3c a9 f6 ea bd 53 d8 c3 3d
       -0.17584267 0.029421221 -0.11472828 0.09562745
0001c0 c6 cb 87 bc 9a 0e 8d bd b8 67 2f be 88 4d 9b 3e
       -0.016576659 -0.06887551 -0.1712941 0.3033259
0001d0 07 b6 12 3d 69 ef 5e bb 16 a4 09 3e a4 ab 68 3d
       0.035818126 -0.0034017211 0.134415 0.056804314
0001e0 3e 4e 72 bd f8 2e 58 3e 05 3c eb bd c1 40 92 3c
       -0.05915665 0.21111667 -0.11486057 0.017853143
0001f0 0b b7 8a 3d d0 06 95 bd ea 50 7a 3d 40 e7 7a bd
       0.06773194 -0.0727669 0.061112322 -0.061255693
000200 b0 2b 76 3d eb 5f 9d 3d 57 0b 1c be 37 f9 de ba
       0.060100257 0.076843105 -0.15238701 -0.0017011528
000210 d1 f8 c9 bd 5d c8 d6 bc d0 c4 3f 3d 2d 3f 02 be
       -0.09861911 -0.026218588 0.046818554 -0.12719412
000220 f9 6e 32 3d fe ef 89 3d 86 56 a1 bd 6f b4 1b bd
       0.043562863 0.06735228 -0.07877831 -0.03801387
000230 7e 98 e4 bd 83 e4 c5 bd 09 7e a0 bd ea 21 23 3c
       -0.11161898 -0.09662726 -0.07836539 0.009956816
000240 2c 39 4b 39 de 51 94 3d a8 7d 1c 3e 3e b9 ed bc
       0.00019380887 0.072421774 0.15282309 -0.029018994
000250 97 cd 3b bd ee 55 b2 bd fb 6b f5 bd e9 f4 4a be
       -0.045850363 -0.08707796 -0.11983486 -0.19819988
000260 a5 2d d0 bd d3 66 30 bd f2 3f 63 bd 77 9b 25 be
       -0.10164956 -0.04306681 -0.055480905 -0.16172586
000270 ab f6 68 bd 45 d0 b5 bd f1 5c 08 be fc 3b 99 3d
       -0.056875866 -0.08877615 -0.13316704 0.07482144
000280 19 99 9d 3d ba 00 bd bb 62 1b b1 bd 21 16 b0 3c
       0.07695217 -0.005767909 -0.08647801 0.021494927
000290 0e d6 83 3d 1f 66 68 3e 62 12 19 3e 45 36 32 bd
       0.06437312 0.22695206 0.14948419 -0.043508787
0002a0 d9 86 ed bd 94 66 1d 3c c1 bf 9e 3d 07 f1 06 be
       -0.11597986 0.009606976 0.07751418 -0.13177882
0002b0 b1 15 51 bd 22 2f 2d be c1 c1 a3 3d 55 84 81 bc
       -0.051046077 -0.16912511 0.0799594 -0.015810171
0002c0 28 65 c2 3d 37 b4 ac bd be 3d 3b 3b f3 52 35 be
       0.0949195 -0.08432811 0.0028570737 -0.17707424
0002d0 39 6a b5 3d 2c 5d d6 bc ee 41 13 be 2f 9e c4 bd
       0.08858151 -0.026167475 -0.14380619 -0.096004836
0002e0 56 0c 64 bd e4 43 52 ba a6 7f b9 3d 94 e9 6d 3d
       -0.055675827 -0.0008020981 0.0905755 0.058084086
0002f0 c8 ee 25 bc 4a f1 5e 3d c5 76 8b bd 38 b4 df bc
       -0.010127731 0.05442933 -0.06809763 -0.027307615
000300 e6 8e 82 bc fa 3b 64 bd 4c 28 44 be b1 6b a5 3d
       -0.01593728 -0.05572126 -0.19155997 0.08077181
000310 5c 3c 62 3d 26 fe 6a bd 74 90 13 bd 91 75 a9 3d
       0.055233344 -0.05737128 -0.036026433 0.08274377
000320 c5 ad fd bd d2 a2 d6 3d 3c 67 74 3d 01 20 cc bd
       -0.123866595 0.10480274 0.059668764 -0.09967042
000330 61 f6 5a bd 5b ba 4c be 06 48 d2 3d ad 5b 14 be
       -0.05345762 -0.19992964 0.10267644 -0.14488097
000340 7b 8d 21 be b0 f5 b0 bd 11 a7 1b 3d dc ea 19 be
       -0.15776627 -0.08640611 0.038001124 -0.15030998
000350 62 e1 2d 3d c4 4f 4a 3e 90 17 a6 3d 90 1c 88 3d
       0.04245127 0.1975699 0.08109963 0.06646073
000360 b1 dc dd bc de 5d 0b be 12 b9 4b 3d 48 25 4e 3d
       -0.027082773 -0.13610026 0.049737044 0.050328523
000370 66 a1 09 bd 50 fd 32 bd 4e 43 65 3d 7f 5f 3d 3d
       -0.033601187 -0.04369861 0.05597239 0.04623365
000380 79 00 58 bd 03 ed 11 be 2b 31 ad 3c 6c 9b 86 39
       -0.052734826 -0.14250569 0.02114161 0.0002567427
000390 54 d9 f3 bd eb 8c 95 3d 29 3f 15 be 79 0f dd bd
       -0.119066864 0.073022686 -0.14574875 -0.10793967
0003a0 8e b7 a1 3d 89 ed 3c bd 1b 47 91 bd 8d 00 ab bd
       0.078963384 -0.04612497 -0.070936404 -0.083497144
0003b0 0c 9a a1 bd ba 0a 58 bd 26 5c db bd 3d 34 92 3d
       -0.0789071 -0.052744605 -0.10710935 0.0713887
0003c0 37 8c 5b bd a5 10 cd 3c f4 51 8d bd 7e d2 4d be
       -0.053600516 0.02503235 -0.06900397 -0.20099828
0003d0 85 b0 e4 3c 22 17 66 bc ff d4 b1 3d b3 c9 74 3d
       0.027916202 -0.014043601 0.08683204 0.059762668
0003e0 9c 10 98 3c 6e 0f 4e bc a5 3c 70 3b fc 21 4c 3b
       0.018562607 -0.012576921 0.003665724 0.0031148186
0003f0 33 63 35 be 86 ee ba 3d 05 94 13 3d 78 0c 09 3e
       -0.17713623 0.09127526 0.036029834 0.13383663

att_src f4 [1, 2, 64]
000000 38 3f c1 be 22 b9 ab bb 2e c0 b8 bd 4e 83 cc bc
       -0.37743545 -0.0052405754 -0.0902103 -0.024964955
000010 f2 ff 05 bc ba 74 e0 bd 19 d7 32 be 06 fb 8d bd
       -0.008178698 -0.10959764 -0.17464866 -0.069326445
000020 08 35 dc 3d 5a ed df 3e 7c 92 8d be ff d4 5d be
       0.107523024 0.43735772 -0.2765082 -0.21663283
000030 d6 2e 76 be 2e 6e d3 3c 20 02 8f 3d d3 25 76 be
       -0.24041304 0.025809374 0.06982827 -0.24037866
000040 63 f5 6e bd 6a 7a 2f be 78 08 49 3e 82 c5 bc 3d
       -0.058339488 -0.17136541 0.19632137 0.09217359
000050 48 af 73 3e b1 41 40 be 0b 3d 22 bd 9c 78 5c 3d
       0.23797333 -0.1877506 -0.039608996 0.05382596
000060 0e 42 22 3b 08 c8 a1 3c c4 42 1f bd ab b8 8d be
       0.002475861 0.019748703 -0.038882032 -0.27679953
000070 99 f3 12 be 35 d0 76 3e ad 90 2e be 60 5b 06 bf
       -0.14350738 0.24102862 -0.17047377 -0.5248318
000080 0b ef 36 be 68 9a 1e bd bb f0 29 3c c2 0b d9 be
       -0.17864625 -0.038721472 0.010372336 -0.42391783
000090 d9 ba 2a bd 52 cc a8 3e 67 49 ff ba 89 d7 b0 bb
       -0.041682098 0.32968384 -0.0019476832 -0.0053967875
0000a0 a6 e3 13 be 90 b4 05 be f8 7e 49 bc c1 bf 92 3d
       -0.1444231 -0.1305716 -0.012298338 0.071654804
0000b0 8a 60 fa bb bd f4 ad 3c 9b 4f 24 bc db f5 05 be
       -0.007640903 0.021234864 -0.010028745 -0.13082068
0000c0 e0 76 32 3e 06 0e 3a be c5 0d 31 be f1 5b a6 bd
       0.1742816 -0.18169412 -0.17290409 -0.08123005
0000d0 15 3e 25 be 3a c3 9e 3d db a0 7c 3d 07 07 56 3e
       -0.16136964 0.0775208 0.06167684 0.20901118
0000e0 59 87 ae bc 13 ea 25 bd ed 43 2d bd 8e d5 e8 be
       -0.021304773 -0.040506434 -0.042301107 -0.4547543
0000f0 76 31 10 3c d4 dd 0a be ef 84 62 3e be 2a c0 bd
       0.008800855 -0.13561183 0.22121023 -0.093831524
000100 45 57 53 3b 3f 4a f7 3b 93 a6 2d bc eb b8 c1 3c
       0.0032248062 0.0075466926 -0.010598796 0.023647746
000110 40 a4 7d 3d 93 5e 79 3b b4 ae 59 3c 10 51 58 3e
       0.06192422 0.0038050755 0.013286281 0.21124673
000120 ac 59 1f 3c 19 11 ed 3d 1e 60 26 bb 5a 99 ba 3d
       0.009725969 0.11575527 -0.002538688 0.09111281
000130 48 55 5d 3e c9 02 9b bd c4 1a 00 3c d4 14 0f bc
       0.21614563 -0.075688906 0.007818881 -0.008732993
000140 7d 07 82 3c 7f 3e 81 3d 3b d9 83 be 4f a2 97 bc
       0.015872711 0.06310748 -0.2575167 -0.018510012
000150 f1 66 f5 3d a6 b0 1b bb 22 63 52 3e e2 be 1e 3e
       0.11982525 -0.0023756414 0.20545629 0.15502504
000160 5e ec dc 3e 21 b8 44 3d 95 b3 51 be 59 9a a6 be
       0.43149084 0.04802716 -0.20478661 -0.32539633
000170 b1 e0 9f 38 cf 58 77 bb d6 68 a5 3b d3 71 ac 3b
       7.623563e-05 -0.0037742143 0.005047898 0.0052625923
000180 fa 00 bf 3b b8 b5 cc bd 68 bd 3f 3c 09 76 e9 bd
       0.005828974 -0.099955976 0.011702873 -0.113994665
000190 14 01 50 bd 9d f8 12 be 16 1f 32 bc 4d a5 dc ba
       -0.05078228 -0.14352651 -0.010871669 -0.0016833931
0001a0 32 32 59 3d 48 5f 41 be a8 64 72 3b a2 ec 93 be
       0.053026386 -0.18884003 0.0036986265 -0.28891474
0001b0 e4 62 07 3c 7a 31 83 be fc ff 98 3d ec 97 6f be
       0.008263323 -0.25623685 0.074707 -0.23397797
0001c0 ec 5e 9f 3d 65 9e f0 bb 65 61 e3 bd 2d 3c 43 3e
       0.07781777 -0.007343101 -0.11102561 0.19065924
0001d0 fe 76 2b 3c 65 dc 2c bd 28 44 d7 be 02 c3 78 bb
       0.010465382 -0.042202372 -0.42044187 -0.003795803
0001e0 2a 35 9e 3d d5 f3 85 3e b7 40 43 be 02 de f7 3c
       0.07724984 0.26162592 -0.19067656 0.030257229
0001f0 56 55 2b be 85 d8 36 bc 6c f8 4e 3e 9a fe 52 3e
       -0.16731772 -0.011160021 0.20211953 0.20604935

att_dst f4 [1, 2, 64]
000000 03 51 5d be c3 72 92 be db 1f e6 3d c7 57 21 3d
       -0.21612935 -0.2860318 0.11236545 0.03939035
000010 b6 07 35 be 9a d5 06 3f 39 31 a0 3e 8f a0 22 3e
       -0.17678723 0.5266968 0.31287554 0.1588156
000020 2d ab f3 bd 2a 0d 3a bc 93 4f 00 3e 01 56 73 3e
       -0.118978836 -0.011355678 0.12530355 0.23763277
000030 33 21 17 3d 7d 35 1d 3e 66 3d 21 3e 05 a7 d4 3e
       0.036896896 0.15352435 0.15746078 0.41533676
000040 70 a3 68 bf 48 96 a2 3d 15 12 36 39 f9 86 23 3d
       -0.90874386 0.0793882 0.00017363609 0.03992364
000050 ca a9 3f 3d 9f 1d c8 3e 72 ca 4a 3e f0 da 8a 3d
       0.046792783 0.390851 0.1980379 0.0678004
000060 5b b8 f4 3d 2e e7 73 3d 9d 8e e2 3d 7b a5 31 3f
       0.119492255 0.059546642 0.110623576 0.6939313
000070 bd 2a 78 3e 28 28 35 bf fd 6d 10 3e 0c 32 94 3e
       0.24235053 -0.707644 0.14104457 0.28944433
000080 3b 9d ed 3e ea 70 4c 3e 41 c2 28 3f 02 49 df 3b
       0.4640902 0.19964948 0.6592141 0.006814123
000090 4b 44 c0 be ff 20 f7 be 18 92 4c 3e e0 61 ec 3d
       -0.37552103 -0.48267362 0.19977605 0.11542106
0000a0 ff 95 aa 3d 33 e0 6a 3e e9 6e 1d 3f 24 3e c0 3e
       0.08329391 0.22937088 0.6149736 0.3754741
0000b0 d1 25 3d 3d cc e0 35 3f 6f 86 11 3e 1d 59 59 3b
       0.046178643 0.7104614 0.14211439 0.0033164688
0000c0 2f 5b ee 3d eb a7 b9 3c 84 90 46 3e e2 ca 89 3e
       0.11638486 0.022663077 0.19391066 0.269126
0000d0 5f cc 9a 3e b5 de 9a 3e 02 25 d9 bd a2 f5 f2 bd
       0.30234048 0.30248037 -0.10602762 -0.11863257
0000e0 a0 dc 92 be 73 7c 28 3f 31 2b 90 3e ff 2c a3 3e
       -0.2868395 0.65814894 0.28157952 0.31870267
0000f0 dc 25 d8 3d d5 97 05 3e e2 d3 9d be fd 89 f2 3d
       0.10554096 0.130462 -0.30825716 0.118427254
000100 e2 39 90 be 21 45 c2 bd 36 6f 80 3e ef 5d 86 be
       -0.2816916 -0.094858415 0.25084847 -0.2624354
000110 a0 8a 76 bd 5c 6a 0b bd 6f 02 2a 3f 3b d4 a3 bc
       -0.060190797 -0.03403698 0.66409963 -0.01999866
000120 76 cb fc 3d 58 5d cb 3c 48 15 26 bd 58 97 56 3b
       0.123434946 0.024824783 -0.04054764 0.0032744016
000130 8a d5 a2 be 7e 1c 38 bd e8 26 fa be 6a 68 f6 3d
       -0.31803542 -0.044949047 -0.48857808 0.12031634
000140 2e e0 a4 bd d4 9e 65 3f f4 0e b4 3e 6c 31 5c 3d
       -0.080505714 0.8969548 0.35167658 0.05375807
000150 35 1c 43 bd 76 8f c6 bb 02 94 e6 be 5c 18 3f be
       -0.047634322 -0.0060595823 -0.45034796 -0.18661636
000160 c2 85 11 be dd 5f a5 be 4f a9 2e be f8 8b 7d 3e
       -0.14211181 -0.322997 -0.17056774 0.24760425
000170 80 47 cd bc 26 00 50 bd 8e 4e a7 be aa 1b 1c 3c
       -0.025058508 -0.05078139 -0.3267712 0.00952808
000180 51 88 c9 bc 13 d2 78 be 83 7b 82 be 50 a1 23 3d
       -0.024601134 -0.24298887 -0.25484857 0.03994876
000190 a8 f0 c7 be 3a 76 d2 bd 92 5b 0d 3e 12 59 0b 3d
       -0.39050794 -0.10276456 0.13804463 0.03402049
0001a0 0c cd 46 3f 9a d8 8e be e1 22 30 3f 69 44 1f bd
       0.77656627 -0.2789963 0.6880322 -0.0388836
0001b0 74 9e a3 3d 9a 52 2b 3e 41 9b 56 3e 92 0d fb bb
       0.07989207 0.16730729 0.20957662 -0.00766153
0001c0 a1 26 92 bd b2 64 1e 3d 09 92 c4 be 18 25 95 3d
       -0.07136274 0.03867025 -0.38392666 0.07282466
0001d0 87 41 88 be b0 03 94 be 8c 25 10 be 9f c0 2d 3e
       -0.26612493 -0.28909063 -0.14076823 0.1696801
0001e0 eb ad 35 3f 2b 1e 87 be 6c 3b bd bc 2a 45 64 be
       0.709685 -0.26390204 -0.023099624 -0.22292009
0001f0 5b 08 18 3f af 6b 61 be d1 80 4d be 1c d0 26 be
       0.5938775 -0.22013734 -0.20068671 -0.16290325

bias f4 [128]
000000 af 6f 5a bd b6 77 4f bd a7 be 34 be 57 0c 52 bd
       -0.053329166 -0.050651275 -0.17650853 -0.0512813
000010 1d f2 90 bd 6f 1d 7c bd 96 81 be bd 17 43 96 bd
       -0.070774294 -0.061551508 -0.0930206 -0.07337015
000020 a8 a2 0f be 2f 46 c3 bc 18 af 37 3d 47 4d 0c bd
       -0.14026892 -0.023837177 0.044844717 -0.034253385
000030 55 74 05 3d df 5a 50 bd f6 aa 81 bd cf 52 d8 bd
       0.032581646 -0.05086791 -0.06331436 -0.105626695
000040 cf be 86 3d cb d5 9d bd 3c 0d 92 be 03 1f 42 bd
       0.065793626 -0.077067934 -0.28525722 -0.047392856
000050 1e e2 05 bd 6f 33 7f bc e4 77 fe bc e3 ee 55 bd
       -0.032686345 -0.015576228 -0.031063028 -0.052229773
000060 ca 67 28 be 0f 9f ca bd 37 d8 91 bc a6 ad c7 bc
       -0.16445842 -0.09893619 -0.017803295 -0.024374794
000070 12 fc 7d bd 79 22 9d bd 6b 66 64 bd 96 45 74 be
       -0.06200797 -0.07672591 -0.055761736 -0.2385467
000080 c8 73 7a bd db 55 84 bd 9c f6 76 bd 24 c4 3f be
       -0.061145574 -0.06461688 -0.06029378 -0.18727165
000090 ec 16 76 bd 41 c9 af 3c cf 8b f9 3d 27 6a 22 bd
       -0.060080454 0.02145827 0.121848695 -0.039652016
0000a0 b8 31 db 3d cf de b2 bd 61 5e 92 bd 70 44 7c bd
       0.107028425 -0.087339036 -0.071469076 -0.061588705
0000b0 a4 75 8e bd fc 3c 39 bd ae de d2 bc 60 a6 4c bd
       -0.06956032 -0.045224175 -0.025740948 -0.049963355
0000c0 9d 4c 05 bd 73 98 13 bd 0b 00 76 bd b4 d0 c2 bd
       -0.032543767 -0.03603406 -0.060058635 -0.09512463
0000d0 1b c7 78 bd eb 31 92 bd a6 2d d3 bd b9 36 3a be
       -0.060736757 -0.07138427 -0.10311441 -0.18184938
0000e0 6f c3 7b bd 0a 06 89 bd 1c 41 78 bd 4e aa 03 bf
       -0.061465677 -0.06690605 -0.06060897 -0.5143174
0000f0 29 74 0c be dd d6 69 bd ba 95 73 be 03 c0 a0 bd
       -0.13716187 -0.057089675 -0.23787585 -0.07849123
000100 86 08 76 bd 10 06 91 bd 13 80 72 bd 8b 4d 76 bd
       -0.060066722 -0.070812345 -0.059204172 -0.060132544
000110 95 32 a4 bd 5b 86 96 bd 0f fb 26 3e 7c 4e 79 bd
       -0.0801746 -0.07349845 0.16306709 -0.060865864
000120 4a 10 5f bd 12 dd 80 bd b4 03 76 bd c5 aa 88 bc
       -0.054458894 -0.06292166 -0.060062125 -0.016682992
000130 e4 2e b0 be 3c eb 76 bd 21 a0 c6 bd 98 fc 77 bd
       -0.34410775 -0.06028293 -0.09698511 -0.060543627
000140 87 14 a7 bc 49 93 b7 3d 82 ec 97 3a ee 1c ca bd
       -0.02039553 0.08963639 0.001159087 -0.09868799
000150 a8 c8 a2 bc 5c 09 77 bd 80 fc 75 bd 89 4a a1 bc
       -0.019871071 -0.06031166 -0.060055256 -0.019688861
000160 f9 49 9b bd de 91 be ba 46 0b 8b bd 6a 67 0d 3e
       -0.075824685 -0.0014539321 -0.067892596 0.1380898
000170 b9 87 c1 bd 8e 2c 76 bd 94 9c 77 bd 7c 8b 82 bd
       -0.09449715 -0.060101084 -0.06045206 -0.06374261
000180 bf 93 9d bd 59 b9 38 bd 9a c8 3a bd e4 57 85 3e
       -0.07694196 -0.045098636 -0.045601465 0.26043618
000190 b7 15 9b bd 52 eb 81 bd de c3 b8 3c 51 f1 45 bd
       -0.07572501 -0.06343712 0.022554334 -0.04832584
0001a0 21 0f 55 bd c7 00 76 bd d2 8c 6c bd 08 3b 85 3e
       -0.05201638 -0.060059335 -0.057751484 0.260216
0001b0 38 79 69 bd 1c 00 76 bd 38 1f 84 bd bc 6b 76 bd
       -0.05700037 -0.060058698 -0.06451267 -0.060161337
0001c0 35 ae 6e bd 5d 36 81 bd 08 5b b8 bd 5f 27 ff 3b
       -0.058271606 -0.06309197 -0.09001738 0.007786676
0001d0 3a 4d 1d bd 89 b0 23 be cb ee 0c be 1a a0 26 bd
       -0.038403727 -0.15985312 -0.13762967 -0.04068003
0001e0 74 3f 91 bd 3b a8 90 bd 4d 3d 79 bd 1c b3 9d bd
       -0.07092181 -0.070633374 -0.060849477 -0.07700178
0001f0 ac a4 90 bd 35 c7 1d be 22 65 a5 bd 02 6e 5c bd
       -0.07062659 -0.15408023 -0.0807593 -0.05381585
