Models/z52i50s1_best_model.pth (torch, 153894 bytes, 31 tensors)

gnn.convs.0.att f4 [1, 1, 64]
0	0xbefb5db1	-0.49094918
1	0xbd534fcb	-0.05158977
2	0xbe27ae2b	-0.16375034
3	0x3d95026a	0.07275851
4	0x3ef6e6a5	0.48222843
5	0x3f56224d	0.8364609
6	0xbe68aa12	-0.22721127
7	0xbef560d4	-0.47925436
8	0x3edc0050	0.42968988
9	0x3dda3fbc	0.106566876
10	0x3f262ce4	0.6491225
11	0x3f2352f4	0.6379845
12	0x3f9f7ea1	1.2460519
13	0x3f2fb131	0.6862975
14	0xbf1be2f5	-0.60893184
15	0xbee125bc	-0.43974102
16	0xbe358db8	-0.17729843
17	0x3eea2b5c	0.45736206
18	0x3c08a17e	0.008339284
19	0x3f748254	0.95511365
20	0x3f76f199	0.964624
21	0x3f6a362b	0.91488904
22	0x3ef3d622	0.47624308
23	0x3c92906e	0.017891135
24	0xbef4e8ac	-0.47833765
25	0xbe80fcbc	-0.2519282
26	0x3d58146d	0.052753855
27	0xbf38ccd8	-0.72187567
28	0xbe8615d5	-0.26188532
29	0x3e93d191	0.28870824
30	0x3ee40530	0.44535208
31	0x3f4797ec	0.7796619
32	0x3ed4033f	0.41408727
33	0xbf1d8f71	-0.61547
34	0x3f283dde	0.657194
35	0xbe4d3d1a	-0.2004284
36	0xbe8f40c0	-0.27979088
37	0x3f95c9f9	1.1702262
38	0x3ee49d1e	0.4465112
39	0xbec4a7b5	-0.384092
40	0xbe8ce677	-0.2751958
41	0x3f936701	1.1515809
42	0x3e1605c9	0.14650644
43	0x3c96042c	0.018312536
44	0x3d2de74a	0.042456903
45	0x3f918bbd	1.137077
46	0x3e879c81	0.2648659
47	0x3eeb6dd6	0.45982236
48	0xbf6270ac	-0.88453174
49	0xbeb1e56a	-0.34745342
50	0x3f1e6c75	0.6188424
51	0xbd9f6c3a	-0.077843145
52	0x3c4e812c	0.012604039
53	0xbf45a47d	-0.77204114
54	0xbf142746	-0.57872427
55	0x3f66fd73	0.9023048
56	0xbf192528	-0.5982232
57	0x3fa84a3f	1.3147658
58	0x3ef87f8e	0.48534817
59	0x3ee65786	0.4498865
60	0xbedbd70a	-0.429375
61	0xbebde256	-0.37086743
62	0x3ebdd292	0.37074715
63	0xbed8fd5a	-0.42380792

gnn.convs.0.bias f4 [64]
0	0x3e6f390e	0.23361608
1	0x3d4359d1	0.047693077
2	0x3e091997	0.13388668
3	0xbd94be89	-0.07262904
4	0x3d9e99b7	0.077441625
5	0xbd00c5c4	-0.031438604
6	0xbd67fd9c	-0.056638345
7	0xbcd88a37	-0.026433093
8	0xbd919a3f	-0.07109498
9	0x3ddc5352	0.107580796
10	0xbcbcd937	-0.023052795
11	0x3d0941fb	0.03351019
12	0x3d3b78f7	0.045769658
13	0x3d03e0f5	0.032196958
14	0x3dbb3f45	0.09142927
15	0xbdb85325	-0.090002336
16	0xbd547b86	-0.051875614
17	0x3d909348	0.07059342
18	0x3cadf2d7	0.02123396
19	0x3ea4b70c	0.32170904
20	0xbb3c1ac3	-0.0028702475
21	0xbe1d57ce	-0.15365526
22	0x3d2d8fcb	0.04237346
23	0x3c7da4af	0.015481158
24	0x3e0bf214	0.13666564
25	0xbcb17482	-0.021662
26	0xbdecf60d	-0.11570368
27	0xbd8e1c8f	-0.06939041
28	0x3cf8c64b	0.030367991
29	0xbd6e0265	-0.058107752
30	0x3d65adbb	0.056073885
31	0xbda3c689	-0.07996852
32	0x3e0b4a0e	0.13602468
33	0xbc8bd402	-0.017068867
34	0xbdb0f267	-0.086399846
35	0x3e05b524	0.13057381
36	0xbd859b32	-0.06523742
37	0xbcc10f61	-0.023566904
38	0x3e8a8335	0.27053228
39	0xbcc2a718	-0.023761317
40	0xbcea5d11	-0.02860883
41	0x3ddd71ba	0.10812707
42	0xbdf1401a	-0.117798045
43	0x3c80a370	0.015702933
44	0x3c6b1d8c	0.014350306
45	0xbdfe923e	-0.12430237
46	0xbc843838	-0.016140088
47	0xbd2bea00	-0.041971207
48	0x3dc62a09	0.09675986
49	0xbc61a3d8	-0.013771974
50	0xbe960e44	-0.2930776
51	0x3ddb5a63	0.10710599
52	0xbe58a2eb	-0.21155898
53	0x3e1c0ace	0.15238497
54	0xbcddc2ec	-0.027070485
55	0x3dc1bf86	0.09460358
56	0xbe727fef	-0.23681615
57	0xbd292e51	-0.041303936
58	0x3e4d44a2	0.20045713
59	0xbd531cff	-0.051541325
60	0xbd92c69f	-0.0716679
61	0xbdd69cfd	-0.10479162
62	0xbe179403	-0.14802556
63	0xbe3f2f74	-0.18670446

gnn.convs.0.lin_l.weight f4 [64, 9]
0	0xbe970490	-0.29495668
1	0xbea6c3f8	-0.32571387
2	0x3dfcfce4	0.123529226
3	0x3f2f5af3	0.6849815
4	0x3eab8503	0.33499917
5	0xbf11077e	-0.5665206
6	0x3ea8487c	0.328678
7	0x3ee73196	0.4515502
8	0xbf5848af	-0.84485906
9	0xbe49a657	-0.1969236
10	0xbd99cade	-0.07509397
11	0xbdfc2091	-0.12310899
12	0x3f111aa5	0.5668128
13	0x3e4f7730	0.2026031
14	0xbd49bb27	-0.049250748
15	0xba2f8517	-0.0006695552
16	0x3d609fe2	0.054839976
17	0xbf58bad8	-0.846601
18	0x3e8882fa	0.26662427
19	0x3e049c30	0.12950206
20	0x3e6581d3	0.22412805
21	0xbe7abcae	-0.24486038
22	0xbe615947	-0.22006713
23	0xbd876b56	-0.066122696
24	0xbd99c950	-0.075091004
25	0xbe833aab	-0.25630698
26	0xbdf83e9c	-0.12121317
27	0xbe0cf608	-0.13765728
28	0x3e1602a0	0.14649439
29	0x3d40f0d1	0.04710466
30	0xbeaaf4d8	-0.33389926
31	0xbe0faa68	-0.14029849
32	0xbd999552	-0.07499184
33	0xbeb59e84	-0.354725
34	0x3cd6d796	0.026225846
35	0x3e2036e3	0.15645938
36	0xbed4f8d0	-0.4159608
37	0xbe07d583	-0.13265042
38	0x3e46bc2e	0.19407722
39	0xbedff05a	-0.4373806
40	0x3e81ea28	0.2537396
41	0xbccf6838	-0.02531825
42	0xbe53bf59	-0.20678462
43	0xbed5e408	-0.41775537
44	0xbe84ede1	-0.25962737
45	0xbe527eb4	-0.20556146
46	0x3d9606e5	0.07325534
47	0x3d1f1d21	0.03884614
48	0x3ed2f77d	0.41204444
49	0x3d4e4904	0.050362602
50	0xbe70c60b	-0.23513047
51	0x3e117a69	0.14206852
52	0xbe7c4c38	-0.2463845
53	0xbf548828	-0.8302026
54	0xbda1397c	-0.078722924
55	0xbdf38d62	-0.11892201
56	0xbdee3307	-0.116308264
57	0xbd7c22ba	-0.061556555
58	0x3c1c9671	0.009557352
59	0x3d89cbd1	0.06728328
60	0x3dab8041	0.08374072
61	0xbe950528	-0.29105496
62	0xbd3e2b11	-0.04642779
63	0x3eb41a08	0.3517611
64	0x3eb5f5d1	0.35539106
65	0x3e241a80	0.16025734
66	0xbee5d264	-0.44887078
67	0xbea719be	-0.32636827
68	0x3c8a8a0f	0.016911535
69	0x3b2ff8df	0.002685122
70	0xbe8cc6c7	-0.27495405
71	0x3f7e3df3	0.99313277
72	0x3e6f6bbf	0.23380946
73	0x3ee6e88b	0.4509929
74	0xbeac7bbf	-0.3368816
75	0xbd19118e	-0.037370257
76	0xbec109bc	-0.3770274
77	0x3ecc2f1e	0.39879698
78	0xbe9150f7	-0.28382084
79	0xbe49ecb8	-0.19719207
80	0x3f4972c5	0.7869075
81	0xbcb129d5	-0.021626392
82	0xbe7dcf94	-0.24786216
83	0xbd3ec99f	-0.046579
84	0xbc13d835	-0.009023716
85	0xbeac0246	-0.33595484
86	0xbe17e01f	-0.14831589
87	0x3cd2f593	0.025751865
88	0xbe9c985c	-0.3058499
89	0x3f2cc13a	0.6748234
90	0x3e866eaf	0.2625632
91	0x3e0a1b34	0.1348694
92	0xbe88dcde	-0.26731008
93	0xbe60dd14	-0.21959335
94	0x3ea6e18f	0.32593963
95	0x3dcb96c5	0.099408664
96	0x3b68c597	0.0035518163
97	0xbdd1e883	-0.10249426
98	0x3efeb173	0.49744758
99	0xbe34ce64	-0.17656857
100	0xbc822a27	-0.01588924
101	0xbe199791	-0.14999224
102	0x3ea47197	0.32117912
103	0xbd50a9b8	-0.050943106
104	0x3e815429	0.25259522
105	0x3e0ac2d3	0.13550882
106	0xbe2327b0	-0.15933108
107	0xbebdd45f	-0.3707609
108	0xbe67b3e9	-0.22627224
109	0xbd4935c3	-0.049123537
110	0x3a0e271a	0.00054226967
111	0xbf49f2b7	-0.7888598
112	0xbdb3895d	-0.08766434
113	0xbea3ad6d	-0.3196825
114	0x3ea2c14f	0.31788108
115	0xbde5be2e	-0.112179145
116	0xbf2244cc	-0.63386226
117	0x3cfa6ee8	0.030570462
118	0xbe22e1c2	-0.15906432
119	0x3e849e95	0.25902238
120	0xbcc120a7	-0.02357514
121	0xbd3be919	-0.045876596
122	0x3e65c26f	0.22437452
123	0xbc1c4c7e	-0.0095397215
124	0xbe94e933	-0.29084167
125	0x3f61cf33	0.88206786
126	0xbe41e528	-0.18935072
127	0x3d548f87	0.05189469
128	0x3e4fcc39	0.20292749
129	0x3d97ba57	0.074085884
130	0xbe0ae103	-0.13562398
131	0x3c666ac6	0.014063543
132	0x3d2e83df	0.04260623
133	0x3ce9fb67	0.02856226
134	0xbf24dd02	-0.6439973
135	0xbd731b3f	-0.059352156
136	0xbefb45d6	-0.49076718
137	0x3d2c681d	0.042091478
138	0x3eaf9a93	0.34297618
139	0x3e580e25	0.21099146
140	0xbf0a2094	-0.5395596
141	0x3dd2c36f	0.10291182
142	0xbdbcb455	-0.09214083
143	0xbee20a72	-0.44148594
144	0xbf0a414c	-0.54005885
145	0xbef34fd3	-0.4752184
146	0x3e3fbb77	0.18723856
147	0x3f608fab	0.8771922
148	0x3f0721cd	0.5278595
149	0xbe85bc14	-0.26120055
150	0xbbf3c80d	-0.0074396194
151	0x3e8a8a2f	0.2705855
152	0xbf80eec2	-1.0072863
153	0x3eb7dd6c	0.3591112
154	0x3f1fc133	0.62404174
155	0xbeacb4b5	-0.3373162
156	0xbe0cefc2	-0.13763335
157	0x3ccf5d7c	0.025313132
158	0x3ed85360	0.4225111
159	0x3e239235	0.15973742
160	0xbdd27f73	-0.10278215
161	0x3ef6087f	0.48053357
162	0xbe31df70	-0.17370391
163	0x3e9fe11f	0.3122644
164	0x3baa3c83	0.005195202
165	0xbe1ab449	-0.15107836
166	0xbed03805	-0.4066774
167	0x3d1b5971	0.037927095
168	0x3c1efe9b	0.009704257
169	0xbe2d88c8	-0.16946709
170	0x3e6e5c44	0.23277384
171	0xbe9f38dc	-0.31098068
172	0xbe13b0b1	-0.14422871
173	0x3d139a51	0.03603584
174	0x3f36e35c	0.7144067
175	0x3e9c1338	0.30483413
176	0xbe311b6e	-0.1729562
177	0xbd2cd568	-0.042195708
178	0x3f0ec588	0.5577016
179	0xbf507480	-0.81427765
180	0xbe3ec0e4	-0.1862827
181	0x3c141313	0.009037751
182	0xbd6abbfe	-0.05730819
183	0x3ebb0561	0.3652754
184	0x3eb452f8	0.3521955
185	0xbe4845b6	-0.19557843
186	0xbdffb8f8	-0.12486452
187	0x3e1bdf94	0.15222007
188	0x3d3ec811	0.046577517
189	0x3f0b1920	0.5433521
190	0x3f19430c	0.5986793
191	0xbdd94486	-0.10608773
192	0xbf618cf6	-0.88105714
193	0xbf100dce	-0.56271064
194	0x3ea013d7	0.31265137
195	0x3c3f9155	0.011692365
196	0xbe360b45	-0.17777736
197	0x3fb6c353	1.4278358
198	0x3ed4fced	0.41599217
199	0x3e48806c	0.19580239
200	0x3cc814c7	0.02442397
201	0xbf0e7377	-0.55644935
202	0xbea8b5e2	-0.32951266
203	0x3e4a1f29	0.19738449
204	0xbd678dfd	-0.056531895
205	0xbe908a14	-0.28230345
206	0x3f42186e	0.75818527
207	0xbb06bf1f	-0.0020560694
208	0x3e116bc9	0.14201273
209	0x3c0a3a97	0.0084368205
210	0x3e0b0998	0.13577878
211	0x3e96849f	0.29398057
212	0x3e36e4e6	0.17860755
213	0xbe6f44ed	-0.23366137
214	0x3d8a91b8	0.06766075
215	0xbef1eb80	-0.47249985
216	0xbe6783d2	-0.22608879
217	0xbe4aa7d2	-0.19790581
218	0xbb755540	-0.0037434846
219	0x3f1faa3b	0.62369126
220	0x3eb4718d	0.35242882
221	0xbe95e4dd	-0.2927617
222	0xbe040315	-0.128918
223	0x3e4ff883	0.20309643
224	0xbf6935e2	-0.91097844
225	0x3cac7bf6	0.021055203
226	0xbda717cf	-0.08158838
227	0xbe4e6cca	-0.20158687
228	0x3e1586ed	0.14602251
229	0xbe85ece8	-0.26157308
230	0xbe245253	-0.16047029
231	0x3e68a5e8	0.22719538
232	0x3df953e0	0.12174201
233	0xbec75e00	-0.38938904
234	0xbe02e6db	-0.12783377
235	0xbda2c777	-0.07948201
236	0xbd815274	-0.06314555
237	0xbe1e5915	-0.1546367
238	0xbe9ed9bb	-0.3102549
239	0x3e2a3a0c	0.16623706
240	0xbea61f64	-0.32445824
241	0x3d7108cd	0.058846284
242	0x3ecc55ae	0.39909118
243	0x3e949859	0.29022482
244	0x3da2ec75	0.07955257
245	0xbd36d8f6	-0.044640504
246	0xbea6eaf1	-0.3260112
247	0xbdf251fd	-0.11832044
248	0x3d023fdf	0.031799193
249	0xba75f289	-0.0009382149
250	0xbec45da9	-0.38352707
251	0x3f05fc45	0.5233806
252	0x3e4a60c8	0.19763482
253	0xbe07cf60	-0.13262701
254	0xbd5da2a5	-0.054110188
255	0xbd841ecc	-0.064511865

gnn.convs.0.lin_l.bias f4 [64]
0	0x3ee7763b	0.4520739
1	0xbe11dc75	-0.14244254
2	0x3e631836	0.22177204
3	0x3d51e553	0.05124409
4	0x3e84a042	0.25903517
5	0xbe4f0aa5	-0.20218904
6	0xbe64b459	-0.22334422
7	0xbe9c5aec	-0.30538118
8	0xbe79ad5a	-0.24382535
9	0x3e856fc7	0.26061842
10	0xbe204208	-0.15650189
11	0x3e85f42e	0.26162857
12	0xbe1859af	-0.14877962
13	0xbe5f60e9	-0.21814312
14	0xbe1bb1a8	-0.15204489
15	0x3e1af78f	0.15133499
16	0x3e72912e	0.23688194
17	0x3ea87d33	0.3290802
18	0x3e970cd7	0.29501984
19	0xbde832cc	-0.11337814
20	0xbdd1fc2d	-0.10253177
21	0xbde5e8ed	-0.11226068
22	0xbe20df2e	-0.15710136
23	0x3e737280	0.23774147
24	0x3ed1109c	0.40832984
25	0x3e33c67a	0.17556182
26	0x3d58f543	0.052968275
27	0xbe9891d8	-0.2979877
28	0xbdcb920b	-0.09939965
29	0xbe1693d1	-0.14704825
30	0x3e9c9f0f	0.30590102
31	0xbe584c4b	-0.21122853
32	0x3e47497c	0.19461626
33	0x3e0271db	0.12738745
34	0xbe09c175	-0.13452704
35	0x3ebabd62	0.36472613
36	0x3d6c6c1c	0.05772029
37	0x3e03e788	0.12881291
38	0x3e62851b	0.22121088
39	0x3e8fcf17	0.28087685
40	0x3e8540b9	0.26025942
41	0xbe0efd18	-0.13963735
42	0xbdca2573	-0.09870424
43	0x3cc84a57	0.02444951
44	0xbe88498f	-0.2661862
45	0xbe6ee53d	-0.23329635
46	0xbe3ceccb	-0.18449704
47	0x3c73efc5	0.0148887085
48	0xbea38e9d	-0.31944743
49	0x3e90e0cf	0.28296515
50	0xbeeae98b	-0.45881304
51	0xbe60e91e	-0.21963927
52	0x3d106788	0.035254985
53	0xbd948c97	-0.07253378
54	0x3e57e6ed	0.21084185
55	0xbd981d95	-0.07427517
56	0xbe1c5183	-0.15265469
57	0x3c075623	0.008260283
58	0x3dab33e5	0.083595075
59	0xbe39f76d	-0.18160792
60	0x3e16cb17	0.1472591
61	0xbe54298f	-0.20718978
62	0xbe428d6c	-0.1899926
63	0xbec7addd	-0.38999835

gnn.convs.0.lin_r.weight f4 [64, 9]
0	0x3e8a3b43	0.26998338
1	0x3e416780	0.18887138
2	0xbd807b1b	-0.062734805
3	0x3e65e849	0.22451891
4	0x3e475f59	0.19469966
5	0x3dea3036	0.11434977
6	0xbdd93b70	-0.1060704
7	0x3d907f2e	0.070555076
8	0xbe6550c4	-0.22394091
9	0x3d10779e	0.035270326
10	0xbd92e03c	-0.071716756
11	0x3e7476a6	0.23873386
12	0x3ddb3238	0.10702938
13	0x3c936bae	0.017995682
14	0xbe5478e5	-0.20749243
15	0xbe03264d	-0.1280758
16	0xbdc49adf	-0.09599852
17	0xbd049c6f	-0.03237575
18	0xbc984bd1	-0.01859084
19	0x3e91d5dd	0.28483477
20	0x3e35755e	0.17720553
21	0x3db39cd5	0.08770148
22	0x3e0bfbaf	0.13670228
23	0x3cfedf52	0.031112347
24	0x3e563d7a	0.20921889
25	0xbdab4784	-0.0836325
26	0x3e4a58ae	0.19760391
27	0xbe5671b2	-0.20941809
28	0x3e61fc25	0.22068842
29	0x3e688651	0.22707488
30	0xbda29f09	-0.0794049
31	0xbc80bd17	-0.015715165
32	0xbdba97c6	-0.0911098
33	0xbcb35d2b	-0.021895012
34	0xbe240724	-0.16018349
35	0x3df3313d	0.11874626
36	0xbe120434	-0.14259416
37	0x3bc62afa	0.0060476037
38	0xbc37e14f	-0.011223151
39	0x3d0953ad	0.033527065
40	0xbdf9c4d3	-0.12195744
41	0xbe21285a	-0.15738049
42	0x3e3edfc9	0.18640055
43	0xbe993cc6	-0.2992918
44	0x3ee6ee4a	0.45103675
45	0xbd3bcfba	-0.0458524
46	0x3f022091	0.5083094
47	0xbd9d4b6f	-0.076804034
48	0xbeaca4f6	-0.33719605
49	0x3e39b08e	0.18133757
50	0x3e31ad42	0.17351249
51	0xbe026fc6	-0.1273795
52	0x3d70efc3	0.058822405
53	0x3f9a3e47	1.2050256
54	0xbde3ed25	-0.11129216
55	0x3e130ab2	0.14359549
56	0xbe20ea77	-0.15714441
57	0xbdd09f76	-0.10186665
58	0xbdb90b04	-0.09035304
59	0xbe82f73e	-0.25579256
60	0xbe61ee9e	-0.22063681
61	0xbd9dbe67	-0.07702332
62	0x3de553bd	0.111976124
63	0xbd7df2a3	-0.061998975
64	0xbef7e780	-0.48418808
65	0xbcc395f8	-0.023875222
66	0x3f1a57d8	0.6029029
67	0xbd25a6c9	-0.04044226
68	0xbe9cc7b4	-0.3062111
69	0x3dbe7917	0.0930044
70	0xbe1d8711	-0.15383555
71	0x3f8170f6	1.0112598
72	0xbe21a505	-0.15785606
73	0x3cce1e0b	0.02516081
74	0xbded91c9	-0.11600072
75	0xbe8a7b25	-0.27047077
76	0xbe664360	-0.22486639
77	0xbe3f1c85	-0.18663223
78	0x3e419748	0.18905365
79	0xbe932c74	-0.28744853
80	0x3e143354	0.14472705
81	0xbb3c3937	-0.0028720626
82	0x3e3df5ab	0.18550746
83	0x3d689f18	0.05679235
84	0x3e894792	0.26812416
85	0xbe75f6fc	-0.24019998
86	0xbe5b45fd	-0.21413417
87	0xbd171a07	-0.036890056
88	0x3e5a8885	0.2134114
89	0xbe54f17b	-0.20795242
90	0xbc6d1ea9	-0.014472642
91	0xbf5c3a97	-0.860269
92	0x3e6ee07e	0.23327824
93	0x3ecd3470	0.4007907
94	0xbe307183	-0.17230801
95	0xbd82a1dc	-0.063785285
96	0xbc6dea68	-0.014521219
97	0xbe9c46a7	-0.30522653
98	0xbf40db71	-0.7533484
99	0x3e019eda	0.12658253
100	0x3eddbf0c	0.4330982
101	0x3e1b4b2a	0.15165392
102	0xbefd8936	-0.49518746
103	0xbcbf5e39	-0.023360359
104	0x3e054d71	0.13017823
105	0xbe707197	-0.23480831
106	0x3f02efe1	0.51147276
107	0x3f5a3280	0.85233307
108	0x3ea02605	0.31279007
109	0xbe0a25c4	-0.13490969
110	0x3da95e28	0.08269912
111	0x3f482823	0.78186244
112	0x3d1f8f93	0.038955282
113	0xbc54fe84	-0.013000134
114	0xbea6c78b	-0.32574114
115	0x3eba72cc	0.36415708
116	0x3f4d6fe0	0.8024883
117	0x3dc13956	0.09434764
118	0xbe7f07af	-0.24905275
119	0xbdc300e3	-0.095216535
120	0x3e6c5a68	0.23081362
121	0x3d97eb3e	0.07417916
122	0xbe3cc2f0	-0.18433738
123	0x3da17e51	0.07885421
124	0x3e051ab7	0.12998472
125	0x3e72645f	0.23671101
126	0xbed1b501	-0.40958408
127	0xbdbf41cd	-0.093387224
128	0x3d440189	0.047853027
129	0xbe21cd36	-0.15800938
130	0xbe57fdf0	-0.21092963
131	0x3e945cd9	0.28977087
132	0x3da3972f	0.0798782
133	0x3e4ae4b9	0.19813813
134	0xbf20bcf7	-0.6278834
135	0x3defa63f	0.11701631
136	0x3d48484d	0.048897076
137	0x3d35b6a1	0.04436362
138	0x3d11d34e	0.035601906
139	0xbd1e6f84	-0.03868057
140	0x3d997186	0.07492356
141	0x3d3e0d67	0.0463995
142	0xbdfe4128	-0.12414771
143	0xbd05ddb3	-0.032682132
144	0xbe0b88e2	-0.13626435
145	0xbf1c8dc8	-0.6115384
146	0x3cce508f	0.025184898
147	0x3e19c900	0.15018082
148	0x3e99d3e0	0.3004446
149	0xbf06c602	-0.52645886
150	0xbd31b2cf	-0.043383416
151	0xbd9d51f8	-0.0768165
152	0xbe8bb79b	-0.27288517
153	0xbd6c5d31	-0.05770606
154	0xbe72c6ca	-0.23708645
155	0x3e815efe	0.25267786
156	0xbdf2fa7b	-0.118641816
157	0xbe4090e7	-0.18805276
158	0x3ddcd373	0.10782518
159	0x3e00f43e	0.12593171
160	0x3e2ff55c	0.17183441
161	0x3d668094	0.056274965
162	0xbe0ef60a	-0.13961044
163	0xbe51dca8	-0.2049433
164	0xbe3780b7	-0.17920195
165	0x3cbcf6b2	0.023066852
166	0xbd9f233c	-0.07770392
167	0x3ddf068a	0.10889919
168	0xbe157b2a	-0.14597765
169	0x3cf75192	0.030190263
170	0xbdb8be70	-0.09020698
171	0x3dce4056	0.10070865
172	0x3e1cd612	0.15316036
173	0xbe0017af	-0.12509035
174	0xbf1e9389	-0.6194387
175	0xbde0964f	-0.10966169
176	0xbde92294	-0.113835484
177	0x3d6ebe0e	0.05828672
178	0xbe6809c8	-0.22659981
179	0x3f8e858a	1.1134503
180	0x3ea73c32	0.32663113
181	0x3f03b355	0.51445514
182	0xbee9aed6	-0.45641202
183	0xbf834788	-1.0256205
184	0xbc555975	-0.0130218165
185	0x3d925aee	0.0714625
186	0xbeb4f365	-0.35341945
187	0x3e9ce234	0.3064133
188	0x3e9f9cc6	0.31174296
189	0xbe5ae9fd	-0.21378322
190	0xbecfcce2	-0.40586
191	0x3e034635	0.1281975
192	0x3f440cfc	0.7658231
193	0x3e6d5649	0.23177446
194	0x3d80eaf8	0.06294817
195	0xbc495bfb	-0.012289996
196	0xbd903d3e	-0.07042931
197	0xbf907f70	-1.1288891
198	0x3eafbfc7	0.34326002
199	0x3e9d00e7	0.3066475
200	0xbebfd59b	-0.37467656
201	0xbdefc39e	-0.11707233
202	0xbc04e808	-0.008111961
203	0x3e9dc618	0.30815196
204	0x3df4c815	0.11952225
205	0x3bc60553	0.006043115
206	0xbf9636dc	-1.1735492
207	0xbe7dd0ad	-0.24786635
208	0x3e3ad1d8	0.18244112
209	0xbdc214a7	-0.09476595
210	0xbe348334	-0.17628175
211	0xbe2d201a	-0.16906777
212	0x3e0512cb	0.1299545
213	0x3dbd1e77	0.09234326
214	0xbe9958e1	-0.29950622
215	0xbeb1fe2a	-0.34764224
216	0xbe53e8d3	-0.20694284
217	0xbe545b40	-0.20737934
218	0x3d17b839	0.037040923
219	0x3ca8bc88	0.020597711
220	0x3e31835b	0.17335264
221	0xbe64cf9d	-0.22344823
222	0x3de42ce1	0.111413725
223	0xbea20db5	-0.31651083
224	0xbf587079	-0.8454662
225	0x3e6bea10	0.23038507
226	0xbd87b58a	-0.06626423
227	0xbe6543ab	-0.22389095
228	0xbe64bf56	-0.22338614
229	0x3e6efca0	0.23338556
230	0xbcf59b16	-0.029981177
231	0xbb431537	-0.0029767284
232	0xbd946258	-0.0724532
233	0xbc0f4df4	-0.008746613
234	0xbe8f8086	-0.28027743
235	0x3e4412de	0.19147822
236	0xbe57c823	-0.2107244
237	0x3c9498d0	0.018139273
238	0x3df0cc8f	0.117577665
239	0x3b7041a0	0.003666021
240	0x3e399225	0.18122156
241	0xbe1aa4a7	-0.15101872
242	0xbda2b1a7	-0.07944041
243	0x3dbe4225	0.0928996
244	0x3ec13919	0.37738875
245	0x3c95d4f4	0.01829002
246	0xbe1f92d5	-0.15583356
247	0xbe79e404	-0.24403387
248	0xbdacce60	-0.084378004
249	0x3a3d2365	0.0007215052
250	0x3ea381db	0.3193501
251	0x3f779b25	0.96721107
252	0x3ec76e8f	0.38951537
253	0x3adc6f8e	0.0016817914
254	0x3d0853fb	0.033283215
255	0x3dec2f82	0.11532499

gnn.convs.0.lin_r.bias f4 [64]
0	0x3e109883	0.14120679
1	0xb9ee7c4e	-0.00045487512
2	0x3ea8c1c0	0.3296032
3	0x3e7466c1	0.23867323
4	0x3eadd0b0	0.33948278
5	0xbe1d8119	-0.15381278
6	0xbdae05a9	-0.08497173
7	0xbe9b5c64	-0.30343926
8	0xbe988dd8	-0.29795718
9	0xbe54b085	-0.20770462
10	0xbe36f253	-0.17865877
11	0x3e3180f1	0.17334343
12	0x3e22bd9a	0.1589264
13	0xbe7c5fb1	-0.24645878
14	0xbe1c60f5	-0.15271361
15	0xbd1c3190	-0.038133204
16	0x3e3d5491	0.18489291
17	0xbdc45405	-0.09586338
18	0xbe9a8aa3	-0.30183896
19	0xbd972545	-0.073801555
20	0x3e23bd56	0.15990195
21	0xbdb8af2b	-0.09017786
22	0xbe7138c3	-0.23556809
23	0xbdc88101	-0.097902305
24	0x3d9d3977	0.07676976
25	0xbd4f465b	-0.050604206
26	0xbea64faa	-0.32482654
27	0xbde5a20b	-0.11212548
28	0x3dc1cbef	0.09462725
29	0x3e7e6e9c	0.24846882
30	0xbe3f78c1	-0.18698408
31	0xbd21c4bf	-0.039494272
32	0x3e09658a	0.1341764
33	0xbd481331	-0.048846427
34	0x3e6aa049	0.22912706
35	0x3d52c70c	0.051459357
36	0x3dd1b604	0.10239795
37	0xbcc5ff92	-0.024169717
38	0xbe697605	-0.22798927
39	0xbd130dc1	-0.03590179
40	0x3e90acac	0.28256738
41	0xbdd96b4d	-0.10616169
42	0xbe459559	-0.19295253
43	0xbe9efc21	-0.31051734
44	0xbe9ac1d1	-0.30225995
45	0xbe481e3b	-0.19542782
46	0x3e6cc68a	0.23122612
47	0x3dd065c9	0.10175664
48	0xbec20282	-0.37892538
49	0xbe83c88f	-0.25738952
50	0x3ecbb644	0.39787495
51	0x3e6d7853	0.23190431
52	0x3e364fe5	0.17803915
53	0x3d494221	0.04913533
54	0xbd6a0500	-0.057133675
55	0xbe809fa2	-0.2512179
56	0xbe823f0c	-0.25438726
57	0xbe23966b	-0.15975349
58	0xbd9e6976	-0.07734959
59	0x3ce47edc	0.027892523
60	0x3d0dd0e9	0.03462306
61	0xbe9c6cec	-0.3055185
62	0x3e53e7c0	0.20693874
63	0xbe0a24ad	-0.13490553

gnn.convs.1.att f4 [1, 1, 64]
0	0x3edc91e3	0.43080053
1	0xbf094b0d	-0.53630143
2	0x3f3a9e4c	0.7289779
3	0xbe9b1cb4	-0.30295336
4	0xbed36ae2	-0.41292483
5	0xbeca47b2	-0.39507824
6	0x3e8bd516	0.2731101
7	0xbec55f9e	-0.38549513
8	0xbf0bf0df	-0.54664415
9	0xbf202cc4	-0.62568307
10	0x3e04801b	0.12939493
11	0x3ddb800e	0.10717784
12	0xbe88ac13	-0.26693782
13	0x3ebf1c23	0.37326154
14	0xbec3b1d2	-0.38221604
15	0xbd9160fe	-0.07098578
16	0xbe5676bf	-0.20943736
17	0xbf0cc750	-0.54991627
18	0xbe963ec0	-0.2934475
19	0x3ea99adf	0.3312597
20	0xbdbfd68f	-0.09367096
21	0xbdae0671	-0.08497322
22	0x3f8b3286	1.0874794
23	0xbe40f94e	-0.18845102
24	0xbf1c3f39	-0.6103397
25	0xbebb181b	-0.3654183
26	0x3e7349fc	0.23758692
27	0xbe913bde	-0.28365988
28	0xbe9fb310	-0.311913
29	0xbebbb5d8	-0.36662173
30	0x3f3efdb7	0.7460589
31	0xbe6bbc9d	-0.23021169
32	0xbe7c0e3d	-0.24614806
33	0xbf05641f	-0.521059
34	0x3f19dac2	0.6009942
35	0x3f856ac4	1.0423207
36	0xbebba17b	-0.36646637
37	0x3f6a5302	0.9153291
38	0x3f3de935	0.7418397
39	0x3f155493	0.58332175
40	0x3f444596	0.7666868
41	0xbe40c9a1	-0.18826915
42	0x3f83b10f	1.0288409
43	0xbf019980	-0.5062485
44	0x3e116533	0.1419876
45	0x3f7f176a	0.996451
46	0x3e9f8a12	0.31160027
47	0xbf1d5b44	-0.61467385
48	0x3e60abba	0.21940508
49	0xbe1aaa08	-0.15103924
50	0xbee4f277	-0.44716236
51	0x3ee04c54	0.43808234
52	0xbe59659c	-0.21230167
53	0xbf019467	-0.5061707
54	0xbeb5ceab	-0.35509238
55	0x3ee8c258	0.45460773
56	0x3f5f7ad7	0.87296814
57	0xbe1d8421	-0.15382434
58	0xbf347d84	-0.7050402
59	0xbed059f7	-0.40693638
60	0xbf2d1b0d	-0.676194
61	0xbd944cb1	-0.0724119
62	0xbd868fdc	-0.06570408
63	0x3f577892	0.8416835

gnn.convs.1.bias f4 [64]
0	0xbc76f93d	-0.0150740715
1	0x3a1369bc	0.00056233606
2	0xbb4e1879	-0.0031447692
3	0xbc201362	-0.009770246
4	0x3bc268b4	0.0059328917
5	0xbc71abc5	-0.014750426
6	0x3c865e77	0.016402466
7	0x3c4696ed	0.012120944
8	0x3c979e73	0.018508172
9	0x3d44ffc4	0.04809548
10	0x3adb4308	0.0016728351
11	0x3cd376ed	0.025813544
12	0x3b11f0a7	0.0022268684
13	0x3c60a72a	0.01371173
14	0x3b1f5064	0.002430939
15	0xbc8c909c	-0.017158799
16	0xbbbb0a71	-0.005708032
17	0xba6546ca	-0.0008746205
18	0x3aeb95b7	0.0017973696
19	0xbccfdd6e	-0.02537414
20	0xbc9e1d8b	-0.019301197
21	0xbc98e7db	-0.018665245
22	0xbc842a77	-0.01613353
23	0xbbf9bd6d	-0.0076214583
24	0x3bd9cd70	0.0066468045
25	0xbd0c310c	-0.034226462
26	0xbd70fd7a	-0.058835484
27	0xbb71528c	-0.0036822883
28	0x3c3f7f91	0.011688129
29	0xbba1ffc8	-0.0049438216
30	0x3b3f5462	0.0029194583
31	0x3d063ede	0.0327748
32	0x3ccc702d	0.024955833
33	0xbaf46c8f	-0.0018648076
34	0x3d256837	0.04038259
35	0x3c81d6eb	0.015849551
36	0x3ce9d847	0.028545512
37	0xbd8e7e88	-0.06957728
38	0xbca52f96	-0.020164292
39	0xbd60a028	-0.054840237
40	0x3b6a164e	0.003571886
41	0xbccbb68e	-0.024867322
42	0x3d8ed4e3	0.06974199
43	0xbbf014ab	-0.0073266826
44	0x3cd06e5f	0.025443254
45	0x3dd42c80	0.1036005
46	0xbbd590f1	-0.0065175225
47	0xb917aa1f	-0.00014463857
48	0xbc315198	-0.010822676
49	0xbb8504a6	-0.004059392
50	0x3bb4abdf	0.0055136527
51	0x3d13ccb4	0.036083892
52	0x3d31d2b8	0.043413848
53	0x3c8bcb4a	0.01706471
54	0xbcc3cce4	-0.02390141
55	0xbc32e68a	-0.010919223
56	0xbc0c8403	-0.008576396
57	0xbcab9e2f	-0.020949451
58	0x3c9292d0	0.017892271
59	0x3c3d1da8	0.011542715
60	0xbd41a026	-0.04727187
61	0xbb4d9c1c	-0.0031373566
62	0xbcc23dbb	-0.023711076
63	0xbbb4b10d	-0.00551427

gnn.convs.1.lin_l.weight f4 [64, 64]
0	0xbde19834	-0.110153586
1	0x3e564bfc	0.20927423
2	0xbd9c9a27	-0.0764659
3	0xbd18b13f	-0.03727841
4	0xbde609a6	-0.11232309
5	0xbdabf48b	-0.08396252
6	0xbe58a911	-0.21158244
7	0xbda52994	-0.08064571
8	0xbd76b38a	-0.060229816
9	0x3b694d45	0.0035599035
10	0x3dcfe4fb	0.101510964
11	0x3c990870	0.018680781
12	0xbe95545a	-0.29165918
13	0x3d5f10cc	0.054459378
14	0xbe00e468	-0.1258713
15	0xbdc088b4	-0.09401074
16	0x3df4310b	0.11923417
17	0x3d9472b5	0.07248441
18	0x3da1df55	0.07903925
19	0x3dd655e4	0.10465601
20	0x3d9cfe85	0.07665733
21	0x3e499016	0.1968387
22	0xbead5d36	-0.33860177
23	0x3e9f6497	0.3113143
24	0x3e8952f4	0.268211
25	0xbe877139	-0.2645357
26	0xbd1b7ab4	-0.037958816
27	0x3c53c23c	0.012924727
28	0xbdb876dc	-0.090070456
29	0x3e1831a0	0.1486268
30	0x3e191bfa	0.14952078
31	0xbe13ff2a	-0.14452806
32	0x3d3ad4e0	0.04561317
33	0x3e34eed2	0.17669228
34	0x3da8d9f7	0.082446985
35	0x3e3cfaed	0.18455096
36	0x3e0315e3	0.12801318
37	0x3e3dddc1	0.18541624
38	0x3d52002a	0.051269688
39	0xbd540931	-0.051766578
40	0x3e254d4f	0.16142772
41	0xbd5485ff	-0.0518856
42	0xbe48112d	-0.19537802
43	0xbe1525ba	-0.14565173
44	0x3e0ca001	0.13732912
45	0xbe1413d2	-0.14460686
46	0xbe15cfff	-0.14630125
47	0xbdd46d08	-0.103723586
48	0xbdfedc2e	-0.1244434
49	0x3e22d6b3	0.15902214
50	0xbe55976a	-0.20858541
51	0xbdc976aa	-0.098370865
52	0xbe3d470c	-0.18484133
53	0xbe841865	-0.25799862
54	0x3d1ec895	0.03876551
55	0xbe06d25f	-0.13166188
56	0x3c8e8b8d	0.017400527
57	0x3e50c060	0.20385885
58	0xbdcd6c12	-0.100303784
59	0x3e537bb4	0.20652658
60	0x3e2cdd04	0.16881186
61	0xbc89caa6	-0.016820263
62	0xbe0724b8	-0.13197601
63	0x3d4a291a	0.049355604
64	0x3e0bcd2f	0.1365249
65	0xbd4991d1	-0.049211327
66	0xbe069877	-0.13144098
67	0x3db49365	0.08817176
68	0xbd3d25ce	-0.04617863
69	0x3d4d5b2b	0.050135773
70	0x3dd0ab68	0.10188943
71	0x3de66a73	0.11250772
72	0xbd71a411	-0.058994357
73	0x3bd4ec54	0.006497899
74	0x3e068627	0.13137113
75	0xbe59cc3c	-0.21269315
76	0x3e1a7631	0.15084149
77	0xbd5fa50e	-0.054600768
78	0xbe1db6da	-0.15401784
79	0x3e3ca142	0.1842089
80	0xbe8626fd	-0.2620162
81	0x3e3cdd72	0.1844385
82	0xbe1bec0c	-0.15226763
83	0x3deb6708	0.11494261
84	0x3e1e5fd2	0.1546624
85	0x3e68294e	0.22672006
86	0x3d40a430	0.04703158
87	0xbcd69d3d	-0.026198024
88	0x3d826f69	0.06368906
89	0x3e3f98e5	0.18710668
90	0xbcc94ea2	-0.024573628
91	0x3dea6f09	0.114469595
92	0x3e187461	0.14888145
93	0x3e450769	0.19241108
94	0x3dd43526	0.103617
95	0xbd64a89c	-0.05582486
96	0x3e4155bb	0.1888036
97	0x3bc82270	0.006107621
98	0x3d2585be	0.04041075
99	0xbe13ccd7	-0.14433609
100	0x3de6708c	0.11251935
101	0x3e04648a	0.12928978
102	0x3d86b2a0	0.06577039
103	0xbdcfc69c	-0.101453036
104	0x3dc53adb	0.096303664
105	0xbcc6d412	-0.024271045
106	0xbe4e02c8	-0.20118248
107	0xbde8c893	-0.113663815
108	0x3e16d313	0.14728956
109	0xbe259570	-0.16170287
110	0xbbd0d6b5	-0.0063732513
111	0xbe4df20a	-0.20111862
112	0x3d09b466	0.033619307
113	0xbdfc8fbd	-0.123321034
114	0x3c379294	0.011204381
115	0x3df2d47b	0.11856934
116	0xbe142ade	-0.14469478
117	0xbcf83807	-0.030300153
118	0xbe00bda6	-0.12572345
119	0x3cc2925f	0.023751436
120	0x3e8cfd84	0.27537167
121	0xbe1aa79d	-0.15103002
122	0x3ca223b2	0.019792411
123	0x3e896d32	0.26841122
124	0x3d9881f5	0.07446662
125	0x3e6112e1	0.21979858
126	0xbd191a62	-0.037378676
127	0xbc86de31	-0.016463371
128	0x3dbe4331	0.092901595
129	0x3e685d2b	0.22691791
130	0xbe02e14c	-0.12781256
131	0xbc9e7af9	-0.019345747
132	0x3e056c6e	0.13029644
133	0x3e6db6c5	0.23214252
134	0xbe52e2fb	-0.20594399
135	0x3cf82f58	0.030296013
136	0xbd1f054b	-0.038823407
137	0x3d959a75	0.07304851
138	0x3dfef548	0.124491274
139	0xbd36d7e4	-0.044639483
140	0x3dd3a62d	0.1033443
141	0xbb91e8b0	-0.0044527873
142	0xbe32e05c	-0.17468399
143	0x3e007a58	0.1254667
144	0x3cf81419	0.03028302
145	0xbad36c11	-0.0016130229
146	0x3ce415fb	0.027842512
147	0x3dc6baf9	0.09703631
148	0x3e4082c1	0.18799879
149	0xbea67871	-0.32513765
150	0xbeab4501	-0.33451083
151	0x3d8db38b	0.06919011
152	0x3df554cd	0.11979065
153	0xbe84fab7	-0.2597253
154	0xbdd2aac5	-0.10286478
155	0xbe434c7b	-0.19072144
156	0x3d662d85	0.056195755
157	0xbe0990a1	-0.13434078
158	0x3e1cf86b	0.15329139
159	0x3dcb3319	0.099218555
160	0xbe556fe1	-0.2084346
161	0x3e4b91d2	0.19879845
162	0xbe5aa32d	-0.21351309
163	0x3dd3d0cf	0.103425615
164	0x3d9c0ed8	0.07620019
165	0xbe9f2568	-0.31083226
166	0xbe30c8e1	-0.17264129
167	0x3dfe73ca	0.12424429
168	0x3e376e6f	0.17913221
169	0xbd3ea09a	-0.04653988
170	0xbc0b0f9b	-0.008487607
171	0x3ceae127	0.028671814
172	0xbe4b2dd8	-0.19841707
173	0x3e3bffb1	0.18359257
174	0x3d6aaa0a	0.057291068
175	0xbe2b8617	-0.1675037
176	0xbdc12320	-0.09430528
177	0xbd2f00d2	-0.04272539
178	0xbe857f94	-0.26073897
179	0xbe150bac	-0.14555234
180	0x3e6a06ce	0.22854158
181	0xbe9807cf	-0.29693457
182	0x3e7122e7	0.2354847
183	0x3dee6fb2	0.11642398
184	0x3db0fdcd	0.08642159
185	0x3dd180af	0.102296226
186	0xbd65b0fe	-0.056076996
187	0xbe2554e4	-0.16145664
188	0xbd8a7120	-0.06759858
189	0xbe1a3bcd	-0.15061875
190	0xbdb4fbac	-0.08837065
191	0x3b9bf53b	0.0047594584
192	0x3d7f2b23	0.062296998
193	0xbe6c7656	-0.23092017
194	0xbe35b917	-0.17746387
195	0xbda0ef29	-0.07858116
196	0x3d0f390a	0.034966506
197	0x3de2d996	0.110766575
198	0xbdc82f99	-0.097747035
199	0x3e847783	0.2587243
200	0x3e63d743	0.22250085
201	0xbe550155	-0.2080129
202	0x3d1327e1	0.035926703
203	0x3dc47d2a	0.09594186
204	0x3c97de88	0.018538728
205	0x3d7cfa10	0.061761916
206	0x3d905949	0.0704828
207	0xbe23a64e	-0.15981409
208	0x3d850a0e	0.064960584
209	0xbe3787df	-0.17922924
210	0xbdd9c8b9	-0.10633988
211	0x3dff0c0c	0.1245347
212	0xbd4ef9bb	-0.05053113
213	0x3e821c9b	0.2541245
214	0xbe455fc4	-0.19274813
215	0xbe3d6510	-0.18495584
216	0xbe0dfca7	-0.1386591
217	0xbdd4ca1b	-0.10390111
218	0xbdbea0a0	-0.093079805
219	0x3e99fb29	0.30074432
220	0xbd11452d	-0.03546636
221	0xbc4db2dd	-0.012554851
222	0xbe334d3c	-0.17509931
223	0x3e5d58af	0.21615861
224	0xbda702eb	-0.081548534
225	0xbe0991f6	-0.13434586
226	0xbe35dab3	-0.17759208
227	0xbda64e26	-0.081203744
228	0xbc7d185e	-0.015447704
229	0x3e0fa798	0.14028776
230	0xbda48414	-0.080330044
231	0x3dcf07a2	0.10108878
232	0x3e456f16	0.19280657
233	0x3e159cca	0.14610592
234	0x3e76565e	0.24056384
235	0xbe1fc946	-0.15604123
236	0x3e196057	0.14978157
237	0x3e1bde13	0.15221433
238	0x3e75b493	0.23994665
239	0x3d178324	0.0369903
240	0x3d5e3a17	0.054254618
241	0xbdb59c90	-0.088677526
242	0x3e2123b8	0.15736282
243	0x3d68dc93	0.05685098
244	0xbda3f0bc	-0.08004901
245	0x3dde6958	0.108599365
246	0x3d52b91b	0.05144606
247	0x3dcb45b0	0.09925401
248	0x3e6506c3	0.2236586
249	0x3daae8cd	0.083451845
250	0x3d890935	0.06691209
251	0xbe443a76	-0.19162926
252	0x3e4d388c	0.20041102
253	0x3dae3b92	0.08507456
254	0x3de90eef	0.113798015
255	0xbe4a4d79	-0.19756116

gnn.convs.1.lin_l.bias f4 [64]
0	0xbd91aad3	-0.0711266
1	0x3d02c6b3	0.031927776
2	0x3d0d0e2f	0.034437355
3	0x3d288767	0.041144755
4	0x3da912c4	0.082555324
5	0xbdf77a33	-0.120838545
6	0xbd779276	-0.06044241
7	0xbd56fbee	-0.052486353
8	0x3e11edbb	0.14250843
9	0x3e0915c4	0.13387209
10	0x3d866ca7	0.065636925
11	0xbd8f7c0c	-0.07006082
12	0x3dcc5345	0.0997682
13	0xbdc4c05f	-0.096070044
14	0x3dc94343	0.09827282
15	0x3da0e2a9	0.07855732
16	0x3d28065b	0.041021686
17	0xbd8c6a80	-0.06856251
18	0x3d9a64b4	0.07538739
19	0x3dbdb52d	0.09263072
20	0xbe00a96e	-0.12564632
21	0xbc83dbe9	-0.016096072
22	0x3cdb97ed	0.026805842
23	0xbd17e13e	-0.037080042
24	0xbc90ce9a	-0.01767664
25	0xbd7727cb	-0.060340684
26	0xbdd85472	-0.10562982
27	0x3d238d3c	0.039929613
28	0x3dbd7978	0.09251684
29	0x3dc1970c	0.09452638
30	0x3c779e55	0.015113433
31	0x3d8d339e	0.06894611
32	0xbc95e8be	-0.018299457
33	0xbe020faf	-0.12701295
34	0xbd87ed36	-0.06637041
35	0x3d90b099	0.07064933
36	0x3dcbe6b6	0.09956114
37	0x3ce5f653	0.028071558
38	0xbccfcdac	-0.025366627
39	0xbd52a527	-0.051427033
40	0xbdcfd07a	-0.101471856
41	0x3dbe5fb0	0.09295595
42	0xbd159849	-0.036522184
43	0xbdb2f545	-0.08738188
44	0x3d18f84e	0.037346177
45	0xbca3d21a	-0.019997645
46	0x3de12fe1	0.1099546
47	0xbd0f5b2e	-0.034999065
48	0xbc1f58d7	-0.009725771
49	0xbd383b20	-0.04497826
50	0x3de4f49e	0.111794695
51	0xbcf73076	-0.030174475
52	0xbd89ab19	-0.067220874
53	0xba320a05	-0.0006791654
54	0xbbb2c46c	-0.005455544
55	0xbd85e209	-0.065372534
56	0xbd047c93	-0.032345366
57	0xbc5b164a	-0.013372013
58	0x3df9c71d	0.12196181
59	0x3c8b7dd0	0.017027766
60	0x3ddb9b27	0.10722952
61	0xbd5010da	-0.05079732
62	0x3cf8f5d5	0.03039066
63	0x3c8a57d7	0.016887588

gnn.convs.1.lin_r.weight f4 [64, 64]
0	0x3e15b1b7	0.14618574
1	0xbe0307e6	-0.12795982
2	0xbd3e864f	-0.046514805
3	0xbe45b902	-0.19308856
4	0xbdfc900e	-0.12332164
5	0xbd937097	-0.07199209
6	0xbe11fab9	-0.142558
7	0x3d8da497	0.06916159
8	0xbe22646a	-0.15858617
9	0xbe726a45	-0.23673351
10	0x3e773f17	0.2414516
11	0x3c9c79d0	0.019101053
12	0x3d615962	0.055016883
13	0x3e338f2a	0.17535082
14	0x3d401864	0.04689826
15	0xbcf9f903	-0.030514246
16	0x3e25a095	0.16174538
17	0x3d22d26f	0.039751466
18	0xbe5ca02f	-0.2154548
19	0x3e619280	0.22028542
20	0x3e94237d	0.28933325
21	0x3d412653	0.04715569
22	0x3e08179c	0.13290256
23	0x3ea52565	0.32255092
24	0x3db88082	0.09008886
25	0xbe5ac8e2	-0.21365693
26	0x3db6c512	0.08924307
27	0xbe490020	-0.19628954
28	0xbe16ab28	-0.14713728
29	0x3debdff3	0.11517324
30	0x3eb7638f	0.35818145
31	0xbdf329a4	-0.11873177
32	0xbdd75615	-0.10514466
33	0x3d5d6648	0.05405262
34	0xbe40a066	-0.18811187
35	0xbe620170	-0.22070861
36	0xbdfc346d	-0.12314687
37	0x3d7bfee3	0.061522376
38	0xbe1fd95a	-0.15610257
39	0x3bf52831	0.007481598
40	0x3e5e586c	0.21713418
41	0xbe5baca9	-0.21452583
42	0x3d1d921f	0.03846943
43	0x3e2768d9	0.1634859
44	0xbea3539e	-0.31899732
45	0x3b3ab964	0.002849185
46	0x3ce321a5	0.027726004
47	0xbd18eb34	-0.037333682
48	0x3da8fb4f	0.08251058
49	0x3a02c64e	0.0004988656
50	0xbd0f1ad0	-0.03493768
51	0xbe071c0e	-0.13194296
52	0xbc76be56	-0.015060028
53	0xbd59bc11	-0.05315787
54	0xbed4c998	-0.41560054
55	0x3da56708	0.08076292
56	0xbcee6588	-0.029101148
57	0x3e9a3e0c	0.30125463
58	0x3dbb8a06	0.09157185
59	0x3e9e5e13	0.30931148
60	0xbc33901e	-0.010959653
61	0xbe4af8d5	-0.19821484
62	0x3db234c1	0.08701468
63	0x3d8e5432	0.06949653
64	0xbd88a485	-0.066720046
65	0xbefd2477	-0.49441883
66	0xbe0adeb4	-0.13561517
67	0x3e814723	0.25249586
68	0xbd993afa	-0.07481952
69	0x3e130c6a	0.14360204
70	0x3d8cd5fc	0.06876752
71	0x3f4d49f0	0.80190945
72	0x3e8297d5	0.25506464
73	0x3d6685d7	0.056279983
74	0xbe3ce5ec	-0.18447083
75	0xbde7bab5	-0.113149084
76	0xbdd9d448	-0.106361926
77	0x3f230336	0.63676775
78	0x3e18cbb8	0.14921463
79	0xbe2771b9	-0.16351976
80	0xbef0f947	-0.47065184
81	0xbe0373d8	-0.1283716
82	0x3db53eea	0.088498905
83	0xbea0d674	-0.31413615
84	0xbea038d2	-0.3129335
85	0x3f395cb7	0.72407097
86	0x3eb93e51	0.36180356
87	0xbed58ed4	-0.41710532
88	0xbe1798a1	-0.14804317
89	0x3e2b175e	0.16708133
90	0x3da75f8c	0.08172521
91	0x3eca648d	0.3952984
92	0xbec98766	-0.39361113
93	0xbe1515ff	-0.14559172
94	0x3cc70487	0.024294151
95	0xbc84f5f3	-0.016230559
96	0x3d2ecc49	0.04267529
97	0xbd95f134	-0.073213965
98	0x3e2ef294	0.17084724
99	0x3dc90f95	0.09817425
100	0xbdae1365	-0.08499793
101	0x3ea5fd95	0.3242003
102	0xbd7b70ab	-0.061386745
103	0xbe7ad3e7	-0.24494897
104	0xbd261b31	-0.040553275
105	0xbe7d7816	-0.2475284
106	0xbe571233	-0.21003036
107	0xbe082be2	-0.1329799
108	0x3ed4158b	0.41422686
109	0xbd8c7490	-0.0685817
110	0x3db9099f	0.09035038
111	0x3d929b35	0.0715851
112	0x3daf1b11	0.085500844
113	0x3e30eff5	0.17279036
114	0x3eb1d556	0.34733075
115	0xbee5613a	-0.4480074
116	0xbd464288	-0.048403293
117	0x3f069cf1	0.52583224
118	0x3e0d076e	0.13772365
119	0x3c614725	0.013749872
120	0xbd41ff74	-0.04736276
121	0xbe4bffa2	-0.19921735
122	0xbd74b560	-0.059743285
123	0xbe3cff7e	-0.18456838
124	0xbd9e391e	-0.07725738
125	0x3e9dd1fa	0.30824262
126	0x3b7fa2ef	0.0039007028
127	0xbd79dd6d	-0.061002184
128	0xbe80d831	-0.2516494
129	0xbe397815	-0.18112214
130	0x3e102327	0.1407591
131	0xbdeea1c0	-0.11651945
132	0xbccc82f4	-0.024964787
133	0xbe18ed61	-0.14934303
134	0xbdae23f6	-0.08502953
135	0x3e05d247	0.13068496
136	0xbbb41a40	-0.0054962933
137	0x3b44ed00	0.003004849
138	0xbdd32147	-0.103090815
139	0x3d7764d0	0.060398877
140	0xbe1b8bfe	-0.15190122
141	0xbd48982e	-0.048973255
142	0x3d566e62	0.052351363
143	0x3d666771	0.056250993
144	0xbe7e780b	-0.2485048
145	0xbe18cd2f	-0.14922021
146	0x3d02d5e2	0.031942256
147	0xbe52e9e8	-0.2059704
148	0x3e0a4f7a	0.1350688
149	0x3ed90796	0.423886
150	0x3d3fcd3d	0.04682659
151	0xbe134b94	-0.143843
152	0xbe593b03	-0.21213917
153	0x3d0149c2	0.03156448
154	0xbe2d780c	-0.16940325
155	0x3e170dd4	0.14751369
156	0xbb9d607b	-0.004802761
157	0x3e54ec3b	0.2079324
158	0xbe03992c	-0.12851399
159	0x3e7d5237	0.24738394
160	0x3ad9b1b9	0.0016608752
161	0xbcf89e86	-0.030349027
162	0x3d5f014e	0.054444604
163	0xbdc7db7f	-0.097586624
164	0xbdcbe07e	-0.09954928
165	0x3ec64430	0.38723898
166	0x3cad1783	0.021129375
167	0xbe884659	-0.2661617
168	0x3d5fb238	0.054613322
169	0x3d86a727	0.065748505
170	0x3bb7b00f	0.0056057046
171	0xbd2485e3	-0.040166747
172	0x3dbd9cef	0.09258448
173	0xbdfb8c10	-0.12282574
174	0x3e46d818	0.1941837
175	0x3ecea9d1	0.40363935
176	0xbe1debfd	-0.15422054
177	0x3ded1a3f	0.11577272
178	0x3e24126c	0.16022652
179	0xbe24b9e2	-0.16086534
180	0xbdc10702	-0.09425165
181	0x3e0251b0	0.12726474
182	0xbe4f3715	-0.20235856
183	0xbd3fdf0a	-0.046843566
184	0x3e5f146d	0.21785136
185	0x3dba1cd3	0.09087529
186	0x3b970786	0.004609051
187	0x3e839e32	0.2570663
188	0x3e426835	0.18985064
189	0x3dbb6ba1	0.09151388
190	0x3db5c189	0.088748045
191	0xbe4c3ee6	-0.19945869
192	0xbde4c7d9	-0.111709304
193	0x3cebec99	0.028799342
194	0x3e3a52eb	0.18195693
195	0xbe426c95	-0.18986733
196	0x3d93ff7a	0.07226463
197	0xbd5a1d7b	-0.05325077
198	0x3db52c76	0.08846371
199	0x3ed3d262	0.41371447
200	0xbd22cba2	-0.03974498
201	0xbdffdcb7	-0.1249327
202	0xbd8c03d9	-0.068366714
203	0xbe3d922a	-0.18512788
204	0xbcaf5734	-0.021403886
205	0xbcee1046	-0.029060494
206	0xbdbb5ffa	-0.091491655
207	0x3c2622b3	0.010140109
208	0xbd300717	-0.04297551
209	0xbe19b30a	-0.15009704
210	0xbe58ad59	-0.21159877
211	0xbe73af20	-0.23797274
212	0xbd24d4d9	-0.04024205
213	0x3dab1869	0.08354265
214	0xbde35612	-0.11100401
215	0xbe2f30c4	-0.17108446
216	0xbf0a514e	-0.5403031
217	0x3e4c6157	0.19959007
218	0xbc48c6af	-0.012254401
219	0xbe170ff9	-0.14752187
220	0x3da1a28e	0.07892333
221	0xbd83aeef	-0.0642985
222	0xbc0794d4	-0.0082752295
223	0xbe13f718	-0.14449728
224	0xbd98e96c	-0.07466397
225	0x3be98fc3	0.0071277334
226	0xbdd75e7b	-0.105160676
227	0x3e84cb3f	0.25936314
228	0x3dcd786d	0.10032735
229	0x3e79890d	0.24368687
230	0xbe3c7401	-0.18403627
231	0xbda2a6e4	-0.07941988
232	0x3d9d8613	0.07691588
233	0xbe030a88	-0.12796986
234	0xbe6a02c7	-0.22852622
235	0xbe28a8cf	-0.16470645
236	0xbdc2c8b5	-0.09510938
237	0xbdfdfb08	-0.12401396
238	0x3d606868	0.05478707
239	0x3eac8208	0.33692956
240	0x3e0bb18f	0.13641952
241	0xbe6af566	-0.22945175
242	0xbdb8430d	-0.08997164
243	0xbea3d24f	-0.3199639
244	0x3b6153c6	0.0034382208
245	0x3e55ed65	0.2089134
246	0xbcb781ae	-0.022400703
247	0x3dbaba1d	0.091175295
248	0xbe2e3bfc	-0.1701507
249	0x3e4e3e94	0.20141059
250	0x3db3f731	0.087873824
251	0x3e218c55	0.15776189
252	0x3ddc888a	0.1076823
253	0xbe4faac1	-0.20279981
254	0x3d8e0b01	0.069356926
255	0xbd69ee7f	-0.057112213

gnn.convs.1.lin_r.bias f4 [64]
0	0xbc316188	-0.010826476
1	0xbe444441	-0.19166662
2	0xbc8ed32b	-0.017434677
3	0xbcfde47e	-0.030992743
4	0x3deccc07	0.11562353
5	0x3cab16d2	0.020884905
6	0x3d7a2c82	0.061077602
7	0x3e2377af	0.15963624
8	0x3dbddbd8	0.092704475
9	0x3d835822	0.064132944
10	0xbcdee5a8	-0.027209118
11	0x3d9ce7d1	0.07661403
12	0x3d59b19a	0.05314789
13	0xbd0bcb21	-0.034129266
14	0xbb95f4dd	-0.004576309
15	0x3e5e1f7f	0.21691702
16	0x3dc0a0e2	0.09405686
17	0xbdb109f4	-0.086444765
18	0x3df0313b	0.1172814
19	0x3dceb894	0.10093799
20	0x3e04c58f	0.12965988
21	0x3d35f66c	0.04442446
22	0xbe040447	-0.12892257
23	0xbd953d1e	-0.07287048
24	0xbcf4604e	-0.029831078
25	0x3e1d453c	0.15358442
26	0xbca31e24	-0.019911833
27	0x3e0faa60	0.14029837
28	0x3c9abfa4	0.01889021
29	0x3c44cb43	0.012011352
30	0xbd7b8ab4	-0.061411574
31	0xbd83ec3d	-0.06441543
32	0xbd572c85	-0.05253269
33	0xbdf9892b	-0.12184366
34	0xbc845642	-0.016154412
35	0xbac30fd9	-0.0014882042
36	0x3d8efd26	0.06981878
37	0x3cbc3785	0.022975693
38	0x3da30c50	0.07961333
39	0xbc160602	-0.009156706
40	0xbd37c510	-0.044865668
41	0xbe0bbcbb	-0.13646214
42	0x3cb81cbf	0.022474645
43	0xbe32c4e9	-0.17457928
44	0x3dcb152c	0.099161476
45	0x3d66b261	0.05632246
46	0xbca7dd82	-0.020491365
47	0x3d530555	0.051518757
48	0x3dd9eb47	0.10640579
49	0x3a72e125	0.00092651165
50	0x3e259b0e	0.1617243
51	0xbd8b7e5f	-0.06811213
52	0xbe380dca	-0.1797401
53	0xbe8925e8	-0.26786733
54	0x3d9efb3d	0.07762764
55	0x3d60bd49	0.054868016
56	0x3dcc0f7a	0.099638894
57	0x3e11ae0f	0.14226554
58	0xbd1151a8	-0.035478264
59	0xbdb98ce1	-0.09060074
60	0x3ceddf67	0.02903719
61	0xbdfc1bcf	-0.123099916
62	0x3c0ded2d	0.008662504
63	0xbdf43ef2	-0.11926068

gnn.convs.2.att f4 [1, 1, 64]
0	0x3f27eda1	0.6559697
1	0x3f631f67	0.8871979
2	0x3ecd3e7d	0.40086737
3	0xbf095bc1	-0.5365563
4	0xbf031179	-0.51198536
5	0x3e97e62a	0.2966779
6	0x3ee6ee7a	0.45103818
7	0x3eb49a29	0.35273865
8	0xbf052001	-0.5200196
9	0xbf1d4241	-0.6142922
10	0xbeba5717	-0.3639457
11	0x3f32eb54	0.6989033
12	0x3f34da6f	0.70645803
13	0x3f1507cd	0.5821503
14	0x3ec7c9c5	0.39021125
15	0xbef28718	-0.47368693
16	0x3f04ebb1	0.51922137
17	0xbf3d1c7d	-0.73871595
18	0x3df65c42	0.120293155
19	0xbe362d31	-0.17790677
20	0xbeb7024a	-0.35743934
21	0x3ea345ac	0.31889093
22	0x3ee7ff1e	0.45311826
23	0xbeb51b20	-0.35372257
24	0x3e63cd60	0.22246313
25	0xbea88d66	-0.32920378
26	0x3eb20841	0.34771922
27	0x3f02da99	0.51114804
28	0xbeabdaa8	-0.3356526
29	0x3f00649c	0.5015352
30	0xbe9b0c14	-0.30282652
31	0x3f3470ed	0.7048481
32	0x3e510ee3	0.20415835
33	0x3f04b94e	0.5184525
34	0xbebe52e6	-0.3717262
35	0x3f44472c	0.766711
36	0xbf0a55ed	-0.5403736
37	0xbe5edce6	-0.21763954
38	0xbefa99a1	-0.48945335
39	0xbf4088dd	-0.75208837
40	0x3f1739cf	0.59072584
41	0xbed5c775	-0.41753736
42	0xbf5b9ab3	-0.8578293
43	0x3db95d81	0.090510376
44	0x3dba217f	0.0908842
45	0x3ef4767e	0.47746652
46	0xbf047704	-0.51744103
47	0xbe8f0373	-0.2793232
48	0xbec8e9aa	-0.39240772
49	0x3dd8d633	0.1058773
50	0x3ed4ae1e	0.4153909
51	0xbf1d02e6	-0.6133255
52	0x3ea92011	0.33032277
53	0xbf1e750e	-0.6189736
54	0xbf2fd1c8	-0.68679476
55	0xbe7f3c83	-0.24925427
56	0x3f0684ca	0.5254637
57	0xbd58f6e1	-0.052969817
58	0x3eb746de	0.35796255
59	0xbf095521	-0.5364552
60	0xbdb3ba18	-0.08775729
61	0x3ed153b3	0.4088417
62	0x3f37d594	0.7181027
63	0xbf44ea7d	-0.769203

gnn.convs.2.bias f4 [64]
0	0xbcb31a3e	-0.0218631
1	0x3cb149db	0.021641662
2	0x3c8290b8	0.015938148
3	0xbc9727b8	-0.018451557
4	0x3a60473d	0.0008555537
5	0x3c04248e	0.008065356
6	0xbb9ff92c	-0.0048819985
7	0x3c8d447b	0.017244568
8	0x3c9ee85d	0.019397909
9	0x3c6063df	0.013695686
10	0x3d09237b	0.033481102
11	0x3bf75f04	0.0075491685
12	0x3d1b856a	0.03796903
13	0xbcb55801	-0.02213669
14	0x3b861278	0.004091557
15	0xbd58eea8	-0.052961975
16	0xbcc3b52c	-0.0238901
17	0xbb435580	-0.00298056
18	0xbc523887	-0.01283086
19	0xbc9f5f5e	-0.019454654
20	0x3cb73691	0.022364886
21	0x3b9676de	0.004591807
22	0x3d5b5efa	0.053557374
23	0x3526c3eb	6.2124917e-07
24	0x3c56dcb3	0.013114142
25	0x3aa975a1	0.0012928733
26	0xbc5d6ad6	-0.013514241
27	0xbcbbde9f	-0.022933302
28	0xbcf65954	-0.030071892
29	0xbd5eb48a	-0.054371394
30	0x3bbc8994	0.0057537053
31	0xbc8ba280	-0.01704526
32	0x3d27dcf4	0.0409822
33	0xbc18ab72	-0.0093182195
34	0x3d57456f	0.05255645
35	0xbbf64af8	-0.007516261
36	0xbcd19c87	-0.025587333
37	0xbd03498c	-0.03205256
38	0x3e0c9a6e	0.13730785
39	0x3c902996	0.017597955
40	0xbc479d62	-0.012183519
41	0x3d1e8259	0.038698528
42	0x3af6327d	0.0018783357
43	0x3d04480a	0.032295264
44	0xbc8039f0	-0.015652627
45	0xbd456d06	-0.048199676
46	0xbbebd799	-0.007197332
47	0xbb08db21	-0.0020882564
48	0xbbcb4f91	-0.0062045534
49	0x3c8a7390	0.016900808
50	0xbc9fe95b	-0.019520452
51	0xbc9d7a53	-0.019223368
52	0xbb17afa5	-0.0023145464
53	0x3ced49e8	0.028965905
54	0xbc8955ae	-0.016764488
55	0x3c7c20c0	0.015388668
56	0x3d5a266e	0.053259306
57	0xbc81c3ac	-0.015840374
58	0x3b17ba4e	0.0023151818
59	0xbba47066	-0.0050182818
60	0x3d16561b	0.03670321
61	0x3dc6b777	0.09702962
62	0xbae91c29	-0.0017784882
63	0x3c0a00a0	0.008423001

gnn.convs.2.lin_l.weight f4 [64, 64]
0	0xbe24f351	-0.16108443
1	0x3e5d52b9	0.21613587
2	0xbe07f246	-0.13276014
3	0x3de0abec	0.109702915
4	0xbe45a1a3	-0.19299941
5	0xbdbdf7fe	-0.092758164
6	0x3c3aefbe	0.011409698
7	0xbdb9c49f	-0.090707056
8	0x3d1271b7	0.03575298
9	0xbe1780fb	-0.14795296
10	0xbe1e8a45	-0.15482433
11	0x3e2eea2f	0.17081521
12	0xbc4c44fb	-0.012467618
13	0x3cc8f347	0.024530066
14	0x3e1b299f	0.15152596
15	0x3d105f30	0.035247028
16	0xbdabdb0e	-0.08391391
17	0x3dc201f6	0.0947303
18	0x3e16f223	0.14740805
19	0xbe2204e2	-0.15822175
20	0x3bce84e6	0.006302464
21	0x3dbda5f6	0.0926017
22	0x3da5c25c	0.08093712
23	0xbe12eca4	-0.14348084
24	0xbe4b7a37	-0.1987084
25	0x3e784dc6	0.24248418
26	0x3e2ff50b	0.1718332
27	0x3e2b09f0	0.1670301
28	0xbc47ad98	-0.012187384
29	0xbdba5de1	-0.09099937
30	0x3d681133	0.056657027
31	0xbe3288c8	-0.1743499
32	0xbe08b2d8	-0.13349473
33	0xbe5e93b2	-0.21736029
34	0xbe23601f	-0.15954636
35	0x3e05c4ce	0.13063356
36	0x3e1a7e5b	0.15087263
37	0x3d2795e1	0.04091442
38	0x3e26d782	0.16293147
39	0xbe4ae078	-0.1981219
40	0xbd999de0	-0.075008154
41	0x3c94caaf	0.018163053
42	0x3dfc0ba5	0.123069085
43	0xbdc233dc	-0.09482548
44	0x3dc18e62	0.094509855
45	0x3d5ff8c2	0.054680593
46	0xbe647181	-0.22308923
47	0x3e3b29b8	0.18277633
48	0xbdaa3deb	-0.08312591
49	0x3e1eba09	0.15500654
50	0xbe549bb1	-0.20762517
51	0x3d0c4799	0.03424797
52	0xbd2de5e7	-0.04245558
53	0x3cccb109	0.02498676
54	0x3e01f058	0.1268934
55	0x3dbb7c04	0.091545135
56	0x3e4043df	0.18775891
57	0xbd965826	-0.07341032
58	0x3d770710	0.06030947
59	0xbd6bee0a	-0.05760006
60	0x3cb8d87c	0.022564165
61	0xbd5e7587	-0.0543113
62	0x3e0ad5b2	0.13558081
63	0xbda052c9	-0.0782829
64	0x3b9b99a2	0.004748539
65	0x3e80de45	0.25169578
66	0x3d956a56	0.072956726
67	0x3e1e00d7	0.15430008
68	0x3e1da6d0	0.15395665
69	0x3da4d9dc	0.08049366
70	0x3d86862e	0.065685615
71	0x3e0fb546	0.14033994
72	0xbc6065d6	-0.013696155
73	0xbd9d7cd7	-0.07689827
74	0x3de14171	0.1099881
75	0x3e58491f	0.21121643
76	0xbcb43921	-0.021999897
77	0x3c60c194	0.013718028
78	0x3e23e7d2	0.16006401
79	0x3e16c823	0.14724784
80	0x3e7fbfee	0.24975559
81	0xbe84aa91	-0.25911382
82	0x3e35f53c	0.1776933
83	0x3e5f4464	0.21803433
84	0x3c7cb5c1	0.015424193
85	0x3e072fdf	0.13201855
86	0xbe3d2ca0	-0.18474054
87	0x3d978081	0.07397557
88	0xbe48a7e6	-0.19595298
89	0x3e12c90e	0.14334509
90	0xbe47bd81	-0.19505884
91	0x3e515bd6	0.20445189
92	0xbe364683	-0.17800336
93	0x3de634d6	0.112405464
94	0x3dea7f96	0.11450116
95	0x3e639fe0	0.22228956
96	0xbe6a0372	-0.22852877
97	0xbde8d4ee	-0.11368738
98	0x3e306ffe	0.17230222
99	0xbe1dde3b	-0.15416805
100	0xbd1de8ce	-0.038552098
101	0xbd38a688	-0.04508069
102	0x3e77cbcf	0.2419884
103	0xbe245106	-0.16046533
104	0x3d4e2f38	0.050338
105	0xbca32915	-0.01991705
106	0xbdd71a13	-0.1050302
107	0x3e61194f	0.2198231
108	0xbc8ebe5c	-0.017424755
109	0xbd03f497	-0.03221568
110	0xbe318874	-0.17337209
111	0x3d9e3cd9	0.077264495
112	0x3e7c757f	0.24654196
113	0x3dc2cf35	0.09512178
114	0xbd92165c	-0.07133171
115	0xbd8af3eb	-0.06784805
116	0xbdc17b95	-0.094473995
117	0x3e590a23	0.21195273
118	0x3d82f7c8	0.06394917
119	0x3dcbd36a	0.099524334
120	0xbe0e56de	-0.13900325
121	0xbcfbc3e0	-0.030733049
122	0xbc851dde	-0.016249593
123	0xbe556497	-0.20839153
124	0xbe4f1d33	-0.20225982
125	0x3c5a703f	0.013332426
126	0xbe67767e	-0.22603795
127	0x3da2445d	0.079231955
128	0xbd72868d	-0.05921035
129	0x3de3d624	0.111248285
130	0xbd460ffa	-0.04835508
131	0x3e7f497f	0.2493038
132	0xbe644e0d	-0.22295399
133	0xbe42c612	-0.1902087
134	0x3e3dfe40	0.1855402
135	0xbd4e082f	-0.050300773
136	0xbe556569	-0.20839466
137	0xb9f38642	-0.00046448602
138	0xbe89bdfe	-0.26902765
139	0x3ca64a83	0.020299202
140	0x3e0667ff	0.13125609
141	0x3dabedef	0.083949916
142	0x3d4c296f	0.0498442
143	0xbc2136e3	-0.009839746
144	0xbdb7cdaf	-0.08974778
145	0x3d955bef	0.072929256
146	0x3e25f607	0.16207133
147	0xbd46da0f	-0.0485478
148	0x3e08c90e	0.13357946
149	0xbc92fa91	-0.017941745
150	0xbd8f28d8	-0.06990212
151	0x3dee48ea	0.11635001
152	0x3e00b919	0.12570609
153	0x3e8b6e27	0.27232477
154	0x3cf50914	0.029911555
155	0x3e32418b	0.17407815
156	0xbe1b1930	-0.15146327
157	0x3e039b56	0.12852225
158	0xbe923182	-0.28553396
159	0xbe94dfc0	-0.29076958
160	0x3e7edcba	0.24888888
161	0xbe2cd8f0	-0.1687963
162	0xbe0d9d82	-0.13829616
163	0x3e5500c2	0.2080107
164	0x3dcb828c	0.09937009
165	0x3c29aaef	0.010355695
166	0x3cff7c6e	0.031187262
167	0xbe2716a2	-0.16317227
168	0xbdf6c874	-0.12049952
169	0x3d5ad724	0.05342783
170	0xbe62825a	-0.22120038
171	0x3e803b2b	0.25045142
172	0xbcfe9515	-0.031076947
173	0xbe84ae7d	-0.25914374
174	0x3e7de561	0.24794532
175	0xbdef0370	-0.116705775
176	0x3e0ea707	0.13930903
177	0x3df1ed89	0.11812884
178	0xbdfabe72	-0.12243356
179	0xbc3d3773	-0.011548865
180	0x3d9a74b8	0.075417936
181	0xbe988890	-0.2979169
182	0x3d30007c	0.042969212
183	0xbe4a7361	-0.19770576
184	0x3e6c2aab	0.23063152
185	0xbd803dbd	-0.06261776
186	0x3b146aeb	0.0022646736
187	0x3e606b8c	0.21916026
188	0xbcac1556	-0.021006268
189	0xbca3e36a	-0.0200059
190	0x3baf90e0	0.0053578466
191	0xbe84ef2d	-0.25963727
192	0xbd8b7409	-0.06809241
193	0x3e045564	0.12923199
194	0xbe382247	-0.17981826
195	0x3ca19b9a	0.019727517
196	0xbd55b349	-0.052172933
197	0x3b066ba6	0.002051094
198	0x3e8019cd	0.25019684
199	0x3c03556a	0.00801597
200	0x3c0c42e3	0.008560869
201	0x3e69fde6	0.22850761
202	0xbe47e981	-0.19522668
203	0xbe78da52	-0.24302033
204	0xbe0e04c4	-0.13869005
205	0xbd4eae94	-0.05045946
206	0xbd04ccc7	-0.032421853
207	0xbe30fc3d	-0.17283721
208	0x3e2c2be8	0.16813624
209	0xbe2c649a	-0.16835251
210	0x3a2f321d	0.00066831877
211	0xbdbc1360	-0.09183383
212	0xbe7050a0	-0.23468256
213	0xbe00a349	-0.12562288
214	0xbcf205f5	-0.029543856
215	0x3e087e88	0.13329518
216	0x3c9d31d1	0.019188793
217	0xbc0d547e	-0.008626102
218	0x3d05f115	0.032700617
219	0x3d392bbd	0.045207728
220	0x3df5d2c5	0.12003092
221	0x3e36c96b	0.17850272
222	0x3dbb3776	0.09141438
223	0x3c971443	0.018442279
224	0xbe9bb3ea	-0.304107
225	0x3d12afa5	0.03581204
226	0x3e90a21c	0.2824868
227	0xbe46cc3c	-0.19413847
228	0x3d520ea5	0.051283497
229	0xbdffa00b	-0.12481698
230	0x3d99bb9d	0.075064875
231	0x3e0cac8d	0.13737698
232	0xbe83f2b0	-0.25771093
233	0x3e2613f8	0.16218555
234	0xbdda6239	-0.10663266
235	0xbd7924cc	-0.060826108
236	0xbe4fd831	-0.20297314
237	0x3e40b010	0.18817163
238	0x3e4471c8	0.19184029
239	0x3e5bf977	0.21481882
240	0x3c8e0ad9	0.017339157
241	0x3d940cc3	0.072289966
242	0xbe1bff04	-0.15234
243	0x3e4c5d63	0.19957499
244	0x3e962b3a	0.29329854
245	0x3e20bcd7	0.15697037
246	0xbd8a3358	-0.06748074
247	0xbe80ec96	-0.251805
248	0xbe26ea4f	-0.16300319
249	0x3e332998	0.17496336
250	0x3996c2d6	0.00028755394
251	0xbdc98c22	-0.09841181
252	0x3c39cf04	0.01134086
253	0x3db9dc3a	0.09075208
254	0xbd24fb92	-0.04027898
255	0x3e5ec70d	0.2175562
