Models/zagnn3pa_best_model.pth (torch, 222548 bytes, 25 tensors)

gnn.lins.0.weight f4 [128, 9]
0	0x3cd496c5	0.025950799
1	0x3e5ccf52	0.21563461
2	0xbaf26f7c	-0.001849636
3	0x3e20738c	0.15669078
4	0x3b28fb9b	0.0025784734
5	0xbe67e9f4	-0.2264784
6	0xbc91922c	-0.017769895
7	0x3bce9516	0.0063043935
8	0x3f99606d	1.1982552
9	0x3e41cbf9	0.18925466
10	0xbe728a50	-0.23685575
11	0xbec5de87	-0.38646337
12	0xbf72d63f	-0.94858164
13	0xbeb979f4	-0.36225855
14	0xbe1c665a	-0.15273419
15	0xbd7794b5	-0.060444552
16	0x3e3bf173	0.18353824
17	0xbdde7af1	-0.10863293
18	0xbe3801de	-0.17969462
19	0x3e4c8af6	0.19974884
20	0x3f6792f8	0.9045863
21	0x3b5b60b1	0.003347438
22	0x3e8e27d3	0.27764758
23	0xbe247979	-0.16061963
24	0x3e4d0986	0.20023164
25	0x3cd1a967	0.025593473
26	0xbe22c3c7	-0.15894996
27	0xbeccac7a	-0.3997534
28	0x3e54fd81	0.20799829
29	0x3f8db125	1.1069685
30	0xbf36b1b8	-0.7136493
31	0x3c0027dc	0.007822003
32	0x3f09b841	0.53796774
33	0xbdc71594	-0.097209126
34	0xbea2db5c	-0.31807983
35	0x3e22c951	0.15897109
36	0x3dd0cb8a	0.10195072
37	0x3dd469a6	0.10371713
38	0xbc339d5a	-0.0109628085
39	0xbdaa46d2	-0.08314289
40	0x3dceed9a	0.10103913
41	0xbe3691cf	-0.17829059
42	0x3eb25c7c	0.34836185
43	0x3ec8ad44	0.3919469
44	0x3f0c241a	0.54742587
45	0x3d4c5b64	0.049891844
46	0x3e78f23d	0.24311157
47	0xbf169175	-0.588157
48	0x3f1627ce	0.5865449
49	0x3e4421a1	0.19153453
50	0xbec57b6a	-0.3857072
51	0x3e7a6045	0.24450786
52	0x3eccc813	0.39996395
53	0x3f85d19b	1.0454592
54	0x3e92ff42	0.2871037
55	0xbd800fbe	-0.062530026
56	0xbdb76224	-0.08954266
57	0x3f3ebe66	0.74509275
58	0xbe0e5dd1	-0.13902976
59	0x3ca04589	0.019564407
60	0xbe70ad83	-0.2350369
61	0xbe245da9	-0.16051354
62	0x3f0f66c1	0.56016165
63	0xbdae8ecb	-0.08523329
64	0x3d5ce37a	0.053927876
65	0x3f913fe7	1.1347626
66	0xbfd3f3b3	-1.6558746
67	0x3e1250bb	0.14288609
68	0xbda4a199	-0.08038635
69	0xbc3ed81e	-0.011648206
70	0x3efdc195	0.49561754
71	0xbf183e7e	-0.59470356
72	0xbe93972f	-0.2882628
73	0xbea4c429	-0.32180908
74	0xbec10ccd	-0.3770508
75	0x3f6b968e	0.92026603
76	0x3def2ae6	0.11678104
77	0x3eb3e0c6	0.35132426
78	0xbe21c8f1	-0.1579931
79	0x3f0a4867	0.5401673
80	0x3d27b91c	0.04094802
81	0xbce665ce	-0.028124716
82	0x3c13bee3	0.009017679
83	0xbf674205	-0.9033511
84	0xbe8ab563	-0.27091512
85	0xbde5a8bd	-0.11213825
86	0x3f0f5569	0.559897
87	0x3d8632a3	0.06552627
88	0xbe552023	-0.2081304
89	0x3f45023d	0.7695654
90	0x3e8da15a	0.27662164
91	0x3eeab08b	0.45837817
92	0xbc0f79b6	-0.0087570455
93	0xbe4f2155	-0.20227559
94	0xbe8cea94	-0.2752272
95	0xbcd92bff	-0.026510237
96	0xbb57c6f0	-0.0032924972
97	0xbecb840a	-0.39749175
98	0x3df2673c	0.11836097
99	0xbd192dab	-0.037397068
100	0xbd34c4fb	-0.044133168
101	0xbf074eb3	-0.5285446
102	0x3c8b682a	0.017017443
103	0x3d3bd570	0.045857847
104	0x3ebd17dd	0.3693227
105	0x3ebf5b24	0.37374222
106	0xbe3f5bb5	-0.18687327
107	0x3d2e8a70	0.042612493
108	0x3d7480a8	0.05969301
109	0xbc89df2f	-0.016830055
110	0x3e1c5fd9	0.15270938
111	0x3e2c70d1	0.16839911
112	0xbec3424c	-0.38136518
113	0x3e2324fc	0.15932077
114	0x3e7637d7	0.24044739
115	0xbe49654e	-0.19667551
116	0xbf17077d	-0.589958
117	0x3e0b6d4c	0.13615912
118	0x3c6e45f7	0.014543048
119	0xbd684cd8	-0.05671391
120	0x3dced3f6	0.10099022
121	0xbe894b27	-0.2681515
122	0xbe258a2a	-0.16165987
123	0x3c5da1c4	0.013527337
124	0x3f0a5c59	0.5404716
125	0x3efdd2ed	0.49574986
126	0xbdab09b5	-0.08351461
127	0x3e4b1915	0.19833787
128	0xbfa11158	-1.2583418
129	0x3c14c5d4	0.009080369
130	0x3e6e2f65	0.23260267
131	0x3f2ef230	0.683383
132	0xbe496e12	-0.19670895
133	0xbea70de9	-0.326278
134	0x3ec788c2	0.38971525
135	0xbe084838	-0.133088
136	0x3e2613e6	0.16218528
137	0xbef4f1e4	-0.47840798
138	0xbd41908e	-0.047257
139	0x3e586781	0.21133234
140	0xbd4bb160	-0.049729705
141	0x3e02ba77	0.12766443
142	0xbd950cef	-0.072778575
143	0xbf7f1ae0	-0.99650383
144	0x3e7205a0	0.23634958
145	0x3f07562d	0.5286587
146	0xbe75ae11	-0.23992182
147	0x3e09658f	0.13417648
148	0x3d2c89e7	0.0421237
149	0x3ea3919f	0.31947038
150	0x3dc04458	0.093880355
151	0x3f46db98	0.77678823
152	0xbea3cba0	-0.3199129
153	0xbe0e4d0a	-0.13896576
154	0xbbd9974c	-0.0066403504
155	0xbdae49a6	-0.08510141
156	0xbfb7c91a	-1.4358246
157	0xbe44d001	-0.19219972
158	0x3ce2afdd	0.027671749
159	0xbe003e00	-0.12523651
160	0xbed5e8c1	-0.4177914
161	0xbef27af6	-0.47359437
162	0xbc467e87	-0.012115127
163	0xbea64ee9	-0.3248208
164	0x3de28d2e	0.11062084
165	0xbec4d4e2	-0.38443667
166	0x3ed8bd54	0.42331946
167	0xbb63c60c	-0.0034755496
168	0x3dc22868	0.09480363
169	0x3dacdc61	0.084404714
170	0xbf6243bf	-0.8838462
171	0x3daf373b	0.08555456
172	0xbe028d55	-0.12749226
173	0xbe689c31	-0.22715832
174	0xbeac94b3	-0.33707199
175	0xbea206dc	-0.31645858
176	0xbccdeb85	-0.025136719
177	0xbdbe6bf6	-0.09297936
178	0xbf22da61	-0.6361447
179	0xbf0d0acf	-0.5509462
180	0xbe5be715	-0.2147487
181	0x3d7d70a7	0.06187501
182	0x3daa2835	0.0830845
183	0xbf399213	-0.72488517
184	0xbe1bf4e1	-0.15230133
185	0xbcb769ac	-0.022389255
186	0xbd998a28	-0.07497054
187	0xbf0348f8	-0.51283216
188	0xbed6f301	-0.41982272
189	0x3e8a836a	0.27053386
190	0x39986efa	0.00029074383
191	0xbf7a3334	-0.9773438
192	0x3f34980c	0.70544505
193	0x3e4ec8ed	0.20193835
194	0xbe4e3638	-0.2013787
195	0xbe69727a	-0.22797576
196	0xbdf84f6c	-0.121245235
197	0x3e5b8c5b	0.2144026
198	0xbd61eb57	-0.05515608
199	0xbe85f101	-0.26160434
200	0xbd4db77a	-0.050223805
201	0x3ed29661	0.41130355
202	0x3eabdf99	0.3356903
203	0xbe20adc6	-0.1569129
204	0x3e20a336	0.1568726
205	0xbede82f6	-0.4345929
206	0xbf35adbc	-0.7096822
207	0x3db8c554	0.09022012
208	0x3ea8fcc7	0.33005354
209	0xbd0a22a0	-0.033724427
210	0xbf35ac08	-0.70965624
211	0x3e8f2e77	0.27965137
212	0x3f20067e	0.62509906
213	0xbe61e018	-0.22058141
214	0xbe53ecaa	-0.20695749
215	0xbe7c98d8	-0.2466768
216	0x3d3fb72b	0.046805542
217	0x3ee689f8	0.45027137
218	0xbdc10394	-0.094245106
219	0x3d7ce5a9	0.06174246
220	0xbd9dbcf7	-0.07702058
221	0x3efc64ae	0.49295563
222	0x3cf439b0	0.029812664
223	0xbe52b067	-0.20575105
224	0xbf8abf6a	-1.0839665
225	0xbe97e578	-0.29667258
226	0xbeea3ea6	-0.45750922
227	0x3fb7ed23	1.4369243
228	0x3e1227d3	0.14273004
229	0x3c655807	0.013998038
230	0x3f30170b	0.6878516
231	0x3dedc106	0.11609082
232	0xbeb4743f	-0.3524494
233	0x3e95ac21	0.29232886
234	0x3d8fb39d	0.070166804
235	0x3f131ca0	0.57465553
236	0xbf01d101	-0.5070954
237	0xbe228963	-0.15872721
238	0xbdd89ed1	-0.10577167
239	0xbe80b6b7	-0.251394
240	0x3d68b162	0.05680979
241	0xc04c2870	-3.189968
242	0xbe117f58	-0.14208734
243	0xbe28c580	-0.1648159
244	0x3db1f9f4	0.08690253
245	0x3e63dc29	0.22251953
246	0xbe87a958	-0.26496387
247	0x3e9bc9f8	0.30427527
248	0x3eaeb82f	0.34124896
249	0x3d98d158	0.07461804
250	0x3d0bbfcd	0.034118462
251	0xbf49b63d	-0.787937
252	0xbeb6ade2	-0.35679537
253	0xbf0c39a2	-0.5477544
254	0xbee8f608	-0.45500207
255	0x3f07cf29	0.53050476

gnn.lins.0.bias f4 [128]
0	0xbe954123	-0.29151258
1	0x3ea42ab4	0.3206383
2	0xbe90b724	-0.28264725
3	0x3e5c98d7	0.21542679
4	0xbe1ad51e	-0.1512036
5	0x3e3c5bdd	0.18394418
6	0xbe3196e5	-0.17342718
7	0xbe3bf4fa	-0.1835517
8	0xbea2befc	-0.31786335
9	0x3c9cface	0.019162562
10	0xbbdb443b	-0.0066914833
11	0xbe594114	-0.21216232
12	0xbd939665	-0.0720642
13	0x3e082479	0.13295163
14	0xbcd87976	-0.026425105
15	0xbdcf3b7f	-0.1011877
16	0x3e87cfc2	0.26525694
17	0xbe5691b1	-0.20954014
18	0x3e15ebb1	0.1464069
19	0xbd459505	-0.04823782
20	0xbdc0b016	-0.09408586
21	0x3e118f7b	0.1421489
22	0xbd8c7fa1	-0.06860281
23	0x3ea8ebbe	0.32992357
24	0xbdebb16a	-0.115084484
25	0xbd285adc	-0.041102275
26	0xbd8135ed	-0.06309114
27	0x3e80fe14	0.25193846
28	0xbcfb8157	-0.030701322
29	0x3cf24b9d	0.02957707
30	0x3d1a8c4c	0.037731454
31	0x3dcb0ff3	0.099151514
32	0x3ea264ce	0.31717533
33	0xbe7ee3a6	-0.24891528
34	0x3d964639	0.07337613
35	0x3da695d9	0.0813405
36	0xbde2db45	-0.110769786
37	0xbea7353c	-0.32657802
38	0x3e2b02cd	0.16700287
39	0xbe5831a5	-0.21112688
40	0x3d86f2ac	0.06589255
41	0x3e1fc1f3	0.1560133
42	0x3e39842f	0.1811683
43	0x3daa8642	0.08326389
44	0xbe1aa3ba	-0.15101519
45	0xbe69b4c3	-0.22822861
46	0xbc9b4426	-0.018953394
47	0xbe2230df	-0.15838955
48	0x3e93af99	0.28844908
49	0xbda611f1	-0.08108891
50	0xbd21217a	-0.039338566
51	0xbd518234	-0.051149562
52	0x3e17ddfc	0.14830774
53	0x3e8afddb	0.271468
54	0x3daebebd	0.08532474
55	0x3e826828	0.2547009
56	0xbe456e0e	-0.19280264
57	0xbcdff483	-0.027338272
58	0x3dc244d9	0.09485788
59	0x3e3c03ec	0.18360871
60	0x3e3c38da	0.18381062
61	0xbd74a743	-0.059729826
62	0xbe959cde	-0.29221243
63	0xbde0fa3e	-0.1098523
64	0x3e9004eb	0.28128752
65	0x3eac786f	0.33685634
66	0x3e0085a9	0.12550987
67	0xbe0534d9	-0.13008441
68	0xbe9d9516	-0.30777806
69	0xbdc4b869	-0.09605486
70	0xbe6dcf01	-0.23223497
71	0xbe907e53	-0.28221378
72	0xbe2bda01	-0.1678238
73	0xbe8a67c9	-0.27032307
74	0xbe5e2cee	-0.21696827
75	0x3e2d577f	0.16927908
76	0xbe174378	-0.14771831
77	0x3e9c675d	0.3054761
78	0x3e4e0559	0.20119227
79	0x3daa5c86	0.08318429
80	0xbe4f026e	-0.2021577
81	0x3e7c3c35	0.24632342
82	0xbdfb5e9b	-0.12273904
83	0xbc55fce4	-0.013060782
84	0xbe23a9b5	-0.15982707
85	0xbe38109c	-0.17975086
86	0xbe97b37f	-0.29629132
87	0xbe83fa0a	-0.25776702
88	0x3e88a400	0.26687622
89	0xbe16f20f	-0.14740776
90	0xbe127bae	-0.14304993
91	0x3e27b7ed	0.16378756
92	0x3e9b7d77	0.3036916
93	0x3d4c984f	0.04994994
94	0xbe5bedd6	-0.21477446
95	0x3e61d81f	0.220551
96	0x3e985448	0.29751801
97	0xbd726a23	-0.05918325
98	0x3e05da12	0.13071468
99	0x3e5da3a0	0.21644449
100	0x3e2b2466	0.16713104
101	0x3db7c4a1	0.08973051
102	0x3df37448	0.11887413
103	0xbe09915c	-0.13434356
104	0x3e76b408	0.24092114
105	0x3dd13ef7	0.10217088
106	0xbd99095b	-0.074724875
107	0xbde19ab4	-0.110158354
108	0xbd0e0c50	-0.03467971
109	0x3d65976f	0.05605262
110	0xbe213cf6	-0.15745911
111	0x3a9f6e4a	0.0012163606
112	0xbe5ea30e	-0.21741888
113	0xbeac168c	-0.33610952
114	0xbd8805b5	-0.066417135
115	0xbd84aa10	-0.06477749
116	0x3dfdd02c	0.12393221
117	0xbda65b84	-0.08122924
118	0x3d8aee8e	0.06783782
119	0xbd2a0b68	-0.041514784
120	0x3dff7578	0.12473577
121	0xbc87896a	-0.016545016
122	0xbca37534	-0.019953348
123	0x3c97f208	0.018548027
124	0x3da19bea	0.07891066
125	0xbe86e79b	-0.26348576
126	0x3d0aca18	0.033884138
127	0xbe242155	-0.1602834

gnn.lins.1.weight f4 [128, 128]
0	0x3d52f325	0.051501412
1	0xbdfbefb5	-0.1230158
2	0x3dfe4486	0.124154136
3	0x3e0cb858	0.13742197
4	0xbd8fbe6b	-0.07018741
5	0xbdf644df	-0.12024855
6	0xbc2e1519	-0.010625147
7	0xbcd5e380	-0.026109457
8	0x3d46e9b0	0.048562706
9	0x3d9f8411	0.077888615
10	0x3d2365ab	0.03989188
11	0x3c190822	0.009340318
12	0xbc529812	-0.012853639
13	0xbd9f1bc8	-0.07768971
14	0x3e00c33f	0.1257448
15	0xbd10614c	-0.03524904
16	0x3d3acd71	0.04560608
17	0x3c7c30ed	0.015392524
18	0xbcd8881d	-0.026432091
19	0xbd048406	-0.03235247
20	0xbc4a0066	-0.012329197
21	0x3d5cd127	0.0539104
22	0xbd79fb33	-0.061030578
23	0xbd723782	-0.059134968
24	0xbebdc4e2	-0.37064272
25	0x3cb2b535	0.021814922
26	0x3d985ef8	0.07439989
27	0x3dcd7cfb	0.10033604
28	0x3d25a217	0.040437784
29	0x3d3c62de	0.045992725
30	0x3e087df5	0.13329299
31	0x3c4ccb0d	0.012499583
32	0xbd9dd46e	-0.07706533
33	0x3d09a806	0.033607505
34	0xbeda9050	-0.42688227
35	0xbcfa47e9	-0.030551868
36	0x3d9c1f0c	0.07623109
37	0x3da53bf0	0.08068073
38	0x3d8aea5a	0.0678298
39	0xbd45dbd1	-0.048305336
40	0x3dda95fc	0.106731385
41	0xbda6439f	-0.081183665
42	0x3c9c6044	0.019088872
43	0x3d207a21	0.03917897
44	0x3c2fd079	0.010730856
45	0x3d2bb3d6	0.04191955
46	0x3d02bc90	0.03191811
47	0xbf40afbd	-0.75268155
48	0x3d811c79	0.06304259
49	0xbcda905c	-0.026680164
50	0x3d65c924	0.056100026
51	0xbcf36dab	-0.02971538
52	0xbcc11af2	-0.023572419
53	0x3d6ded9a	0.058087923
54	0xbd77b130	-0.060471714
55	0x3dba60a3	0.09100463
56	0xbd1f521f	-0.038896676
57	0xbe150a2a	-0.14554659
58	0xbcd8db41	-0.026471736
59	0x3dab3682	0.08360006
60	0xbe2822bf	-0.16419505
61	0xbd557ef6	-0.052123033
62	0x3eca8e9d	0.3956193
63	0x3cb08127	0.02154596
64	0xbe2720ad	-0.16321059
65	0x3dca6d9a	0.09884186
66	0xbde27d8a	-0.11059101
67	0x3d3ce779	0.046119187
68	0x3d022fd7	0.031783905
69	0xbce04d56	-0.027380627
70	0xbb86f2cb	-0.0041182986
71	0xbd86834a	-0.0656801
72	0x3cfb4028	0.03067024
73	0xbc880087	-0.016601814
74	0x3dd0de3e	0.10198639
75	0xbcb78af0	-0.022405118
76	0x3dd7a949	0.105303355
77	0xbc230c65	-0.009951686
78	0xbe3aefca	-0.18255535
79	0x3d939ae1	0.07207275
80	0x3e14eb03	0.14542775
81	0xbe583ac7	-0.21116172
82	0xbdfa4416	-0.122200176
83	0x3d48762b	0.04894082
84	0x3e16a000	0.14709473
85	0x3e0141d9	0.12622775
86	0xbe55378b	-0.20821969
87	0x3e358b82	0.17729
88	0x3d5d0696	0.05396136
89	0x3d8cec5f	0.06881022
90	0x3e3dd4bf	0.18538187
91	0xbc11f059	-0.008907401
92	0x3d391d05	0.04519369
93	0x3db1c769	0.086806126
94	0xbb622465	-0.0034506556
95	0x3d832349	0.064032145
96	0x3dc72b80	0.09725094
97	0xbe2b3d93	-0.16722707
98	0x3e26a91a	0.16275445
99	0x3eaa15a3	0.33219633
100	0x3d621038	0.05519125
101	0xbd619d45	-0.055081625
102	0x3e9bbc9a	0.3041733
103	0xbe0a62ca	-0.13514248
104	0x3cf0823f	0.029358981
105	0x3dd16f30	0.102262855
106	0x3e753d3f	0.23949145
107	0x3e18906a	0.1489884
108	0x3d1b83a5	0.037967343
109	0x3cb22da4	0.021750279
110	0xbd85acaa	-0.06527074
111	0xbc996537	-0.01872502
112	0x3d03324e	0.032030396
113	0x3dca71de	0.09885
114	0x3de885db	0.11353656
115	0x3db5c515	0.08875481
116	0xbc944c9d	-0.018102938
117	0x3e077799	0.13229217
118	0x3dd5746d	0.10422597
119	0x3ed47eee	0.4150309
120	0xbca46035	-0.020065406
121	0x3bc20476	0.005920942
122	0x3e51b183	0.20477872
123	0x3cb9201a	0.022598315
124	0x3d632be1	0.055461768
125	0xbbb150fb	-0.005411265
126	0x3da7630b	0.08173188
127	0x3df7d3f1	0.121009715
128	0x3d443769	0.047904406
129	0xbe0f1864	-0.13974148
130	0xbb7e0d20	-0.0038765147
131	0xbd5f70d9	-0.05455098
132	0x3e075cfc	0.13219064
133	0x3d998765	0.074965276
134	0xbce64fa4	-0.028114147
135	0x3d19ac9c	0.03751813
136	0x3ce39797	0.027782245
137	0xbda47e00	-0.08031845
138	0xbd3a87ea	-0.045539774
139	0x3d5a4689	0.053289924
140	0xbe1f386c	-0.15548867
141	0xbd2d926f	-0.042375978
142	0xbca208e7	-0.019779636
143	0x3e1e2abf	0.15445994
144	0x3df3e461	0.11908794
145	0x3c9cede7	0.01915641
146	0x3c19f6f0	0.009397253
147	0xbe3e0e6f	-0.18560193
148	0xbd9dd34c	-0.07706317
149	0x3e2a01d5	0.16602261
150	0x3db772be	0.08957432
151	0x3d5b887d	0.053596962
152	0xbd49db87	-0.049281623
153	0x3c2a7d83	0.010405901
154	0x3cf94a36	0.030430894
155	0x3e2020e4	0.15637547
156	0x3d504816	0.050849997
157	0xbe12ab2e	-0.14323112
158	0x3da52c42	0.08065082
159	0x3d400e7e	0.04688882
160	0x3d2d0982	0.042245395
161	0xbd3fc598	-0.0468193
162	0xbd08ffe8	-0.033447176
163	0xbcb831de	-0.022484716
164	0xbd273326	-0.040820263
165	0xbd287cc3	-0.041134607
166	0x3c58f5b5	0.013242175
167	0x3e250613	0.16115598
168	0x3e16bb4f	0.1471989
169	0x3d16f13c	0.036851153
170	0xbda1020a	-0.07861717
171	0x3da3645a	0.07978125
172	0xbd3f91be	-0.04676985
173	0xbcb8a965	-0.022541711
174	0x3db67faf	0.089110725
175	0x3cb8adee	0.022543874
176	0xbd74345d	-0.05962025
177	0xbd993eb1	-0.074826606
178	0x3d5c4c1a	0.053783514
179	0x3e070440	0.13185215
180	0xb9ed952c	-0.00045315304
181	0x3dd6d200	0.10489273
182	0x3b208c93	0.0024497851
183	0x3d970e82	0.07375814
184	0xbdc5d19c	-0.096591204
185	0xbd127fda	-0.03576646
186	0xbe3429aa	-0.17594019
187	0xbd169ae0	-0.036768794
188	0x3ded37c6	0.115829036
189	0x3daad6e5	0.08341769
190	0xbd0f41d6	-0.034974895
191	0xbe138621	-0.14406635
192	0x3d44f649	0.04808644
193	0xbe1d3cc6	-0.15355214
194	0xbcda8095	-0.02667264
195	0x3ca07a24	0.019589491
196	0x3e21ae54	0.15789157
197	0xbdffad44	-0.1248422
198	0x3cbdde6c	0.023177348
199	0xbd48a80a	-0.04898838
200	0x3d44a9cf	0.048013505
201	0x3b02fd22	0.0019987305
202	0x3d81702b	0.063202225
203	0x3e1e5964	0.15463787
204	0xbe0256a1	-0.12728359
205	0x3a46ad30	0.00075789075
206	0x3d7533d7	0.05986389
207	0xbe11b701	-0.14229967
208	0x3d4de6b1	0.050268833
209	0xbdc443a6	-0.095832154
210	0x3e351dfc	0.1768722
211	0x3d42acbf	0.047528025
212	0x3e209beb	0.15684478
213	0xbe0384be	-0.12843606
214	0x3cbb56d7	0.022868557
215	0x3da39e33	0.079891585
216	0xbc7529bb	-0.014963563
217	0x3c12f656	0.008969864
218	0xbe112948	-0.14175904
219	0xbce33058	-0.027733013
220	0xbdd7377e	-0.10508631
221	0x3d843c57	0.064568214
222	0xbcb0d836	-0.021587472
223	0xbe04ef3f	-0.1298189
224	0xbd4d52f3	-0.050127935
225	0x3dc0bfa8	0.094115555
226	0xbd129b41	-0.035792593
227	0xbca6475a	-0.020297695
228	0xbe385197	-0.17999874
229	0xbcd09c63	-0.025465196
230	0xbe1d5753	-0.15365343
231	0x3df0edea	0.117641285
232	0xbd0ee80d	-0.03488927
233	0x3c9a104e	0.018806603
234	0xbb785ab3	-0.0037895858
235	0x3e0405b7	0.12892805
236	0x3d9bbf7d	0.07604883
237	0xbd28223f	-0.041048285
238	0x3cc3430e	0.023835685
239	0x3d2d5b96	0.04232367
240	0x3da6758c	0.08127889
241	0x3da2752e	0.079325065
242	0xbc6597e0	-0.014013261
243	0xbe802de7	-0.2503502
244	0x3dd9ba38	0.106312215
245	0x3e3055bd	0.17220207
246	0xbaf9e020	-0.0019063987
247	0x3c39ca33	0.011339712
248	0x3bcc0d02	0.0062271366
249	0xbda8d058	-0.082428634
250	0xbe871708	-0.2638476
251	0x3dddb160	0.10824847
252	0x3d82ad8c	0.06380758
253	0x3dd0d76a	0.10197337
254	0x3dbd9453	0.09256806
255	0xbc65b114	-0.0140192695

gnn.lins.1.bias f4 [128]
0	0x3d980bc7	0.07424121
1	0x3db728d2	0.08943333
2	0x3daa7970	0.083239436
3	0xbc2eaf06	-0.010661846
4	0xbd168b7d	-0.03675412
5	0x3b1e7e9a	0.0024184347
6	0x3c23dee8	0.010001875
7	0xbda94fe9	-0.08267195
8	0x3d958a5e	0.07301782
9	0xbd957946	-0.07298522
10	0x3d5fb580	0.05461645
11	0xbd8b7f27	-0.06811362
12	0x3d1cd26e	0.03828662
13	0xbd206802	-0.03916169
14	0x3b69d9e4	0.0035682851
15	0x3c2ee94e	0.010675741
16	0xbd97995f	-0.074023
17	0xbc8b6d92	-0.01702002
18	0x3d586136	0.052827083
19	0xbb519b85	-0.0031983566
20	0xbd245e83	-0.040129196
21	0xbd43897d	-0.04773854
22	0xbd8cd276	-0.0687608
23	0xbce84b00	-0.028356075
24	0xbce7e8be	-0.028309222
25	0x3bff5b23	0.0077928468
26	0xbd69c31a	-0.05707083
27	0x3d4aed85	0.049542923
28	0xbba98cd2	-0.005174258
29	0x3bd98ed4	0.006639341
30	0x3d8c13f1	0.06839741
31	0x3d57db92	0.052699633
32	0x3ce35a6c	0.027753077
33	0xbd52f0b4	-0.051499084
34	0xbc00d4f0	-0.007863268
35	0xbd878599	-0.066172786
36	0xbd98a406	-0.0745316
37	0x3d5129da	0.051065303
38	0x3da57463	0.0807884
39	0xbd05b247	-0.03264072
40	0xbd2a3c9f	-0.04156172
41	0x3d6b9cc0	0.057522535
42	0xbcaf27fe	-0.021381374
43	0xbcdd7f89	-0.027038353
44	0x3d5448c7	0.05182722
45	0x3d6c8c80	0.05775118
46	0x3d0905bc	0.033452734
47	0x3c9bf9d4	0.019040026
48	0xbc331196	-0.010929486
49	0xbcda733f	-0.026666282
50	0x3d32d578	0.04366061
51	0x3d8dcf03	0.0692425
52	0x3d8f701d	0.07003806
53	0xbd1a0d6e	-0.037610464
54	0x3d3963cd	0.045261193
55	0x3db40d3b	0.08791586
56	0x3dabbe9f	0.083859675
57	0x3d81a650	0.0633055
58	0xbd79ad63	-0.06095637
59	0x3d85347c	0.06504151
60	0x3d4bb4d8	0.049733013
61	0xbd8b6c70	-0.06807792
62	0xbc41d036	-0.0118294265
63	0xbc9b8097	-0.018982215
64	0xbc81d83f	-0.015850184
65	0xbd64275e	-0.055701606
66	0x3d297027	0.041366722
67	0x3bdea47d	0.006794511
68	0x3b215617	0.0024617964
69	0x3b6f96d0	0.0036558397
70	0xbcfe6d14	-0.031057872
71	0xbd858234	-0.06518975
72	0xbd520e3a	-0.0512831
73	0xbd97e229	-0.074161835
74	0xbd983069	-0.074311085
75	0x3b144fbf	0.002263054
76	0x3d912b19	0.07088298
77	0x3d6eafb4	0.058273032
78	0xbda96f77	-0.08273213
79	0x3dabe4d2	0.083932534
80	0xbd480b6c	-0.048839018
81	0xbd121d77	-0.03567263
82	0x3d653d93	0.055966925
83	0xbcfb3110	-0.030663043
84	0xbb3fb370	-0.002925124
85	0xbd0321e3	-0.03201474
86	0x3d8d7ab5	0.0690817
87	0x3d3fe5a9	0.04684988
88	0x3c860a3a	0.016362298
89	0xbd965847	-0.07341056
90	0x3b33af51	0.002741773
91	0xbd8d83aa	-0.069098786
92	0xbd934511	-0.07190908
93	0xbc7c7133	-0.015407848
94	0xbd8827dc	-0.066482276
95	0xbd35b2ce	-0.044359975
96	0xbd2d64a4	-0.042332307
97	0xbd4d9fc9	-0.05020121
98	0xbdaf26cd	-0.085523225
99	0x3d69ed23	0.057110917
100	0x3cd446ff	0.02591276
101	0x3d4a5907	0.04940131
102	0xbdace14f	-0.08441412
103	0xbdb2d6bd	-0.08732364
104	0xbcd32420	-0.025774062
105	0xbd3827d2	-0.04495985
106	0xbd3eac56	-0.04655107
107	0x3d268561	0.040654544
108	0xbc2013ff	-0.009770392
109	0xbc14cadc	-0.009081569
110	0xbce768ba	-0.02824818
111	0x3da04c8b	0.078270994
112	0x3c394934	0.011308957
113	0xbd2f5232	-0.042802997
114	0x3d18b85d	0.037285198
115	0x3d172e8f	0.036909636
116	0xbd488d56	-0.048962913
117	0xbd2a366b	-0.041555803
118	0xbdac3616	-0.084087536
119	0xbd8c9c2f	-0.06865727
120	0xbcbf5ff5	-0.023361186
121	0xbbfed49d	-0.0077768103
122	0xba947e49	-0.001132914
123	0x3da2ff4a	0.07958849
124	0x3da27032	0.07931556
125	0x3d0ab12f	0.03386038
126	0xbd0a7989	-0.03380731
127	0x3d660e59	0.056166027

gnn.lins.2.weight f4 [128, 128]
0	0x3ced59e2	0.028973524
1	0x3e19657c	0.1498012
2	0x3da0fbc7	0.07860523
3	0xbb8e333a	-0.004339603
4	0xbe86a164	-0.26295006
5	0xbe03b327	-0.1286131
6	0xbd691a69	-0.056909952
7	0x3de75dec	0.11297211
8	0x3ded52e4	0.11588076
9	0xbe339a58	-0.17539346
10	0x3cbb9635	0.022898773
11	0x3eec09c9	0.46101215
12	0x3ca21a92	0.01978806
13	0x3eaf337d	0.3421897
14	0xbd742ef8	-0.059615105
15	0x3e0355be	0.12825677
16	0xbb924f9c	-0.0044650566
17	0xbc0bd4c5	-0.008534615
18	0x3e65aefa	0.2243003
19	0xbd90e429	-0.07074768
20	0x3ce94099	0.028473185
21	0xbc4c74bd	-0.012479004
22	0x3e56435c	0.20924133
23	0x3ccc121e	0.024910983
24	0xbe277fe1	-0.16357376
25	0xbe201bcf	-0.15635608
26	0x3d98f202	0.07468034
27	0xbdad8582	-0.0847273
28	0x3af7c3eb	0.0018902993
29	0xbde9eeab	-0.114224754
30	0x3d84c158	0.0648219
31	0x3db0dc28	0.086357415
32	0x3d14b22d	0.036302734
33	0xbdaceeba	-0.08443971
34	0xbdd68cd3	-0.10476079
35	0x3e5b0aaa	0.21390787
36	0xbec2d169	-0.38050392
37	0x3dbc4dfa	0.0919456
38	0xbe40ee2b	-0.18840854
39	0xbcb1b8c3	-0.021694547
40	0xbd4c85bb	-0.049932223
41	0x3dec2765	0.115309514
42	0x3b41b182	0.0029555266
43	0xbcc74a89	-0.024327533
44	0xbe9c14e1	-0.3048468
45	0xbdaf3327	-0.085546784
46	0xbd6e4947	-0.05817535
47	0xbb259d09	-0.0025270602
48	0x3c28a73f	0.010293781
49	0xbe583537	-0.2111405
50	0xbd9a1ad8	-0.07524651
51	0xbe62732f	-0.22114252
52	0xbddd5f82	-0.10809232
53	0xbde812ce	-0.11331712
54	0xbd1e6ec3	-0.03867985
55	0x3dcf18e2	0.10112168
56	0xbe5e0716	-0.2168239
57	0x3e2294b0	0.15877032
58	0x3e3f1cdb	0.18663351
59	0x3c9df158	0.01928012
60	0xbd74707f	-0.059677597
61	0x3e33d908	0.1756326
62	0x3e3affb7	0.1826161
63	0xbdcd73e4	-0.1003187
64	0xbd21d15d	-0.039506305
65	0xbd827398	-0.06369704
66	0x3e3681b2	0.17822912
67	0x3df1b19e	0.11801456
68	0xbe064dd3	-0.13115625
69	0xbd5662b8	-0.05234024
70	0xbde825a2	-0.11335303
71	0x3cd80723	0.02637059
72	0xbd374313	-0.0447417
73	0xbe34a76a	-0.17641988
74	0xbd8ddf7c	-0.06927392
75	0x3e24da46	0.1609889
76	0xbe0f72f8	-0.14008701
77	0x3db6adbc	0.08919856
78	0xbcd51329	-0.026010113
79	0xbccd80d5	-0.025085846
80	0xbe83341a	-0.25625688
81	0x3dd894f8	0.105752885
82	0x3e3229b0	0.17398715
83	0xbd2563e9	-0.040378485
84	0xbe0f847c	-0.14015383
85	0x3d27e9d6	0.040994488
86	0x3da41f50	0.08013785
87	0xbe16eb22	-0.14738134
88	0x3d4c9ea9	0.049955998
89	0xbd75a901	-0.059975628
90	0xbd1b45cc	-0.03790836
91	0x3d5dfe28	0.05419746
92	0x3e670ea4	0.22564179
93	0xbd98f864	-0.07469252
94	0xbc84c237	-0.01620589
95	0xbd1f3bb4	-0.038875297
96	0xbda76ee3	-0.08175447
97	0xbdfcf276	-0.12350933
98	0xbe4218fb	-0.18954842
99	0xbc0e0d5c	-0.008670177
100	0x3ca51a49	0.020154135
101	0x3d39f432	0.0453989
102	0x3e28790c	0.16452426
103	0xbdb60964	-0.0888851
104	0x3e3223a1	0.17396404
105	0xbcae7145	-0.021294245
106	0x3dad63a8	0.084662735
107	0x3ec7092a	0.3887418
108	0xbc727d9d	-0.014800456
109	0xbe8505de	-0.2598104
110	0xbd48602d	-0.048919845
111	0x3d667230	0.05626124
112	0x3e6a4ef5	0.22881682
113	0xbdfde3ab	-0.1239694
114	0xbe01765b	-0.12642805
115	0xbdfee3e8	-0.124458134
116	0xbcd9c173	-0.026581502
117	0x3ce45237	0.027871234
118	0xbe917d93	-0.28416118
119	0x3dca2da0	0.098719835
120	0x3c8393c0	0.016061664
121	0x3dde90c0	0.108674526
122	0xbcc36441	-0.023851516
123	0x3dfd5d89	0.12371356
124	0x3c99c843	0.01877225
125	0x3e2ee568	0.17079699
126	0xbc42b30d	-0.011883509
127	0xbc36d1f5	-0.011158456
128	0xbe8cb79e	-0.2748384
129	0xbdc09fa5	-0.0940545
130	0x3e1498e2	0.14511445
131	0xbdcb0f84	-0.09915069
132	0xbecbeeba	-0.3983057
133	0x3d31bb68	0.043391615
134	0xbdb1baca	-0.08678205
135	0xbd622b40	-0.055217028
136	0x3d558628	0.052129894
137	0x3dc6cb31	0.097067244
138	0xbe94769b	-0.2899674
139	0x3e85a003	0.26098642
140	0xbd9270cf	-0.07150423
141	0xbe2e1a16	-0.17002138
142	0x3e021948	0.12704957
143	0x3e21ac11	0.15788294
144	0x3d5a6887	0.05332234
145	0x3de1bb2b	0.110220276
146	0x3d0bd190	0.0341354
147	0x3d525ddb	0.05135904
148	0x3d55396f	0.052056726
149	0xbc58f6f3	-0.013242471
150	0xbe818c8e	-0.25302547
151	0xbe8581bb	-0.2607554
152	0x3cd43b52	0.025907192
153	0xbda04788	-0.078261435
154	0xbd803141	-0.062593944
155	0x3cf96657	0.030444307
156	0x3e060c77	0.13090692
157	0x3dfbd5d7	0.12296646
158	0x3de1eb6c	0.11031231
159	0xbcdde3cb	-0.02708616
160	0x3defe89b	0.11714288
161	0xbd916af2	-0.07100476
162	0x3e3f7479	0.18696775
163	0xbd8fa499	-0.070138164
164	0x3baebe76	0.0053327633
165	0xbd5c6f6f	-0.05381721
166	0xbdc6a2e4	-0.09699038
167	0x3be60476	0.0070195748
168	0xbdfea75d	-0.12434266
169	0xbe19fc00	-0.15037537
170	0x3d7f92a8	0.06239572
171	0xbcebe655	-0.028796354
172	0xbe388112	-0.18017986
173	0x3d9ca9c2	0.07649566
174	0xbc81d5bf	-0.015848992
175	0xbd6f200a	-0.058380164
176	0xbe05bfff	-0.13061522
177	0xbd166cc6	-0.03672483
178	0xbe52d587	-0.20589267
179	0xbe889042	-0.2667256
180	0x3e0344a4	0.12819153
181	0xbd546699	-0.051855657
182	0x3cfe0ae6	0.031011056
183	0xbe157ed8	-0.14599168
184	0xbe04f4fd	-0.1298408
185	0xbd93e8ed	-0.072221614
186	0x3d55eda3	0.05222858
187	0xbd071ae0	-0.032984614
188	0xbd8fb279	-0.07016463
189	0xbd03332b	-0.03203122
190	0x3ca7d836	0.02048884
191	0x3e2d20e8	0.16907084
192	0xbe634324	-0.22193581
193	0x3decbec4	0.11559823
194	0xbd9d067a	-0.07667251
195	0xbe05f505	-0.13081749
196	0x3e71dafd	0.23618694
197	0x3e90ae8f	0.28258178
198	0xbe2825db	-0.1642069
199	0xbe47ec5c	-0.19523758
200	0xbe197f6f	-0.14990018
201	0x3b849cad	0.0040469975
202	0xbc28020b	-0.010254393
203	0x3ce52e6f	0.027976243
204	0x3e1a892c	0.1509139
205	0x3ddb3472	0.107033625
206	0x3e039d3f	0.12852953
207	0xbdd43b2d	-0.103628494
208	0xbe217224	-0.15766197
209	0xbe0c9aef	-0.13730977
210	0xbdf998db	-0.12187358
211	0x3d258958	0.040414184
212	0xbdfe0798	-0.12403792
213	0x3d93ef00	0.0722332
214	0xbdd47655	-0.103741325
215	0x3d8b18b1	0.06791819
216	0xbdbe2e21	-0.09286142
217	0xbdc286a5	-0.09498338
218	0xbd33c6e8	-0.043890864
219	0x3e10e452	0.14149597
220	0x3e426813	0.18985014
221	0xbdaecf6c	-0.08535656
222	0xbea53c66	-0.32272643
223	0xbd2c38da	-0.042046405
224	0xbd112b57	-0.035441723
225	0xbdb812bb	-0.089879476
226	0xbbf61c0e	-0.0075106686
227	0x3e5870ee	0.2113683
228	0xbe9276c6	-0.28606242
229	0xbe01c095	-0.1267112
230	0xbce75c19	-0.028242158
231	0x3e33c1df	0.17554425
232	0xbe1fdf8c	-0.1561262
233	0xbd924df9	-0.07143778
234	0x3d8b3693	0.067975186
235	0x3ddde3a0	0.10834432
236	0xbdb34202	-0.08752824
237	0x3c687cb4	0.014189888
238	0xbdd2dd3a	-0.10296102
239	0xbe20ff9d	-0.15722509
240	0x3c3e207e	0.011604426
241	0xbd2f4b32	-0.04279632
242	0xbe152f51	-0.14568831
243	0xbe21b2c3	-0.15790848
244	0x3c92e0be	0.017929431
245	0xbde7426b	-0.11291965
246	0x3dd4b66c	0.10386357
247	0x3c86ee9e	0.016471203
248	0xbdcdae9d	-0.100430705
249	0xba1baf51	-0.0005938905
250	0xbc09abb0	-0.00840275
251	0xbd9d800c	-0.07690439
252	0x3ca467f6	0.020069104
253	0x3df79202	0.12088396
254	0xbe087fa7	-0.13329946
255	0x3e4795f8	0.19490802

gnn.lins.2.bias f4 [128]
0	0xbda3c49e	-0.07996486
1	0x3c47d768	0.012197353
2	0x3c3ebca8	0.011641659
3	0x3d9019b5	0.07036153
4	0xbd893cde	-0.067010626
5	0x3d2b4ea4	0.041823044
6	0xbd41c452	-0.047306366
7	0xbdab55b7	-0.08365958
8	0x3d10e996	0.035379015
9	0x3d3bb499	0.04582653
10	0x3d758cd6	0.059948765
11	0xbd3b679d	-0.04575311
12	0x3ce78b7b	0.028264752
13	0xbd044918	-0.03229627
14	0x3d29b98d	0.04143672
15	0xbd6f2bab	-0.058391254
16	0xbdafa197	-0.08575743
17	0x3dbf9a05	0.09355549
18	0xbd529465	-0.05141105
19	0x3a10c794	0.00055229035
20	0x3d96d267	0.0736435
21	0xbd62988a	-0.055321254
22	0xbd7db527	-0.06194034
23	0x3d38044c	0.044925973
24	0xbccdec4b	-0.025137087
25	0xbd31a0de	-0.043366306
26	0xbce31b68	-0.02772303
27	0xbd8a7fa7	-0.06762629
28	0xbcfc0f08	-0.030768886
29	0xbc3d9b8a	-0.011572728
30	0xbd85dae7	-0.06535893
31	0xbcf00946	-0.029301297
32	0x3d673a77	0.05645224
33	0xbd80e07f	-0.06292819
34	0xbd203b2b	-0.039118927
35	0x3d155d24	0.03646578
36	0xbd2119e5	-0.039331336
37	0xbda75a8d	-0.08171568
38	0xbd1d21e9	-0.038362417
39	0xbbde7097	-0.006788324
40	0x3d52cb17	0.051463213
41	0x3c3dff62	0.011596533
42	0x3db4ad53	0.088221215
43	0xbd281ccb	-0.041043084
44	0xbcd3a591	-0.025835784
45	0x3d900c33	0.07033577
46	0xbd4b77b7	-0.049674716
47	0x3d65b5ad	0.056081463
48	0x3d702c1d	0.05863582
49	0xbdb55088	-0.08853251
50	0xbc0acdc1	-0.008471907
51	0x3d926321	0.071478136
52	0x3d8ef9b2	0.06981219
53	0xbd897fba	-0.06713815
54	0x3da7fad0	0.082021356
55	0x3d85e2bd	0.065373875
56	0x3d81444d	0.063118555
57	0x3c794511	0.015214221
58	0x3b5353ff	0.003224611
59	0xbc547a29	-0.012968578
60	0xbd3dcdd2	-0.046338864
61	0x3db5c6b8	0.08875793
62	0xbd049bfc	-0.03237532
63	0xbd8b1e13	-0.067928456
64	0xbd3b2e78	-0.045698613
65	0xbd4a5543	-0.04939772
66	0x3d810528	0.062998116
67	0xbdb0a988	-0.086260855
68	0xbd092b72	-0.0334887
69	0x3aaaac65	0.0013021348
70	0xbd1ef8e3	-0.038811576
71	0xb6bb4a64	-5.5816945e-06
72	0x3d111e47	0.035429265
73	0x3d061b62	0.032740958
74	0xbd8fffe8	-0.07031232
75	0x3c907e61	0.017638387
76	0x3cb0e2af	0.021592466
77	0x3ce8e7e0	0.02843088
78	0x3be6d2c6	0.007044169
79	0xbb2c6300	-0.0026304126
80	0xbd361c61	-0.044460658
81	0xbcee50bc	-0.029091232
82	0xbba30ffc	-0.0049762707
83	0xbd1a89ae	-0.037728958
84	0x3d7b3abd	0.061335314
85	0xbdaf8815	-0.085708775
86	0xbb51cc25	-0.0032012549
87	0x3d32417b	0.04351948
88	0xbd3fb0fc	-0.046799645
89	0x3c3c6b8d	0.0115002515
90	0xbd0d8047	-0.034546163
91	0xbd63e325	-0.055636544
92	0xbdaef126	-0.08542089
93	0x3cf10021	0.029419007
94	0x3daf2556	0.08552043
95	0x3ca7d4a2	0.020487133
96	0xbdae474a	-0.08509691
97	0xbd565469	-0.052326594
98	0x3d9051c3	0.07046845
99	0xbd3bd4be	-0.045857184
100	0xbcbd4aae	-0.0231069
101	0x3d5487ec	0.051887438
102	0xbc969f07	-0.018386377
103	0x3cac2905	0.021015653
104	0xbcf0c302	-0.029389862
105	0xbd50de56	-0.050993286
106	0x3d396294	0.045260027
107	0xbd2c0237	-0.0419943
108	0x3d966007	0.073425345
109	0x3d98df35	0.07464448
110	0x3d8f1a57	0.06987446
111	0xbda37d5f	-0.07982897
112	0x3d927f4b	0.071531855
113	0xbbb541aa	-0.0055315094
114	0xbba1c289	-0.0049365205
115	0xbda88f13	-0.08230414
116	0xbd8655a1	-0.06559301
117	0x3d287879	0.041130517
118	0x3db2c9a5	0.08729867
119	0xbd1f8841	-0.0389483
120	0x3d10039e	0.0351597
121	0xbd95a70a	-0.07307251
122	0xbd8d44f7	-0.068979196
123	0x3d98520f	0.074375264
124	0xbd1ea9c0	-0.038736105
125	0x3da7b7a4	0.081893235
126	0x3d843e44	0.06457189
127	0x3c844193	0.01614455

gnn.lins.3.weight f4 [128, 128]
0	0xbe344449	-0.17604174
1	0x3ddf52a3	0.109044336
2	0xbdd6e526	-0.10492925
3	0x3e3a5227	0.18195401
4	0xbc0a82d6	-0.008454045
5	0xbe26312e	-0.16229698
6	0xbba5842a	-0.0050511556
7	0x3c46a552	0.012124376
8	0xbd4c7347	-0.049914625
9	0xbe190766	-0.14944229
10	0x3e5d9c22	0.21641591
11	0x3de677f9	0.11253352
12	0xbd975cbd	-0.07390735
13	0x3cd5cd83	0.026098972
14	0x3c91819c	0.017761998
15	0x3cf49f43	0.029861098
16	0xbe637b4a	-0.22215
17	0xbe638038	-0.2221688
18	0xbd5949bb	-0.05304883
19	0xbcc3b76b	-0.023891171
20	0xbccb1136	-0.02478848
21	0x3dfeecc2	0.12447502
22	0xbe8e7c06	-0.27828997
23	0x3d386063	0.045013797
24	0xbe10e8b4	-0.14151269
25	0xbd1b4e0a	-0.03791622
26	0x3da8001d	0.082031466
27	0x3d3bb50c	0.045826957
28	0x3dd92d66	0.10604362
29	0xbdf7db72	-0.12102403
30	0x3ae0b166	0.0017142713
31	0xbd18fce5	-0.037350554
32	0xbda3eb3b	-0.08003851
33	0x3d9ade35	0.07561914
34	0xbc7275c4	-0.014798585
35	0x3e550217	0.20801578
36	0xbdf06a19	-0.117389865
37	0x3cfae468	0.03062649
38	0xbe7d5e79	-0.2474307
39	0x3a101bc4	0.00054973015
40	0x3ce3e15d	0.027817423
41	0x3df02f40	0.11727762
42	0xbd4ffa10	-0.050775588
43	0x3d170d24	0.036877766
44	0xbd0ead52	-0.03483326
45	0x3db7b67e	0.089703545
46	0xbc467947	-0.012113876
47	0x3d22bf4d	0.03973322
48	0xbd1ca5cf	-0.038244065
49	0x3dc5588b	0.09636029
50	0xbf20a3b7	-0.6274981
51	0xbdc95691	-0.09830964
52	0xbd7efe76	-0.06225439
53	0xbd1e660d	-0.038671542
54	0xbd2a2860	-0.04154241
55	0x3d9fb156	0.07797496
56	0x3d04727d	0.032335747
57	0x3e201974	0.1563471
58	0xbd822143	-0.063540004
59	0xbe09f439	-0.1347207
60	0x3d5e0911	0.054207865
61	0xbd543637	-0.051809516
62	0x3dc00b83	0.09377196
63	0xbd0d678d	-0.03452258
64	0x3d1f1a45	0.038843412
65	0xbbad9b7a	-0.0052980753
66	0x3d2d258c	0.042272136
67	0x3df515dc	0.1196706
68	0x3db58600	0.08863449
69	0x3e05da8f	0.13071655
70	0xbd3e9084	-0.04652454
71	0xbe3cb871	-0.18429734
72	0x3d303870	0.043022573
73	0x3cef78fa	0.02923249
74	0xbd2d93ff	-0.04237747
75	0xbd6947b4	-0.056953147
76	0xbdbad82c	-0.09123263
77	0x3e36b219	0.17841376
78	0xbd230109	-0.03979591
79	0xbd337fe1	-0.043823127
80	0xbd1ec455	-0.038761456
81	0x3d807628	0.062725365
82	0xbe3920e1	-0.18078949
83	0x3d585cb8	0.0528228
84	0x3dbbac5a	0.09163733
85	0x3e2d9082	0.16949657
86	0xbdb6c1fd	-0.08923719
87	0x3da4668e	0.08027373
88	0x3c92a30f	0.017900018
89	0xbe0a06bf	-0.13479136
90	0x3dad9eed	0.08477578
91	0xba64d0bf	-0.00087286154
92	0xbdab2683	-0.08356955
93	0x3e022ecd	0.12713166
94	0x3e5ab814	0.21359283
95	0xbd4ba3b3	-0.049716663
96	0xbd13c819	-0.0360795
97	0xbd0b9038	-0.034073085
98	0x3dafb079	0.08578581
99	0xbd4dfa9c	-0.050287828
100	0xbc90fc90	-0.017698556
101	0x3d68df87	0.056853797
102	0x3deca0b1	0.11554087
103	0xbc0f8b3a	-0.008761222
104	0xbc3243fd	-0.0108804675
105	0x3e4d9dd3	0.20079736
106	0x3d6ec938	0.058297366
107	0xbde372e6	-0.111058995
108	0xbe7efd7c	-0.24901384
109	0xbc84c090	-0.016205102
110	0xbd30a5cc	-0.043126866
111	0x3c6923c0	0.014229715
112	0xbd1b4e7a	-0.037916638
113	0xbcd6aef4	-0.026206471
114	0x3e5331ab	0.20624416
115	0xbdbd0ba3	-0.09230735
116	0x3e63ff93	0.22265463
117	0xbdca374a	-0.09873827
118	0x3b6ea022	0.0036411365
119	0xbdd73724	-0.10508564
120	0xbe7166c0	-0.23574352
121	0xbd9ce4d3	-0.07660832
122	0x3d04cd74	0.032422498
123	0xbd2d6fe2	-0.042343028
124	0xbe382299	-0.17981948
125	0x3e08c5d8	0.13356721
126	0x3dadb754	0.08482233
127	0xbd08026b	-0.03320543
128	0xbe2f5fda	-0.17126408
129	0x3d97a894	0.074052006
130	0xbd870e44	-0.06594518
131	0x3d7ce138	0.061738223
132	0x3d4ec0d6	0.05047687
133	0x3d004bb0	0.03132218
134	0xbc1b24cb	-0.009469221
135	0x3e19588d	0.14975186
136	0x3e47e2f0	0.19520164
137	0x3e22c2eb	0.15894668
138	0xbd726aea	-0.059183992
139	0x3dac50e7	0.084138684
140	0x3e0ed7b5	0.13949473
141	0x3e59ff1a	0.2128872
142	0x3cfa6fed	0.030570948
143	0x3e024726	0.12722453
144	0xbd21ce4a	-0.039503373
145	0x3d1edd47	0.038785245
146	0x3cd33d50	0.025786072
147	0x3d3602a1	0.0444361
148	0x3e4441c9	0.1916572
149	0xbd17442f	-0.03693026
150	0xbc17957e	-0.00925195
151	0xbdb221a6	-0.08697824
152	0x3e240f62	0.16021493
153	0x3e40a6de	0.18813655
154	0x3e152f87	0.14568911
155	0x3e52c461	0.20582725
156	0x3d96fb12	0.073721066
157	0x3d7fe4da	0.06247411
158	0x3d78355e	0.06059777
159	0xbd8bc2a1	-0.06824232
160	0x3d67941e	0.05653774
161	0x3d3974d7	0.045277443
162	0xbd98fda6	-0.074702546
163	0xbd665381	-0.05623198
164	0x3d59caa9	0.053171787
165	0xbcde0604	-0.027102478
166	0xbd756581	-0.059911255
167	0x3cdefb9e	0.02721959
168	0xbd6269c6	-0.055276655
169	0xbd934891	-0.07191575
170	0xbe3f6715	-0.18691666
171	0x3c8c9855	0.017162481
172	0x3d04c54b	0.032414716
173	0x3c0fcf75	0.008777489
174	0xbc4c5a12	-0.012472646
175	0xbd2e97d5	-0.042625267
176	0xba8c029e	-0.0010681932
177	0xbd1eaab9	-0.038737033
178	0xbe3560bc	-0.17712682
179	0xbc81e82c	-0.015857778
180	0x3c8d40b9	0.017242776
181	0x3d205101	0.03913975
182	0xbc01c155	-0.007919629
183	0xbd439222	-0.047746785
184	0x3bd56127	0.0065118256
185	0x3d1d1016	0.03834542
186	0xbd04759b	-0.03233872
187	0x3d6f6257	0.058443394
188	0x3dd7b7ef	0.105331294
189	0xbc175b02	-0.009238007
190	0x3d4264d1	0.047459427
191	0xbc2143db	-0.009842838
192	0x3d256d12	0.04038722
193	0xbd49e4f7	-0.049290624
194	0xbd01caae	-0.03168743
195	0xbd9f8234	-0.07788506
196	0x3cccb6ea	0.024989564
197	0x3e35a97a	0.17740431
198	0x3c90e220	0.01768595
199	0xbe199248	-0.14997208
200	0xbe387414	-0.1801303
201	0x3cc0a86e	0.023517814
202	0xbd377ec7	-0.04479864
203	0xbd001a53	-0.031275105
204	0x3defafc6	0.11703448
205	0x3d8422a3	0.06451919
206	0xbd1cbb10	-0.038264334
207	0x3dd3f0f9	0.10348696
208	0x3dbade5f	0.09124445
209	0x3dc0857a	0.09400459
210	0xbd7278f4	-0.05919738
211	0xba8ef3aa	-0.0010906358
212	0xb9e6712c	-0.00043953338
213	0x3d77d979	0.060510132
214	0x3e55392e	0.20822594
215	0xbc2be04f	-0.010490491
216	0x3d95d68f	0.073163144
217	0xbdf12314	-0.11774269
218	0xbd957518	-0.072977245
219	0x3e18a6f2	0.14907435
220	0x3dc66861	0.096878774
221	0xbcfd7c64	-0.030943103
222	0x3de2992c	0.110643715
223	0x3d697a0c	0.05700116
224	0xbd8b0d31	-0.067896254
225	0xbe02031e	-0.12696502
226	0x3c1e95f1	0.0096793035
227	0xbd0c6ab9	-0.034281466
228	0x3e77b7c5	0.24191196
229	0x3df77089	0.12082011
230	0x3e1a5789	0.15072455
231	0x3e1c5276	0.15265831
232	0xbc84b978	-0.01620172
233	0xbd5eb87c	-0.054375157
234	0x3cef559e	0.02921563
235	0x3d90e1d3	0.070743226
236	0x3dea7e90	0.11449921
237	0x3d813130	0.0630821
238	0xbd9b2084	-0.07574561
239	0xbb34efb2	-0.002760869
240	0xbc4a0f3b	-0.012332733
241	0xbdea2d90	-0.114344716
242	0x3d850fbd	0.064971425
243	0x3dccc739	0.09998936
244	0xbd256d2f	-0.04038733
245	0x3d19175b	0.03737579
246	0x3dcabd96	0.09899442
247	0xbe150b78	-0.14555156
248	0x3e146129	0.14490189
249	0x3d33bd67	0.0438818
250	0x3e09a906	0.13443384
251	0xbdd251d0	-0.10269511
252	0x3d69650c	0.05698113
253	0xbd856f3a	-0.065153554
254	0x3e109b3a	0.14121714
255	0xbc819d63	-0.015822118

gnn.lins.3.bias f4 [128]
0	0x3ca227ad	0.01979431
1	0xbd7bc8ad	-0.061470676
2	0xbd8514af	-0.06498086
3	0xba04f962	-0.00050725613
4	0x3b47170c	0.0030378727
5	0x3ddd9615	0.108196415
6	0x3d1a942a	0.037738957
7	0x3bdeb813	0.0067968457
8	0x3d5cb193	0.053880285
9	0xbd844702	-0.06458856
10	0x3cb8bcc3	0.022550946
11	0xbd00cbee	-0.031444483
12	0x3d148864	0.036262885
13	0xbcbe9b03	-0.023267275
14	0xbcbf69af	-0.023365824
15	0xbd275cfd	-0.040860165
16	0x3dbc17d5	0.09184233
17	0x3d9d8598	0.076914966
18	0x3ccffb1d	0.025388295
19	0x3d9b97e9	0.07597334
20	0xbdaf7672	-0.085675135
21	0x3d663209	0.05620006
22	0x3ca47778	0.020076498
23	0x3da5e70a	0.08100708
24	0xbd30cef1	-0.043166105
25	0xbc346134	-0.011009503
26	0xbd9a8d55	-0.07546488
27	0x3d711ac8	0.05886343
28	0xbcbf4bc0	-0.02335155
29	0xbbee9104	-0.007280471
30	0xbd92db8d	-0.07170782
31	0xbccff0fc	-0.025383465
32	0x3d753d4f	0.05987292
33	0x3daf725c	0.08566734
34	0xbd56af6d	-0.052413393
35	0x3d1d64c4	0.038426176
36	0xbd61f323	-0.055163514
37	0x3c3df48e	0.011593951
38	0x3dbb21a4	0.09137276
39	0x3d5dd42e	0.05415743
40	0xbd83c8d8	-0.06434792
41	0x3dbc3c8f	0.09191238
42	0xbc707bbb	-0.014677937
43	0x3d352510	0.0442248
44	0x3d9a72d4	0.07541433
45	0xbd9b1834	-0.07572976
46	0xbd037a11	-0.032098833
47	0x3b8c607d	0.0042839632
48	0xbb96ded6	-0.004604201
49	0xbd8403c7	-0.06446033
50	0xbc8ece12	-0.017432246
51	0x3cc9de4b	0.02464213
52	0x3d8052f2	0.062658206
53	0xbdaaee0a	-0.083461836
54	0xbd83cec2	-0.0643592
55	0xbd1eaacd	-0.038737107
56	0x3bffdf07	0.0078085694
57	0xbc2cabf9	-0.010539048
58	0x3d13fc12	0.036129065
59	0x3dc5c40c	0.096565336
60	0x3da07cd0	0.07836306
61	0xbbdf6bec	-0.006818285
62	0xba579047	-0.0008223098
63	0x3d12d720	0.03584969
64	0x3c770a1a	0.015078092
65	0x3cb0d42c	0.021585546
66	0x3d14b0ee	0.036301546
67	0xbd269ea6	-0.040678643
68	0xbd47e863	-0.048805606
69	0x3db0876f	0.08619582
70	0x3d902158	0.0703761
71	0x3d476db3	0.0486886
72	0xbb1d1de3	-0.0023974113
73	0xbd1d7807	-0.038444545
74	0xbc202dcd	-0.009776545
75	0xbc9803f9	-0.018556582
76	0x3d93897d	0.07203958
77	0x3d22dc58	0.039760917
78	0xbd0d188f	-0.03444725
79	0x3986ee3a	0.00025735964
80	0xbcec6b16	-0.028859656
81	0x3d387a27	0.04503837
82	0x3d3ad067	0.045608904
83	0xbd802754	-0.06257501
84	0x3db2ccf7	0.087305
85	0x3d40b103	0.04704381
86	0x3cffe2c0	0.031236053
87	0x3cea21ba	0.028580535
88	0xbcffc8c5	-0.031223664
89	0x3b6baeff	0.003596246
90	0x3d2535e7	0.04033461
91	0x3d46ae5b	0.048506122
92	0xbcbb0da1	-0.022833647
93	0xbb0b6e53	-0.0021275475
94	0x3c65681f	0.014001875
95	0xbd2c84e1	-0.04211891
96	0x3d0fe422	0.035129674
97	0x3d663710	0.056204855
98	0x3daae095	0.08343617
99	0x3d8ee85d	0.069779135
100	0x3d1002bc	0.035158858
101	0x3c27bef6	0.0102384
102	0x3d51b7fb	0.051200848
103	0xbd2966aa	-0.041357674
104	0xbdac3820	-0.084091425
105	0xbcedb6b5	-0.029017786
106	0x3c626075	0.013816942
107	0x3c119e48	0.008887835
108	0x3dd66391	0.104682095
109	0xbd005615	-0.031332094
110	0xbd8f01a3	-0.06982734
111	0x3d2adc18	0.041713804
112	0xbc8177c1	-0.015804173
113	0x3beb9f52	0.0071906233
114	0xbd034384	-0.03204681
115	0xbd38c566	-0.04511013
116	0x3dcb238d	0.0991889
117	0xbc97bc82	-0.018522505
118	0x3d96aca4	0.07357147
119	0x3da2e2bb	0.07953402
120	0x3d2131ac	0.03935401
121	0xbbd2d322	-0.0064338604
122	0x3cbbd80d	0.02293017
123	0x3d81ace3	0.06331804
124	0x3d560633	0.052252006
125	0x3d6cd58c	0.05782084
126	0x3d1fb468	0.03899041
127	0x3d20dbc8	0.0392721

gnn.lins.4.weight f4 [1, 128]
0	0xbe1446d6	-0.14480147
1	0x3e25e6c5	0.16201313
2	0x3df8be0e	0.12145625
3	0xbd48d8ad	-0.049034763
4	0xbdaf5429	-0.08560974
5	0xbe446d2c	-0.19182271
6	0x3e0f9285	0.14020737
7	0xbca74d51	-0.02042261
8	0xbdf05146	-0.11734252
9	0xbe452d20	-0.19255495
10	0x3e9a981c	0.30194175
11	0x3e355e8e	0.17711851
12	0xbe56433d	-0.20924087
13	0x3dd8b862	0.10582043
14	0xbe329014	-0.17437774
15	0xbe081ee7	-0.13293038
16	0xbe070734	-0.13186342
17	0xbde15225	-0.11001996
18	0xbdefd69c	-0.11710855
19	0x3ef9bc14	0.48776305
20	0xbd8853af	-0.066565864
21	0xbe3e46d3	-0.18581705
22	0x3dd12db5	0.10213796
23	0xbda43617	-0.08018129
24	0xbe9f5c9d	-0.31125346
25	0x3dbe6361	0.09296299
26	0xbdf14bb0	-0.11782014
27	0xbe31042e	-0.1728675
28	0x3d8260e1	0.063661344
29	0xbe4af70a	-0.198208
30	0xbdaa15be	-0.08304928
31	0xbe6d4de2	-0.23174241
32	0x3eca3a64	0.39497674
33	0x3df33a63	0.11876371
34	0xbde6c8ae	-0.11268745
35	0x3ce086a5	0.027407954
36	0x3d93992c	0.072069496
37	0xbe1d8645	-0.15383251
38	0x3d217749	0.0394204
39	0xbdd40c9a	-0.10353966
40	0x3e7acf06	0.24493036
41	0xbdb5d9cf	-0.08879434
42	0xbe214961	-0.15750648
43	0xbc959d13	-0.018263375
44	0x3dc1ce40	0.09463167
45	0xbde52206	-0.1118813
46	0xbdf8d9e8	-0.12150937
47	0xbddd52cd	-0.108068086
48	0xbe80b4c3	-0.2513791
49	0xbe13cfa2	-0.14434674
50	0xbe9e628c	-0.3093456
51	0xbe871352	-0.26381928
52	0xbe6df40f	-0.23237632
53	0xbe8722de	-0.2639379
54	0xbe28e687	-0.16494189
55	0x3d75654b	0.059911054
56	0xbd8576b5	-0.06516782
57	0xbe0b0366	-0.13575515
58	0xbefe6be2	-0.49691683
59	0x3ea4cb9e	0.32186598
60	0xbd156950	-0.036477387
61	0xbdf64e7c	-0.120266885
62	0xbe3f014b	-0.18652837
63	0x3e6d9e3b	0.23204891
64	0x3e0e09b1	0.13870884
65	0xbe1c8521	-0.1528516
66	0x3e177c56	0.14793524
67	0xbdb37508	-0.08762556
68	0x3ddfe365	0.10932044
69	0xbe0fe64f	-0.140527
70	0xbe5e2a0d	-0.21695729
71	0x3e16e2b3	0.14734916
72	0x3e06f61a	0.13179818
73	0xbdbde121	-0.092714556
74	0x3e3acde1	0.18242599
75	0xbe7585ce	-0.23976824
76	0xbeb1483b	-0.3462542
77	0xbe156b1d	-0.14591642
78	0x3e16f883	0.14743237
79	0xbda333be	-0.079688534
80	0xbe106515	-0.1410106
81	0x3cf44c20	0.029821455
82	0xbd8b973c	-0.06815955
83	0xbe16dbb2	-0.14732245
84	0xbe224f19	-0.15850486
85	0xbe80142e	-0.25015396
86	0xbdd9b395	-0.10629956
87	0x3dc3417f	0.09533977
88	0xbe58a92d	-0.21158285
89	0xbd089cdf	-0.03335273
90	0xbdc40afa	-0.09572406
91	0xbe010ebd	-0.12603278
92	0xbe4330b1	-0.19061543
93	0xbe13bf7a	-0.14428511
94	0xbcb57950	-0.022152573
95	0x3e324557	0.17409264
96	0xbde05ff5	-0.10955802
97	0xbe442661	-0.19155265
98	0xbdffc71a	-0.124891475
99	0xbe18c47e	-0.14918706
100	0xbe4faa2d	-0.2027976
101	0x3e59660d	0.21230336
102	0xbde72c4b	-0.11287745
103	0xbdae3966	-0.08507042
104	0xbe1816bf	-0.14852427
105	0xbe419d73	-0.18907718
106	0x3b7d086f	0.0038609763
107	0xbe07f1b0	-0.1327579
108	0xbe4b5388	-0.19856083
109	0x3de53f20	0.11193681
110	0x3dc0a4e1	0.09406448
111	0xbd8d9d89	-0.06914813
112	0xbe5c7ec8	-0.21532738
113	0xbdd9c10b	-0.10632523
114	0xbddeaaf5	-0.10872451
115	0xbdd11c9e	-0.102105364
116	0xbc34d62f	-0.0110373935
117	0x3e187eed	0.14892168
118	0xbe4a5bdd	-0.19761606
119	0xbe62318e	-0.22089216
120	0x3e0425e3	0.12905078
121	0xbd9b5c2f	-0.07585942
122	0xbd2d0515	-0.042241175
123	0xbec01d40	-0.37522316
124	0xbe6bd733	-0.2303131
125	0xbe2fcc2f	-0.17167734
126	0xbebb78a9	-0.36615494
127	0xbe92a218	-0.28639293

gnn.norms.0.module.weight f4 [128]
0	0x3f9db762	1.2321589
1	0x3f6b333e	0.91875064
2	0x3f11da5a	0.56973803
3	0x3f58de7f	0.847145
4	0x3f41447e	0.75495136
5	0x3f27c04b	0.6552779
6	0x3f56b91c	0.83876204
7	0x3fad20ff	1.3525695
8	0x3f2e740d	0.6814583
9	0x3f8b9072	1.0903456
10	0x3f98bdab	1.1932882
11	0x3f295283	0.6614153
12	0x3f6a6400	0.9155884
13	0x3f8c5ccb	1.0965818
14	0x3f7a3136	0.9773134
15	0x3f5e8625	0.8692344
16	0x3f29e396	0.66362894
17	0x3f581173	0.84401625
18	0x3f26f5e2	0.6521894
19	0x3f71010c	0.9414222
20	0x3f615ec1	0.8803521
21	0x3f3dba12	0.74112046
22	0x3f328416	0.697328
23	0x3f60adc7	0.87765163
24	0x3f9704b7	1.1798314
25	0x3f6ddcb2	0.9291488
26	0x3f830dd6	1.0238597
27	0x3f59a6ad	0.8501995
28	0x3f5d726e	0.8650273
29	0x3f76f7f3	0.9647209
30	0x3f86799a	1.050586
31	0x3f23c60f	0.6397409
32	0x3f401d36	0.7504457
33	0x3f5e5f3c	0.86864066
34	0x3fb7dfd7	1.4365185
35	0x3f800e33	1.0004333
36	0x3f523799	0.82116085
37	0x3f5e934f	0.86943525
38	0x3f5fc199	0.8740478
39	0x3f619998	0.8812499
40	0x3fa62a1a	1.2981598
41	0x3f7ef427	0.99591297
42	0x3f6b53ca	0.91924727
43	0x3f4b8034	0.794925
44	0x3f4cbbca	0.79974043
45	0x3f43b7fd	0.7645262
46	0x3f4fec51	0.81219965
47	0x3fba6c48	1.4564295
48	0x3f4e7f12	0.80662644
49	0x3f02e66d	0.5113285
50	0x3f6b7631	0.9197722
51	0x3f192527	0.59822315
52	0x3f867127	1.0503281
53	0x3f76c176	0.9638895
54	0x3f5c7bfe	0.861267
55	0x3f82a688	1.0207071
56	0x3f164d12	0.5871135
57	0x3f5b4b12	0.85661423
58	0x3f9eb588	1.2399149
59	0x3f6e57e6	0.9310287
60	0x3fae9100	1.3638
61	0x3f0b42be	0.54398715
62	0x3f65fdc2	0.8984033
63	0x3f838577	1.0275105
64	0x3f7d396a	0.9891573
65	0x3fb55724	1.4167218
66	0x3f2d243a	0.676334
67	0x3f75154c	0.9573562
68	0x3fb5dbc2	1.420769
69	0x3f44f723	0.769396
70	0x3f792355	0.9731954
71	0x3f2d66c8	0.67734957
72	0x3f693f44	0.9111216
73	0x3fa13a94	1.2596002
74	0x3f75e115	0.9604657
75	0x3f4f9925	0.81093055
76	0x3f827242	1.0191119
77	0x3f0c4c0d	0.54803544
78	0x3f443d97	0.7665648
79	0x3f508f83	0.8146898
80	0x3f94ebd6	1.1634471
81	0x3f6c8f79	0.9240642
82	0x3f2f9354	0.6858418
83	0x3f5d3dee	0.8642262
84	0x3f906954	1.1282144
85	0x3f616e0e	0.88058555
86	0x3f8d9c72	1.1063368
87	0x3f5d141e	0.8635882
88	0x3f64fecd	0.89451295
89	0x3f6dc58b	0.9287955
90	0x3f781cc6	0.96918905
91	0x3f4d0ccc	0.8009765
92	0x3f68bdba	0.909145
93	0x3f6d71cf	0.92751783
94	0x3f2220a2	0.63331044
95	0x3f963979	1.1736289
96	0x3f97e5da	1.186702
97	0x3faf82e1	1.3711816
98	0x3f2f5760	0.684927
99	0x3f8ec4bd	1.115379
100	0x3f856eed	1.0424477
101	0x3f5b7aaf	0.85734075
102	0x3f6ffd82	0.937462
103	0x3f798890	0.97474
104	0x3f709f31	0.93992907
105	0x3f22763f	0.6346168
106	0x3fa4c562	1.2872736
107	0x3f822057	1.0166119
108	0x3f3e5152	0.74342835
109	0x3f2aaf61	0.66673857
110	0x3f07ca93	0.5304348
111	0x3f35963b	0.7093236
112	0x3f82b9f1	1.0212995
113	0x3f8ea654	1.1144509
114	0x3f687338	0.9080081
115	0x3f822f29	1.0170642
116	0x3f2da545	0.67830306
117	0x3f716480	0.94293976
118	0x3f61c4a4	0.88190675
119	0x3f9193bf	1.1373214
120	0x3f393bfb	0.7235715
121	0x3f70c685	0.94052917
122	0x3f8837a8	1.0641985
123	0x3f77ddc7	0.9682278
124	0x3f2447f6	0.64172304
125	0x3f8f4a7e	1.1194608
126	0x3f5b0a4a	0.85562575
127	0x3f68612e	0.90773284
